s1_M4-Pytorch/final_exercise/training_model.pt (torch, 439383 bytes, 6 tensors)

fc1.weight f4 [128, 784]
-0.0016405024 0.022853259 0.008923262 -0.009987589 0.023704048 -0.0302 -0.034941405 0.031191979
0.028874513 0.033814702 0.012669861 0.074046165 0.02956416 -0.015557694 0.0311718 0.0040614344
0.058763474 0.06649469 0.028840972 0.06686153 0.01741953 -0.024397949 -0.03782234 -0.009710209
0.009043429 0.020069156 -0.0330208 -0.021139521 -0.011570198 0.0011969283 -0.024109378 -0.03423351
-0.0026058755 0.027207684 0.09714543 0.20199364 0.13412458 0.06167918 0.0549123 0.06705048
0.16613878 0.09955829 -0.014040147 0.15174788 0.27373618 0.14291434 0.10386661 0.15082748
0.11586357 -0.029748641 -0.011482392 0.07772586 0.13549925 0.015294585 0.0022799484 0.02379198
-0.012579471 -0.027666071 -0.017174428 -0.03383859 0.06061998 0.08183608 0.039787356 0.12353042
0.09209875 0.15842453 0.23093946 0.26107022 0.39159223 0.23203968 -0.03668212 0.10831193
0.39230978 0.21546856 0.17030297 0.089600176 -0.055296663 -0.09034593 -0.065593 0.10338487
0.07100113 0.042027798 -0.030963976 -0.019071737 -0.021865271 -0.004649725 0.01970996 0.01985082
0.016538166 0.04749286 -0.002016406 0.077556245 0.07067644 0.16413927 0.080110885 0.061935943
0.08619658 0.093165316 0.11448846 0.034675777 0.075204305 0.16197444 0.17926905 0.10901467
-0.21405852 -0.11357346 -0.18575904 -0.12302454 -0.12101995 0.039521098 -0.02868666 -0.0016371049
-0.03247701 -0.005869491 -0.008494263 -0.08567655 -0.048685964 -0.045527108 0.0586334 -0.039559253
-0.070656456 -0.019103896 -0.05792442 -0.12805195 -0.15428431 -0.06801037 0.04791254 -0.014852359
0.13026077 0.071581386 0.12992197 0.034927122 -0.06493531 -0.012660455 -0.16338676 -0.11694487
0.026082383 0.20437893 0.17761898 0.03331596 0.030251767 0.032756295 0.055294294 0.0028563335
0.05877556 -0.029296845 -0.105283126 -0.14356358 -0.13851596 -0.05980411 -0.21655194 -0.1487916
-0.14767116 -0.12383527 0.014501765 0.013118389 0.009555077 -0.084541425 -0.124389425 -0.030744227
0.061021052 0.04981445 0.032150753 -0.08410054 -0.00021344438 0.2393145 0.07935207 0.025145728
-0.0075135026 -0.04656064 -0.058971167 0.033333827 -0.019217994 -0.07131553 -0.10371855 -0.16717625
-0.18923247 -0.12619033 -0.14229552 -0.070772454 -0.006052784 -0.011387538 0.03572842 -0.010858189
-0.080323786 -0.1252342 -0.045427687 -0.014788657 0.0072852895 -0.024521494 0.036300957 0.015800634
-0.11951364 0.2006002 0.21539944 0.18163967 -0.033930294 -0.06017142 -0.032623436 -0.021270808
-0.2807627 -0.33456782 -0.21945055 -0.28342363 -0.24131681 -0.30091187 -0.11461485 -0.06423204
0.04326999 -0.033709217 0.012744843 0.019593887 -0.030309632 -0.1376945 -0.025608726 -0.030579017
-0.07544198 -0.12635574 -0.09533986 0.024881849 0.058248 0.08508686 0.20035827 0.124949574
-0.030429812 0.0029165703 -0.05673851 -0.0892489 -0.19412515 -0.31249005 -0.2173695 -0.19787985
-0.14075607 -0.11270626 -0.18020275 -0.09538108 0.025083221 -0.050157785 -0.024206424 -0.017231898
-0.0830947 -0.057554167 -0.03446292 -0.09338782 -0.09098215 -0.15487455 -0.048479244 -0.10287527
0.048811648 0.002121581 0.118640125 0.10416011 0.013711163 -0.06902195 -0.039551333 -0.14684881
00000000: 2006 d7ba c236 bb3c e032 123c fca2 23bc
00000010: fe2e c23c fe65 f7bc b81e 0fbd 5286 ff3c
00000020: 3e8a ec3c 4981 0a3d 4095 4f3c 84a5 973d
00000030: 8a30 f23c b3e5 7ebc 015c ff3c c815 853b
00000040: f8b1 703d 5e2e 883d e743 ec3c b3ee 883d
00000050: 67b3 8e3c 35de c7bc 99eb 1abd 9217 1fbc
00000060: e42a 143c 1268 a43c d240 07bd ca2c adbc
00000070: ee90 3dbc 40e2 9c3a 0881 c5bc 7038 0cbd
00000080: 56c7 2abb a6e2 de3c 2ff4 c63d 6cd7 4e3e
00000090: f457 093e 4fa3 7c3d b8eb 603d c351 893d
000000a0: 4920 2a3e 37e5 cb3d a508 66bc cc63 1b3e
000000b0: 2627 8c3e 2358 123e 04b8 d43d 8572 1a3e
000000c0: e149 ed3d 6cb3 f3bc a520 3cbc bc2e 9f3d
000000d0: 51c0 0a3e 2496 7a3c 306b 153b 66e7 c23c
000000e0: 201a 4ebc f5a3 e2bc 63b1 8cbc 559a 0abd
000000f0: a84c 783d ad99 a73d 11f8 223d 84fd fc3d
00000100: 459e bc3d 0a3a 223e 657b 6c3e ffaa 853e
00000110: c77e c83e cf9b 6d3e fe3f 16bd a5d2 dd3d
00000120: d4dc c83e caa3 5c3e e763 2e3e 4c80 b73d
00000130: c17e 62bd 4907 b9bd 9f55 86bd 72bb d33d
00000140: 0a69 913d 5725 2c3d 2aa8 fdbc 553c 9cbc
00000150: cc1e b3bc b85c 98bb c876 a13c 309e a23c
00000160: 0c7b 873c e087 423d ae25 04bb cfd5 9e3d
00000170: cfbe 903d 2014 283e 2d11 a43d 8bb0 7d3d
00000180: d587 b03d 75cd be3d ed78 ea3d 3008 0e3d
00000190: b704 9a3d a1dc 253e 4e92 373e 1543 df3d
000001a0: 2832 5bbe 3499 e8bd 9e37 3ebe 4af4 fbbd
000001b0: 4fd9 f7bd e0e0 213d 4900 ebbc 2094 d6ba
000001c0: 9d06 05bd dc54 c0bb 852b 0bbc 3077 afbd
000001d0: ef6a 47bd a27a 3abd 9329 703d e208 22bd
000001e0: 55b4 90bd c67f 9cbc 2842 6dbd 0d20 03be
000001f0: b5fc 1dbe 0549 8bbd f13f 443d 4f57 73bc
00000200: 1463 053e 4399 923d 440a 053e be0f 0f3d
00000210: cefc 84bd cc6d 4fbc dc4e 27be cb80 efbd
00000220: b9aa d53c b648 513e c0e1 353e 5176 083d
00000230: 8ed2 f73c 772b 063d 457c 623d 5331 3b3b
00000240: a4be 703d f0ff efbc ae9e d7bd 5502 13be
00000250: 21d7 0dbe 28f5 74bd cbbf 5dbe d35c 18be
00000260: 1c37 17be 599d fdbd d098 6d3c 83ee 563c
00000270: e68c 1c3c 0e24 adbd e2bf febd 51db fbbc
00000280: 36f1 793d 3d0a 4c3d 82b0 033d e73c acbd
00000290: 0ad0 5fb9 dc0e 753e 5783 a23d 6afe cd3c
000002a0: d433 f6bb 5fb6 3ebd c08b 71bd 0d89 083d
000002b0: 0e6f 9dbc e00d 92bd 646a d4bd 4030 2bbe
000002c0: 28c6 41be 0a38 01be ebb5 11be 26f1 90bd
000002d0: 6f56 c6bb cc92 3abc f757 123d 8ce6 31bc
000002e0: cc80 a4bd 653d 00be 6212 3abd 204c 72bc
000002f0: 70b9 ee3b 4de1 c8bc 50b0 143d 5570 813c
00000300: 91c3 f4bd 246a 4d3e ac91 5c3e c0ff 393e
00000310: 7efa 0abd 4f76 76bd 27a0 05bd 1e40 aebc
00000320: 21c0 8fbe 794c abbe a5b7 60be e71c 91be
00000330: c11b 77be 1f11 9abe 31bb eabd 168c 83bd
00000340: df3b 313d ad12 0abd bfcf 503c 5c83 a03c
00000350: e84b f8bc c9ff 0cbe 64c9 d1bc d980 fabc
00000360: 5381 9abd 6663 01be 8b41 c3bd 05d5 cb3c
00000370: 7495 6e3d 0542 ae3d b82a 4d3e 90e5 ff3d
00000380: f147 f9bc ee23 3f3b a466 68bd 21c8 b6bd
00000390: bec8 46be b2fe 9fbe 1c96 5ebe 04a1 4abe
000003a0: 5c22 10be 8ad2 e6bd 1287 38be 2857 c3bd
000003b0: 547b cd3c 4072 4dbd 8d4c c6bc e929 8dbc
000003c0: 8e2d aabd ebbd 6bbd fe28 0dbd 1d42 bfbd
000003d0: d954 babd 6f97 1ebe 2c92 46bd 45b0 d2bd
000003e0: b9ee 473d 390a 0b3b 98f9 f23d e551 d53d
000003f0: c9a4 603c 615b 8dbd 9400 22bd 895f 16be

fc1.bias f4 [128]
-0.04504061 -0.15067291 0.028063655 0.06259606 -0.04204126 -0.100643046 0.12080841 0.027403353
0.13328399 -0.035699222 -0.115753785 -0.06372441 -0.059755217 -0.15261146 0.09799014 -0.03476389
-0.08096815 -0.057517108 -0.042200584 -0.051363207 -0.037416063 0.16082405 0.0059292326 0.039707292
0.053079553 -0.24320634 0.09239478 0.15272635 -0.11068172 -0.11166251 0.087250225 -0.089274816
0.020297427 0.051489912 0.028954113 0.10434943 -0.010200939 0.046543356 0.24654065 0.13253652
0.006245961 0.018572971 0.108635575 0.020323135 0.10710419 -0.046226375 -0.077151254 -0.046681866
-0.0021707239 -0.107033856 -0.1552199 -0.17110004 -0.15108314 -0.20901953 0.0757987 0.14219266
-0.080364354 -0.014049049 0.050262317 -0.062860966 -0.119210675 0.05262996 -0.20001715 0.057846703
-0.10936172 -0.09909294 0.05920382 0.05371867 0.01609801 -0.122864455 0.11940972 0.08232654
-0.0011378893 0.0016773446 0.13714793 -0.053220935 -0.18342087 0.11115754 0.037295345 -0.025734423
0.18426904 0.10067165 -0.24698463 0.0028117672 0.042669244 0.08346697 0.040405903 0.021117263
-0.029686302 0.015448712 0.009843256 -0.17110293 -0.000359855 0.0610829 -0.050765034 -0.011962155
0.009853214 0.18213739 -0.07180363 0.11292349 -0.048355207 -0.11445471 0.15231192 -0.12085753
-0.14103703 0.032710593 -0.035353884 -0.1841063 -0.10470309 -0.03825448 -0.13896476 0.06275721
-0.05293891 0.061480973 -0.11990921 -0.020933732 0.03418054 0.061239682 -0.031172689 0.0784636
-0.10644194 -0.09394715 0.13788773 0.09427645 0.25367153 -0.0041953973 -0.036315486 0.075135745
00000000: 817c 38bd 004a 1abe c0e5 e53c 5d32 803d
00000010: 7533 2cbd f11d cebd 666a f73d ff7c e03c
00000020: 997b 083e 5939 12bd 5210 edbd f281 82bd
00000030: e3c1 74bd 2e46 1cbe 0eaf c83d 9564 0ebd
00000040: a1d2 a5bd 0f97 6bbd 85da 2cbd 3a62 52bd
00000050: 9641 19bd 0faf 243e 024a c23b 1da4 223d
00000060: f269 593d 150b 79be 7939 bd3d 4c64 1c3e
00000070: 19ad e2bd 50af e4bd 3fb0 b23d b7d5 b6bd
00000080: ca46 a63c 16e7 523d 2d31 ed3c 27b5 d53d
00000090: d721 27bc 3fa4 3e3d 2775 7c3e a7b7 073e
000000a0: ebaa cc3b 5826 983c 547c de3d b47c a63c
000000b0: 7159 db3d de57 3dbd 7a01 9ebd 7c35 3fbd
000000c0: b442 0ebb 9134 dbbd f7f1 1ebe d934 2fbe
000000d0: 8ab5 1abe 3709 56be 593c 9b3d f49a 113e
000000e0: 1196 a4bd fb2d 66bc dcdf 4d3d 40bd 80bd
000000f0: ba24 f4bd 8392 573d 4cd1 4cbe aaf0 6c3d
00000100: 0af9 dfbd 3df1 cabd b47f 723d 1c08 5c3d
00000110: f9df 833c 5ca0 fbbd 158d f43d d19a a83d
00000120: 3b25 95ba 58da db3a 8270 0c3e 32fe 59bd
00000130: aed2 3bbe 90a6 e33d 01c3 183d ffd0 d2bc
00000140: 06b1 3c3e f02c ce3d 8ae9 7cbe a045 383b
00000150: f2c5 2e3d bbf0 aa3d a980 253d 1cfe ac3c
00000160: b030 f3bc 981c 7d3c 9c45 213c 9b35 2fbe
00000170: ecaa bcb9 1032 7a3d ffee 4fbd eafc 43bc
00000180: 606f 213c 3982 3a3e c80d 93bd 6e44 e73d
00000190: 1c10 46bd 3b67 eabd a8f7 1b3e 2784 f7bd
000001a0: 036c 10be 8bfb 053d 3ccf 10bd 5d86 3cbe
000001b0: 936e d6bd bbb0 1cbd c74c 0ebe da86 803d
000001c0: 78d6 58bd 79d3 7b3d f692 f5bd 387d abbc
000001d0: e500 0c3d 76d6 7a3d de5d ffbc 86b1 a03d
000001e0: 3bfe d9bd 5d67 c0bd 7132 0d3e 0314 c13d
000001f0: 3ce1 813e 8b79 89bb 8cbf 14bd c5e0 993d

fc2.weight f4 [64, 128]
-0.0032319701 0.2685662 -0.41098478 -0.1918642 0.3374766 0.16375458 -0.22610797 0.054709308
0.13532296 0.014055692 0.121751845 0.10112362 -0.003062133 0.033226203 -0.11568787 0.04949251
-0.045467436 0.14659688 0.061720498 -0.061095487 0.18783219 -0.39507088 0.09551484 0.13965963
0.12520483 -0.1801433 -0.13561076 -0.04017435 -0.17137055 0.11135091 0.19287387 -0.07380205
-0.013963022 0.035184793 0.089383155 -0.10642564 -0.24424827 0.021483123 -0.039054345 0.21597113
-0.31141734 -0.05667223 -0.19320568 0.24945709 0.2104034 0.059120554 0.19381364 0.042461317
-0.07698858 0.2165254 0.094227426 -0.023781221 -0.02151076 0.17081477 -0.11466468 0.27197748
-0.18239622 0.032121237 0.027091198 0.0050107455 -0.3284825 -0.16767357 -0.07884866 -0.1539925
-0.21015784 -0.1697069 -0.19246176 0.18822007 -0.2913904 0.013661702 -0.19172186 0.047364045
-0.04024695 -0.022933364 -0.23229946 0.14389117 -0.07581783 -0.04434068 -0.09601928 -0.046787135
0.3048831 -0.13734478 -0.15355514 -0.14976111 -0.27991635 0.13358155 -0.16208903 0.1925946
0.081972286 0.2162585 0.067701496 0.06572354 0.034161385 0.09449478 0.2405792 -0.0039244536
0.28899506 -0.061430015 0.15070313 -0.09003489 -0.17887446 0.34364867 0.317016 -0.29744253
0.01804398 0.2169337 -0.053316336 0.39205498 0.1254883 -0.070602916 0.18276398 0.09139581
0.09256019 -0.2533309 -0.18138433 0.003508511 -0.23104237 0.020539748 0.12492466 -0.180603
-0.19602004 0.19232488 0.06750388 0.019844903 -0.024018148 -0.027470965 0.06859513 0.2481439
0.25584483 0.23713376 0.0058250716 0.15948224 0.082307674 0.067628 -0.16296382 0.05852098
0.16827632 0.057313617 -0.19415534 0.022415109 0.0491911 -0.14806847 -0.14672787 0.21384549
-0.0043527763 0.23998868 0.09660443 -0.08375902 0.36094418 0.101023555 -0.008473533 -0.21076944
0.16754498 0.27597547 0.17566302 -0.18924251 -0.23255914 -0.104496315 0.11172255 0.36625195
0.116092436 -0.17305757 0.03945457 0.017809432 0.17398494 -0.08781148 -0.18002968 -0.054801416
0.02126013 0.066545725 -0.09679178 0.084070094 0.065024614 -0.0032102433 0.2569789 0.020719865
-0.025601005 0.10840062 0.1255018 0.07475499 0.18149936 0.09929219 -0.3003206 -0.11417636
-0.05027727 -0.023885947 -0.090219855 0.031604055 0.27196684 0.08709412 -0.022788044 0.08252897
-0.22041883 -0.10221307 -0.08216046 0.058872595 0.116279714 -0.012296057 0.18313485 -0.23988186
0.0020452004 0.027975572 -0.21664481 0.18298273 0.16957894 -0.0036070652 -0.033198655 0.03877632
-0.48889655 0.14813979 0.06855435 0.31942093 0.002026303 -0.025325388 0.16117115 -0.2580768
0.04145625 -0.22036134 0.06704434 0.0207577 -0.06605463 -0.26634905 -0.009202444 0.0155007765
0.012896503 -0.029306494 0.030990636 0.006284586 0.093042456 0.19982283 -0.12519516 0.30086643
0.2754187 -0.005900991 0.089017875 0.35400635 0.08736257 0.023598177 0.3808606 -0.36160502
0.06509539 -0.08157052 0.0966954 0.019149337 0.051503614 -0.06391567 0.08033338 0.18322717
0.16009969 -0.018289533 -0.13396198 0.07940337 -0.105078705 0.079238765 0.010548727 -0.37305212
00000000: 76cf 53bb 8281 893e 996c d2be 0d78 44be
00000010: bcc9 ac3e 48af 273e d988 67be de16 603d
00000020: 1a92 0a3e d849 663c 0859 f93d e719 cf3d
00000030: 11ae 48bb 3318 083d c3ed ecbd a8b8 4a3d
00000040: 103c 3abd 7e1d 163e a2ce 7c3d 433f 7abd
00000050: 1557 403e bb46 cabe 499d c33d ef02 0f3e
00000060: b235 003e 7c77 38be 8cdd 0abe dc8d 24bd
00000070: c37b 2fbe f20b e43d ba80 453e 8725 97bd
00000080: 29c5 64bc ee1d 103d 840e b73d b0f5 d9bd
00000090: 381c 7abe 60fd af3c 73f7 1fbd 8927 5d3e
000000a0: 1872 9fbe 2421 68bd b6d7 45be ae71 7f3e
000000b0: fd73 573e 6528 723d 1577 463e ebeb 2d3d
000000c0: 30ac 9dbd d6b8 5d3e 4ffa c03d d6d0 c2bc
000000d0: 5537 b0bc 11ea 2e3e 51d5 eabd a240 8b3e
000000e0: 13c6 3abe 8f91 033d 5cee dd3c 2e31 a43b
000000f0: dc2e a8be 9fb2 2bbe 687b a1bd 36b0 1dbe
00000100: 9e33 57be a5c7 2dbe b214 45be c3bc 403e
00000110: 1f31 95be 55d5 5f3c bc52 44be cd00 423d
00000120: fcd9 24bd c0de bbbc e9df 6dbe 3558 133e
00000130: 6146 9bbd 939e 35bd c2a5 c4bd dea3 3fbd
00000140: a319 9c3e 1ca4 0cbe 8f3d 1dbe fa5a 19be
00000150: 3251 8fbe 9ac9 083e abfa 25be 8537 453e
00000160: 16e1 a73d de72 5d3e 15a7 8a3d 109a 863d
00000170: cfec 0b3d 7b86 c13d 655a 763e b498 80bb
00000180: 29f7 933e 0a9e 7bbd ec51 1a3e 3664 b8bd
00000190: de2a 37be b8f2 af3e ec4f a23e 634a 98be
000001a0: f8d0 933c de23 5e3e 3b62 5abd 6ebb c83e
000001b0: 0180 003e 4398 90bd 7b26 3b3e ba2d bb3d
000001c0: 3290 bd3d 96b4 81be d0bc 39be 0cef 653b
000001d0: 5f96 6cbe f942 a83c 80d8 ff3d feef 38be
000001e0: 7ab9 48be d0f0 443e 793f 8a3d c791 a23c
000001f0: b5c1 c4bc ca0a e1bc 9b7b 8c3d 6f19 7e3e
00000200: 18fe 823e 31d3 723e 3ee0 be3b 504f 233e
00000210: ed90 a83d 8d80 8a3d fddf 26be b2b3 6f3d
00000220: a150 2c3e afc1 6a3d a8d0 46be e49f b73c
00000230: 9b7c 493d 439f 17be d53f 16be 50fa 5a3e
00000240: bca1 8ebb 98bf 753e 8bd8 c53d d989 abbd
00000250: adcd b83e 70e5 ce3d 93d4 0abc f2d3 57be
00000260: e990 2b3e a84c 8d3e 02e1 333e cac8 41be
00000270: fc23 6ebe 2a02 d6bd cbce e43d 6085 bb3e
00000280: dfc1 ed3d 0136 31be 1d9b 213d 16e5 913c
00000290: 1c29 323e 81d6 b3bd b359 38be 7377 60bd
000002a0: b929 ae3c 2049 883d c53a c6bd f12c ac3d
000002b0: a02b 853d f262 52bb bd92 833e b5bc a93c
000002c0: 33b9 d1bc 2501 de3d 8b83 003e 2519 993d
000002d0: f8da 393e b459 cb3d 9fc3 99be 4cd5 e9bd
000002e0: 8aef 4dbd 76ac c3bc 30c5 b8bd 4173 013d
000002f0: 3d3f 8b3e 675e b23d fead babc f304 a93d
00000300: 79b5 61be 1655 d1bd be43 a8bd 6424 713d
00000310: 0f24 ee3d 6775 49bc b487 3b3e 97a3 75be
00000320: c508 063b 072d e53c 23d8 5dbe d35f 3b3e
00000330: 1aa6 2d3e 8364 6cbb 50fb 07bd ebd3 1e3d
00000340: a650 fabe f5b1 173e 3966 8c3d 248b a33e
00000350: b9cb 043b 3077 cfbc 0d0a 253e a422 84be
00000360: 07ce 293d 67a6 61be 8b4e 893d 0d0c aa3c
00000370: a647 87bd e75e 88be d9c5 16bc f8f6 7d3c
00000380: db4b 533c 2c14 f0bc 13e0 fd3c eeee cd3b
00000390: 0b8d be3d 5b9e 4c3e 2933 00be 2a0b 9a3e
000003a0: ae03 8d3e 1a5d c1bb 014f b63d 5240 b53e
000003b0: 26eb b23d f750 c13c 2900 c33e 4b24 b9be
000003c0: bb50 853d 720e a7bd 3d08 c63d 12df 9c3c
000003d0: 74f5 523d 38e6 82bd d485 a43d e79f 3b3e
000003e0: 2cf1 233e eed3 95bc 542d 09be 3c9e a23d
000003f0: 8133 d7bd ef47 a23d 91d4 2c3c b000 bfbe

fc2.bias f4 [64]
0.056340165 -0.055165686 0.16062377 0.12690777 0.045332342 0.051483948 -0.12063407 -0.0036328358
0.047908656 -0.09818334 0.30984962 0.23740777 0.04189767 -0.01634652 -0.029367533 0.19293565
0.050560758 0.11375769 0.036527827 0.11572339 0.076099835 -0.019393466 0.115236424 -0.1621867
0.2207048 0.20538813 0.14217046 0.14614078 0.10989818 0.039710566 0.024480013 0.03560042
0.092104174 -0.058488283 -0.0035729206 -0.1542096 -0.01397991 0.13114609 -0.078429244 0.13559754
0.032017283 -0.035110984 0.032601524 -0.16421545 -0.04948916 0.08019337 0.0033522297 -0.0046795644
0.17382537 -0.060089603 -0.06846802 -0.0057960646 0.10740853 -0.0044701975 0.19764565 -0.01695648
0.061065838 -0.03298469 -0.05336537 -0.05128181 0.020114439 0.18489033 0.02804377 0.14779273
00000000: f2c4 663d 6af5 61bd 8f7a 243e 1cf4 013e
00000010: 68ae 393d d5e0 523d ff0e f7bd df14 6ebb
00000020: de3b 443d 5914 c9bd 9ca4 9e3e 061b 733e
00000030: e49c 2b3d 23e9 85bc 2e94 f0bc ec90 453e
00000040: cc18 4f3d cbf9 e83d 349e 153d 6200 ed3d
00000050: 3bda 9b3d 0cdf 9ebc 1301 ec3d 4514 26be
00000060: 7000 623e 4451 523e 2295 113e eea5 153e
00000070: 4c12 e13d 8ca7 223d 4f8a c83c bfd1 113d
00000080: 1da1 bc3d 6991 6fbd a927 6abb 1fe9 1dbe
00000090: fe0b 65bc 294b 063e 839f a0bd 15da 0a3e
000000a0: 8e24 033d 89d0 0fbd 2d89 053d 1828 28be
000000b0: 25b5 4abd 6c3c a43d 15b1 5b3b 0857 99bb
000000c0: 47ff 313e 8420 76bd f638 8cbd eaec bdbb
000000d0: 01f9 db3d bc7a 92bb 9f63 4a3e 51e8 8abc
000000e0: 2c20 7a3d f41a 07bd a595 5abd e00c 52bd
000000f0: 09c7 a43c e453 3d3e 0cbc e53c fa56 173e

fc3.weight f4 [10, 64]
0.09869615 0.16518332 -0.4414828 -0.2868109 -0.14398554 -0.23049775 0.19842972 0.18724807
-0.16539107 -0.104205236 0.14769581 -0.4167894 -0.219732 -0.018667232 0.047273148 -0.2726813
-0.4863866 0.20988671 -0.23053089 -0.11468412 -0.15341465 -0.2790934 -0.43701506 0.19047055
-0.45347303 -0.08499281 0.17851311 -0.014114388 0.23941201 -0.11709238 0.1654585 -0.29576805
0.11806275 0.059987452 0.10899621 0.23756619 -0.27416286 -0.25650236 0.08489871 0.23351946
0.21453987 -0.017703133 -0.19197969 0.056630503 0.21779789 0.27171475 -0.09682911 0.009528613
-0.32581097 -0.24961647 0.22040054 0.08188876 0.17197287 -0.17196396 -0.25454092 -0.2088179
-0.28566316 -0.14517939 0.17223953 -0.31210193 -0.050304215 -0.32300448 -0.18057355 0.06776235
-0.32246283 0.1656972 -0.204196 0.13581008 -0.08374807 0.29256135 -0.25961512 -0.39922646
0.11775038 -0.07206661 -0.40490615 0.08873941 -0.15884909 0.102828294 -0.33289582 -0.2448105
0.2000413 -0.19088499 0.15962173 -0.22912617 -0.22257642 0.24229464 0.12767977 -0.390672
0.06600072 -0.09331704 -0.2671114 0.11802858 -0.10283648 -0.40844607 -0.26297903 0.3150586
-0.48476177 -0.29405785 0.17033233 -0.46721333 0.1629555 -0.025164237 0.024717743 -0.3692767
-0.24926075 0.14580473 0.13256286 -0.09460221 -0.22338575 -0.22093602 -0.2201478 -0.03656129
-0.405445 0.20375022 -0.48865286 0.046759035 -0.33335003 0.17130157 0.18332967 0.06901487
0.15997754 -0.17301099 0.13869621 0.21735531 -0.23706181 -0.37464568 0.07540869 -0.046508826
-0.040012702 0.07105745 0.061688695 0.13823922 -0.3282127 -0.04004165 0.1983623 0.020038096
0.15004298 0.20624784 -0.15478514 -0.46901762 0.22634561 0.16549 0.11105121 -0.029008972
0.09391367 0.014238983 0.117153056 -0.46922618 -0.07354168 -0.15118824 -0.2998333 0.16635928
-0.063859314 -0.02442607 -0.014058855 -0.19673915 -0.16798766 0.09732843 -0.028465096 -0.5060479
0.1008194 0.16149852 0.1837555 0.23005982 0.14067596 -0.4541057 -0.058357544 0.016163642
-0.026275663 0.045255635 -0.3668285 0.009916144 -0.36754572 -0.09168089 0.22573367 -0.048828647
-0.20744659 0.24748813 0.090376176 0.14643909 -0.03538708 0.20378646 -0.5317398 0.153586
-0.22613405 0.09077077 -0.1482393 0.2455824 0.022908632 -0.3317039 0.009982871 -0.43878257
-0.08221406 0.14902201 -0.18289961 -0.15036331 0.16708826 -0.43494546 0.11511768 -0.43427414
0.12355599 0.07467432 -0.2617308 -0.035864472 0.011463463 0.18039921 -0.33171237 0.040053546
-0.29760996 -0.16225141 -0.07911042 0.025487188 -0.15467899 0.119015895 0.04760425 -0.26790702
-0.2023023 -0.2775488 -0.6314175 -0.4389714 -0.41918 0.06082705 0.11168728 0.19799805
0.15797287 0.043779586 -0.2056908 0.21792752 0.17145756 0.10027589 0.30096236 -0.1703809
0.119227834 -0.06319735 0.2773572 -0.12873475 -0.22575675 -0.31310022 -0.13015658 -0.05311474
0.002529025 -0.24375498 0.21507855 -0.37684938 -0.014006646 -0.17663416 0.08796121 0.19839118
-0.03724174 0.18034671 0.09118388 -0.057448328 0.27859947 -0.13091049 -0.11411134 0.082849406
00000000: 3521 ca3d d125 293e 090a e2be e1d8 92be
00000010: f270 13be 9a07 6cbe 2931 4b3e f5bd 3f3e
00000020: 475c 29be 8e69 d5bd 923d 173e 6c65 d5be
00000030: 6d01 61be 06ec 98bc 7da1 413d e29c 8bbe
00000040: aa07 f9be 8bec 563e 4a10 6cbe 82df eabd
00000050: bb18 1dbe 55e5 8ebe 70c0 dfbe b60a 433e
00000060: 9e2d e8be b610 aebd 24cc 363e 0940 67bc
00000070: 6c28 753e 21ce efbd f46d 293e e96e 97be
00000080: e2ca f13d 67b5 753d 6839 df3d 8d44 733e
00000090: 135f 8cbe 4754 83be 60df ad3d ba1f 6f3e
000000a0: 57b0 5b3e 2906 91bc 5396 44be 63f5 673d
000000b0: 6906 5f3e 321e 8b3e 574e c6bd e61d 1c3c
000000c0: b2d0 a6be 769b 7fbe aeb0 613e 4bb5 a73d
000000d0: a819 303e 5217 30be 3053 82be 5cd4 55be
000000e0: 7142 92be e8a9 14be 8f5f 303e d3cb 9fbe
000000f0: cb0b 4ebd d860 a5be 46e8 38be fdc6 8a3d
00000100: d919 a5be 87ac 293e c218 51be cc11 0b3e
00000110: 1c84 abbd 9aca 953e 46ec 84be 6967 ccbe
00000120: 1c27 f13d a997 93bd dc4f cfbe 02bd b53d
00000130: 56a9 22be a497 d23d 5271 aabe 9baf 7abe
00000140: a0d7 4c3e 5b77 43be e173 233e 0da0 6abe
00000150: 13eb 63be 161c 783e 7cbe 023e 2906 c8be
00000160: 632b 873d 011d bfbd d3c2 88be f8b8 f13d
00000170: ef9b d2bd d81f d1be 30a5 86be 5c4f a13e
00000180: b232 f8be c08e 96be 996b 2e3e 9636 efbe
00000190: cedd 263e 3b25 cebc dd7c ca3c d611 bdbe
000001a0: 363e 7fbe d64d 153e 8fbe 073e cebe c1bd
000001b0: 3cbf 64be 0d3d 62be 6d6e 61be 4bc1 15bd
000001c0: 7d96 cfbe e6a3 503e b530 fabe 6786 3f3d
000001d0: dbac aabe ae69 2f3e c6ba 3b3e ab57 8d3d
000001e0: 27d1 233e cb29 31be 6106 0e3e 6492 5e3e
000001f0: 55c0 72be 8fd1 bfbe df6f 9a3d 0a80 3ebd
00000200: 5ce4 23bd 9186 913d 49ad 7c3d 958e 0d3e
00000210: 7f0b a8be b702 24bd 7d1f 4b3e ef26 a43c
00000220: dea4 193e a232 533e ff7f 1ebe 1423 f0be
00000230: 25c7 673e 3676 293e d16e e33d 39a4 edbc
00000240: cf55 c03d a04a 693c f1ed ef3d 6a3e f0be
00000250: 059d 96bd 17d1 1abe c083 99be 165a 2a3e
00000260: acc8 82bd 2e19 c8bc 1d57 66bc fd75 49be
00000270: f504 2cbe 2154 c73d a22f e9bc 5b8c 01bf
00000280: 677a ce3d de5f 253e 672a 3c3e cd94 6b3e
00000290: 5c0d 103e 8b80 e8be 5208 6fbd 9d69 843c
000002a0: 0f40 d7bc f95d 393d f2d0 bbbe 5377 223c
000002b0: f42e bcbe 31c3 bbbd ba26 673e 8c00 48bd
000002c0: e16c 54be 876d 7d3e 2517 b93d 21f4 153e
000002d0: 0bf2 10bd 66ad 503e 1920 08bf a645 1d3e
000002e0: af8f 67be 07e6 b93d 0bcc 17be f479 7b3e
000002f0: e2aa bb3c 18d5 a9be 328f 233c 1ca8 e0be
00000300: d85f a8bd 3a99 183e 094a 3bbe d7f8 19be
00000310: 2f19 2b3e 2cb1 debe d1c2 eb3d 2e59 debe
00000320: ec0a fd3d daee 983d 9401 86be a0e6 12bd
00000330: 40d1 3b3c 92ba 383e 34d6 a9be 300f 243d
00000340: 5560 98be 3c25 26be a504 a2bd 82ca d03c
00000350: 2b64 1ebe 9bbe f33d adfc 423d 1c2b 89be
00000360: 5628 4fbe e01a 8ebe 94a4 21bf dcc0 e0be
00000370: c39e d6be c925 793d 4dbc e43d 00c0 4a3e
00000380: a4c3 213e 3952 333d 9ca0 52be 6428 5f3e
00000390: 9292 2f3e 725d cd3d bd17 9a3e 5578 2ebe
000003a0: b92d f43d 9d6d 81bd c301 8e3e 0bd3 03be
000003b0: c72c 67be ac4e a0be c447 05be d78e 59bd
000003c0: 00be 253b e89a 79be 8d3d 5c3e 67f2 c0be
000003d0: 227c 65bc 96df 34be 0225 b43d 0f27 4b3e
000003e0: cb8a 18bd cfac 383e 9dbe ba3d f04e 6bbd
000003f0: 97a4 8e3e 660d 06be 35b3 e9bd f3ac a93d

fc3.bias f4 [10]
-0.19177558 0.10054386 -0.29270276 -0.20672028 0.14647502 0.12985805 0.01180486 0.07351797
0.006866286 0.02631599
00000000: d160 44be f0e9 cd3d 23dd 95be 7bae 53be
00000010: 8cfd 153e 82f9 043e 2c69 413c 9790 963d
00000020: 95fe e03b a294 d73c
