s1_M4-Pytorch/final_exercise/training_model.pt (torch, 439839 bytes, 6 tensors)

fc1.weight f4 [128, 784]
00000000: d0eb 013c 1843 2bbc 51d0 113d 9813 b03b
00000010: b8d4 efbc 98a1 473c d22f ab3c debc f83c
00000020: 2a24 093c 417f bebc 14a7 efbd 5b5b bbbd
00000030: ff56 e23d 80de 54bc e505 76bc f821 c7bb
00000040: 939e 3b3d 6efd cc3d e8ee cc3d d6b7 a03d
00000050: 790b c6bc 6bce 0ebd 3741 ce3c 42e3 e13c
00000060: c4ad 023c da7e b33c 5a09 c7bc 08ce cdbc
00000070: eefb 67bc 0067 c63c 2283 e93c 50c7 663b
00000080: 73fc f53c 3e1c e0bc 5513 d73c 884d 0d3e
00000090: 1f79 9c3d e478 b03d 5dc8 6cbd 89eb fdbd
000000a0: f3ee a4bc b4bf 95bc acb3 10bd bc2f 8dbd
000000b0: e5c5 0b3e e684 eb3d 015a 093e 8110 5b3e
000000c0: 1d1a 283d d77d 4f3c bb14 d43d 96ba c23d
000000d0: 14f6 a03d a84c 943c d06b 193b 1cf7 b93c
000000e0: 81cd febc c0b0 a8ba eab2 de3c 1800 1a3c
000000f0: 914f a33d 1081 c73d 6a0d 2e3d f500 893d
00000100: 82ba fb3d 350c 6a3e 60ab 003e dbc1 81bd
00000110: b206 623d 10cb 1c3d 9e8f 43bd 5133 d73d
00000120: df33 533e f987 583e 98d4 7b3e 69c6 2f3e
00000130: 0eea 043e bd33 863d ced3 a5bd 029a 14be
00000140: 2d1b 003e fc8d ca3c 4007 98ba 452e 82bc
00000150: 12e6 ef3c 9c9e e1bb 5aa8 e13c 4c07 cc3c
00000160: ca9b 8a3d f225 933c 48af 233d 05eb 673e
00000170: 1c01 843e 2180 813e af4e b23d cadb 3ebe
00000180: 6586 18be d88b 08be 15bc 95bd ed9a ddbd
00000190: 3572 a8bd b9a3 273e e23c e13d f554 1ebe
000001a0: e92f 49be fe56 383c 60e2 18bd a1bc 1bbe
000001b0: c990 44be 5248 c13b 4f76 99bd 8a99 47bc
000001c0: 637c 0d3d 7e84 c3bc b98d 3a3d 15c3 15bc
000001d0: 3e29 18be 2cb4 2ebe 0633 b0bd 0455 653e
000001e0: 55a6 663e f380 663e cd21 34bd 8932 2bbe
000001f0: 0aaf f6bd 78cc 00be 76e1 a53d 209c 0e3d
00000200: 729b cc3c bef8 afbd 91f7 81bc ac8a 513e
00000210: e1ee bf3c 4f16 0e3d eed8 47be cd98 46be
00000220: 0348 fcbd 1f2f 4abd 5f8f f1bd bf62 013d
00000230: ba4b f53c d7be 05bd 53f1 71bd 8dfb 4b3c
00000240: 256b 6cbd 96ee 0ebe 471b 09bd 5c92 66bd
00000250: 9546 c73c 8d29 a8bb 60af a8be 4ee5 a3be
00000260: 8cd7 90be 08bb bbbd 7074 163d 2bcf 2c3d
00000270: 7e92 213e 9409 16bd fb33 883d 1909 443e
00000280: c056 99bc 8582 3f3d e0a4 0c3e 5d1f adbe
00000290: c43d a3be de0e 153c b697 323d 70a0 31bb
000002a0: 7af2 d63c 9b25 04bd 4b37 f73c 5a71 5a3d
000002b0: b659 1fbe 25c9 7bbe 5a7a 66bd c5a8 f1bd
000002c0: 9f14 8dbe a1c4 78be c761 36be 8745 33be
000002d0: 26d7 8cbc 731a 353c 8d95 86bd 1765 20be
000002e0: d9f7 f0bd cdea 0dbe 5fa5 04bd 9527 da3d
000002f0: 0353 efba 7584 21bc 2fbb 293e 8064 e1bc
00000300: a1ba 4abd ebbb 813e 04a5 bb3e 316a 7f3e
00000310: aaab 5bbc 8236 87bd 9aee 483d 7359 a6bd
00000320: b1a2 7bbe 4704 41be 93af 30be cd88 babd
00000330: 873e 93be 761f 09be e526 803d 9175 a3bd
00000340: 5039 6f3d d64a ffbd 5766 55be 22c8 18be
00000350: 345b 6bbc 94b1 23be c0cb a7bc 7206 97bd
00000360: bf73 42bd a2e9 433d 3837 df3c 64e0 0c3d
00000370: 172e 01be 5921 82bb 61e5 bc3d 4139 633e
00000380: 923a 933c f869 e1bd 1cf5 1e3a d008 a73d
00000390: 0332 15be 3303 96be 05e0 0bbe e3ae 203c
000003a0: 197e d8bd 321a d3bb 171b b9bd 0867 e8bd
000003b0: b101 e7bc 5598 bcbd 15c8 e1bd 27ac 0dbe
000003c0: 8090 dbbd b463 0bbe 1b12 8cbd d17d 1f3c
000003d0: 8100 8ebd 83b2 49bd ebea 40bd c882 a63b
000003e0: f51c 14be a4a0 653d 4ecb a03d a5ac b73d
000003f0: 30d1 d43c da87 f5bd ca13 8abd c82b 80be
0.007929757 -0.010453008 0.035599057 0.0053734295 -0.029276237 0.012184523 0.020896826 0.030363496
0.008370439 -0.023254039 -0.117017895 -0.09148284 0.110517494 -0.012992501 -0.015016054 -0.0060770474
0.045805525 0.100092754 0.10006505 0.07847564 -0.024175392 -0.034864824 0.025177581 0.027574185
0.007975999 0.021911073 -0.024296451 -0.025122657 -0.014159186 0.024219036 0.028504912 0.0035214014
0.030027604 -0.027357217 0.026254335 0.13799107 0.076402895 0.08616808 -0.05780827 -0.123984404
-0.020133471 -0.018279888 -0.0353276 -0.0689387 0.1364971 0.11499958 0.1341324 0.21393014
0.04104053 0.01266428 0.103555165 0.09508245 0.07859436 0.018102959 0.0023410209 0.022700839
-0.031103851 -0.0012870058 0.027184922 0.009399436 0.079741605 0.097414136 0.04249326 0.06689636
0.12291433 0.22856219 0.12565374 -0.06335803 0.055182166 0.038279593 -0.047744386 0.10507835
0.20625256 0.2114562 0.24592817 0.17165531 0.1297991 0.06552837 -0.08097039 -0.14511874
0.12510367 0.024725907 -0.001159884 -0.015891204 0.02928451 -0.006885363 0.027546097 0.024905823
0.06767996 0.01796243 0.039962083 0.22648247 0.25782096 0.25293067 0.08706414 -0.1863853
-0.14895017 -0.13334596 -0.073112644 -0.108205654 -0.08224908 0.16371049 0.109979406 -0.15462096
-0.19647183 0.011251209 -0.037325263 -0.15208675 -0.19195856 0.005898514 -0.07493269 -0.012182603
0.034542453 -0.023866888 0.045545314 -0.009140749 -0.14859483 -0.17060918 -0.08603482 0.22395712
0.22524388 0.22510128 -0.043977547 -0.16718496 -0.12045105 -0.12577999 0.08099644 0.03481686
0.024976466 -0.08592366 -0.01586512 0.20463055 0.023429336 0.034689244 -0.19516346 -0.19394226
-0.12318423 -0.049361344 -0.11794924 0.031588312 0.029943336 -0.032652702 -0.059068035 0.012450111
-0.05771937 -0.13958201 -0.03347328 -0.056291923 0.024325648 -0.0051319064 -0.329463 -0.32010883
-0.2828945 -0.09166533 0.036732137 0.04218976 0.15778539 -0.03663023 0.066505395 0.19144095
-0.018718123 0.046755332 0.1373477 -0.3381299 -0.3188306 0.009097783 0.043601714 -0.0027103685
0.026238669 -0.032262426 0.030177733 0.053330757 -0.15561566 -0.2458845 -0.056269027 -0.11799768
-0.27554795 -0.24293758 -0.17810737 -0.17506991 -0.017192435 0.011053669 -0.06571493 -0.15663563
-0.11766023 -0.138591 -0.032384273 0.10652081 -0.0018258992 -0.00985824 0.16575311 -0.027513742
-0.04949439 0.25338683 0.36649334 0.24942853 -0.013407627 -0.066021934 0.049055673 -0.0812253
-0.2457378 -0.18849288 -0.17254476 -0.09108124 -0.28758642 -0.13390908 0.062574185 -0.079814084
0.058404267 -0.12465446 -0.20839821 -0.14920095 -0.014365006 -0.1598571 -0.020482898 -0.07374276
-0.047473665 0.04783023 0.02724801 0.034393683 -0.12615238 -0.0039712605 0.09223438 0.2218981
0.017972264 -0.1100654 0.0006063746 0.08155978 -0.14569859 -0.29299316 -0.13659675 0.009807321
-0.10570926 -0.0064423317 -0.0903837 -0.11347777 -0.028199049 -0.092087425 -0.11024491 -0.13835202
-0.107209206 -0.13612252 -0.06839391 0.009734587 -0.0693369 -0.049242508 -0.047099035 0.0050815083
-0.14464171 0.056061402 0.07851277 0.08968476 0.025978655 -0.11988802 -0.06742056 -0.25033402

fc1.bias f4 [128]
00000000: 494b 06be 9a2b 373d 1ab3 62bd 680c 9f3e
00000010: cc8c c2bc 3e33 8cbd 8e2b 53bd 129b 42be
00000020: 015d 43bb 9971 edbd 47d7 f83d 1c60 46bd
00000030: 056b 1a3d ebf2 1ebd 5781 113c 11da 41bd
00000040: 77ef 883e f883 4f3d a616 20bd 96b3 53bd
00000050: 4e28 ecbd 6b60 fcbb 7353 7d3d 37ba 60bd
00000060: 42ae e13c d9cf 1c3e 667d 05bd 5d3f e73d
00000070: 86b8 d43c 0dc7 e43c 6512 823e 8353 5ebe
00000080: 319a 06be e826 783d 0e31 dabd 9574 36be
00000090: 10cc 8cbb f943 66bd 5f31 423e 760d 673d
000000a0: 8691 003d cbff e43a 5a80 0cbd 4a31 bebe
000000b0: 8242 b1bd 9d09 8dbd e5e1 ab3c acc2 643d
000000c0: b2fb 6d3d 4ee4 11be 76c0 073e 9553 b0bd
000000d0: e9ab 693e b14c 413e 722b 8ebd 8b45 8c3b
000000e0: e3a2 2b3e 6c2c 8e3d 9725 803d cf08 55bd
000000f0: bb85 ba3b 1e20 4dba 3f4f 853d b392 2c3d
00000100: b88a fabd e76e 02be 1c73 00be 46f8 9f3b
00000110: f47c 72bd e80f ce3d 970b 45bd 02b0 b2bc
00000120: 56b7 d93d 628f 033e 65a9 80bd 48e6 5fbe
00000130: a25f 163e bba6 0d3e f17c 8b3c 41b8 0e3e
00000140: 43c6 34bc 4b8e 28bd 686b 13bd e3b3 193d
00000150: 5ffb 4cbd fa63 c2bc e8ae 913d b54e e7bd
00000160: f89f 113c 9012 7fbd 40ba c0bd aac7 ac3d
00000170: 129d 60bd e27d e7bd b451 12be 3667 993b
00000180: 622b 343e e1ba 6ebc 34ea 57bd c82f 68bc
00000190: 7419 3e3e dbf2 54bd 8cba 863d 6d8a 3c3d
000001a0: 4c6f d73d 526a e53b a5a0 cabd 78cc 09bc
000001b0: eb3c 1abd 923b 75bc b4e3 c83d 459f 353e
000001c0: d168 963d 71b6 f63d 3989 1a3e c488 b2bd
000001d0: 34b5 4f3b bc64 07be 3876 d6bd cbed 1dbe
000001e0: ac5b 53be 2c14 043e edbc 21be f13a febc
000001f0: 1d29 6a3e e8ef cbbd 58b1 ddbd 0f68 03bc
-0.13114657 0.044719316 -0.055346586 0.31064153 -0.023748778 -0.06845711 -0.05155521 -0.19004467
-0.0029810073 -0.11593933 0.12150436 -0.0484315 0.037699718 -0.038805883 0.008880935 -0.047327105
0.26745197 0.050662965 -0.0390841 -0.05168494 -0.11531125 -0.0077019236 0.06184716 -0.05486509
0.027548913 0.15313663 -0.032590292 0.112913825 0.025966894 0.027926946 0.2540466 -0.21711545
-0.13144757 0.06058398 -0.10653888 -0.1781791 -0.004296787 -0.056217168 0.18964146 0.05640932
0.031388782 0.0017471252 -0.034302093 -0.3714698 -0.086552635 -0.06886599 0.020981738 0.055849716
0.058101363 -0.14247248 0.13257012 -0.08609692 0.22819485 0.18876912 -0.0694188 0.004280751
0.16761355 0.069420666 0.0625717 -0.052010354 0.0056922114 -0.0007824915 0.065092556 0.04213209
-0.1223349 -0.12737618 -0.1254391 0.0048818914 -0.059201196 0.100616276 -0.048106756 -0.021812443
0.10630672 0.12847665 -0.062823094 -0.21865189 0.14684919 0.13833134 0.01702735 0.13937475
-0.011033597 -0.041151326 -0.035991102 0.03752507 -0.050044414 -0.023729313 0.07113439 -0.11294309
0.008888237 -0.062273562 -0.09410524 0.084365204 -0.054837294 -0.11303307 -0.1428898 0.004681493
0.17594674 -0.014570923 -0.052713588 -0.014171548 0.18564397 -0.051989418 0.0657855 0.04603045
0.10519275 0.0070011998 -0.09893922 -0.008410566 -0.037655752 -0.014967816 0.09809056 0.17736538
0.07344211 0.12046517 0.15091409 -0.08717492 0.00316937 -0.13222021 -0.10471767 -0.15422742
-0.20640439 0.1289832 -0.15794726 -0.031033965 0.22867246 -0.09957868 -0.10824841 -0.008020415

fc2.weight f4 [64, 128]
00000000: f2f1 843d 1031 1dbe 82ac 1ab9 2916 fa3c
00000010: cc8d 893e c087 1e3e 8b11 fa3c 0792 0a3c
00000020: 338c 9abc 6fc3 4d3d 66bc 72bc 3934 f03b
00000030: c80f 9f3e 6dab 143d 75e7 deba 4267 423d
00000040: dcd6 c2bc 439f 943e 5dbc d13c 74ce d53c
00000050: acdc 0b3e a70e a4bd 4078 dabd 640f 3fbe
00000060: 5f04 603e 5ef8 8cbd 2a9f f53d fb0a a1bd
00000070: 358f 903e 4092 2abd 990c 643d 5263 b03d
00000080: f898 b23e 9c1d a7bd 8502 183f 89cc 3f3d
00000090: 8f38 223d 22b3 3cbe 2885 77bd 6796 4ebd
000000a0: cac3 993e 7327 203d 0ef8 f6bd 56e9 4c3c
000000b0: 88e8 cb3d 0259 e2bd 13da 43bb 45ce d43d
000000c0: d1d9 823e b5d1 c6bb 5433 45be c1f4 163f
000000d0: 33c4 1a3f d09c afbd aa69 b13e cf5f 123e
000000e0: 10a1 ccbd 48be 353d 3990 dc3d e42f 8f3e
000000f0: cd7b 1a3e 2892 a03c 634c 1fbe 2dbc 79be
00000100: 673c c53d 92c6 c4bd 640d 79bd 60cf 113d
00000110: c42f 2ebe 8911 48be 1c0b 723d 6d67 9f3c
00000120: c93f 06be 2fd0 813d 05e6 273e 224d a9bd
00000130: 0e48 a1be 0cd8 2cbe b3c1 86bd 8dbf 50bb
00000140: 3a4f 6bbb c692 ac3d e248 023d f76b f9bd
00000150: 1b43 2b3e 5bca bcbd f726 5b3e a437 5c3e
00000160: 14a3 cdbb 7803 b53d fc88 c93d bf82 2e3e
00000170: eaab 833d ad41 5fbe 9a5d 3cbe 1f1f 73bd
00000180: f3b2 913d ad49 90bb 3910 573e c683 993d
00000190: 3292 213e 341b 1cbd 26b5 ae3e 47b0 be3e
000001a0: 2cb8 663d 8257 093f 08e3 603d 1c4b 3ebe
000001b0: 52eb 853c 2de4 083e a81d e13d 39e7 aabd
000001c0: 4cac a3bd a564 933e 26ba 003e 0d35 61bc
000001d0: eea7 b03c fb2a 923e a340 233e 2611 193d
000001e0: f52f 783e 3a87 db3e 7c8a e33c 3202 cabd
000001f0: 453a c33e 7760 953e 7dca 0e3d b00e 74bc
00000200: 8fe3 83bd 4249 fc3b 7673 23be d98a 38be
00000210: 7037 0dbd 52e1 5bbd 32f1 8ebd 8214 47bd
00000220: eb72 573c 3ba5 27bd ac66 a9bc ea26 113d
00000230: a016 6e3c 1ecc 5b3d c26f 84bd a4f0 d2bc
00000240: bbde c0bd e68f b2bc e304 9cbd e6ab e93c
00000250: f6b8 86bd 72ca 663c 56a9 56bb 9fb7 043d
00000260: d5e0 633d 4dfe 6139 92ae b2bd a1d9 adbd
00000270: fd2d 5dbc d0d8 92bd a5e9 5cbd c6ab 4fbd
00000280: bb6b e2bd abf9 30bd e644 d5bd d070 c5bd
00000290: 5aac 86bd d060 93bd 04bc 87bd fa49 f9bc
000002a0: 9aa2 05be c9a0 cd3b 20f6 edbd 5186 e4bd
000002b0: 82fc b8bd 513c 8ebd 4d3a d3bd b9b2 40bd
000002c0: 3970 3ebe 9332 9bbd 44c7 f9bc c4ec 6a3b
000002d0: 64b2 ebbd 3192 9fbd 6c97 9c3c 4a96 8ebd
000002e0: 749a 64bc 7799 e8bc 4143 76bd 970e 123c
000002f0: 004e 3cbd 7a59 b8bd 9158 cebd 4bee 19bc
00000300: 6496 873d de16 8e3d 2366 67bd 8dfb c63c
00000310: bdc9 e6bd ea9e b9bd e396 86bd 12f6 acbd
00000320: ad3e 0ebd c3ed 00bc 3326 9dbd 02ba abbd
00000330: 922c 94bd 2980 55bd a31b e7bd a355 53bd
00000340: 6a93 343d 5eb0 4abd 7479 533d 3026 8ebd
00000350: bf67 bdbd f9ba adbd 0573 a3bd 49ad 52bd
00000360: 7a27 5a3d d98f e6bd 95ba d3bd 5115 80bd
00000370: 6698 49bd 89ec 8bbd dbfd 0b3b 202f 97bb
00000380: ac80 cfbd 3838 ac3c aecf edbd 66dd 783d
00000390: d201 90bd ab73 b03d 67bb 1ebd c2ba 0dbd
000003a0: d67a 35bd 30c2 da3d be0b 9dbd 28dd 0e3d
000003b0: 5aab 24bd 2b73 29be 49ac 8abd 791c f63c
000003c0: 7123 ddbd 909a 583c f5c6 0bbd 0083 bc39
000003d0: 61e7 bebd 165f b33c de9b d0bc 6082 2a3c
000003e0: f1d4 b4bd 52ac 7bba dea7 81bd 57cb 99bd
000003f0: 4c13 473c d3ac ccbd 3a5e c0bd 46b6 533d
0.0649146 -0.15350747 -0.00014750849 0.030528145 0.26865995 0.15481472 0.030525943 0.008457667
-0.01886568 0.050235208 -0.0148154255 0.007330444 0.31066728 0.036296297 -0.0017006235 0.047461756
-0.023784094 0.29027757 0.025602514 0.026099421 0.13658398 -0.08010607 -0.10667467 -0.18658215
0.21876667 -0.0688331 0.11993249 -0.078634225 0.28234258 -0.04164338 0.055676077 0.08612694
0.3488233 -0.081599444 0.59378844 0.04682592 0.03960472 -0.18427709 -0.060429722 -0.050436404
0.30032188 0.03910012 -0.120590314 0.0125068035 0.09956461 -0.11052133 -0.002988462 0.10390905
0.25556806 -0.0060674795 -0.19257861 0.58967215 0.60455626 -0.085748315 0.34650928 0.1429436
-0.09991658 0.04437092 0.10769696 0.27966225 0.15086289 0.019600943 -0.15556483 -0.2438819
0.096306615 -0.09608187 -0.060803786 0.03559816 -0.17010409 -0.19537939 0.059092626 0.019458497
-0.1311027 0.06338536 0.16396339 -0.08266665 -0.31500286 -0.1687929 -0.06579914 -0.0031852454
-0.0035905377 0.08426432 0.031807788 -0.12178796 0.16724817 -0.09218284 0.21401583 0.215056
-0.006275544 0.08838552 0.09840581 0.17042063 0.064292744 -0.21802397 -0.18395081 -0.05935585
0.0711421 -0.004403314 0.21002282 0.07495837 0.15778425 -0.03811188 0.3412258 0.37243864
0.056327984 0.5364915 0.054904014 -0.1858334 0.016347561 0.13368292 0.109919846 -0.083448835
-0.079918474 0.28787723 0.1257101 -0.013745558 0.02156445 0.28548416 0.15942626 0.03736987
0.24237044 0.42876607 0.027775995 -0.098637 0.38130394 0.2917516 0.034861077 -0.01489608
-0.06439888 0.0076991627 -0.15962014 -0.18021716 -0.034476697 -0.05368168 -0.06979598 -0.048603542
0.013149957 -0.04092906 -0.02067884 0.035437502 0.014531761 0.05366146 -0.064666286 -0.025749512
-0.094174825 -0.021797132 -0.076181196 0.02852435 -0.06578247 0.014086353 -0.003275474 0.032401677
0.05563434 0.00021552407 -0.08724703 -0.08488775 -0.013499734 -0.0717026 -0.05393376 -0.050700925
-0.11055704 -0.043206852 -0.10413532 -0.09640658 -0.06575842 -0.071962 -0.06627658 -0.030430783
-0.13050309 0.0062752706 -0.1161921 -0.11158431 -0.09032537 -0.06945098 -0.10313854 -0.047045443
-0.18597497 -0.07578006 -0.030490525 0.003584669 -0.11508635 -0.07791556 0.019115172 -0.06962259
-0.01395284 -0.02839349 -0.060122732 0.008914611 -0.045972824 -0.09001441 -0.100754865 -0.009395192
0.066204816 0.06937955 -0.05649389 0.02428987 -0.11268947 -0.090635136 -0.06571748 -0.08445372
-0.03472774 -0.007869187 -0.076733015 -0.083850875 -0.072350636 -0.052124176 -0.11284568 -0.05159534
0.044085898 -0.049484603 0.0516295 -0.069408774 -0.092483036 -0.08482928 -0.079809226 -0.05143479
0.053260304 -0.112579055 -0.10338322 -0.06254066 -0.049217604 -0.06832225 0.0021361026 -0.004613772
-0.10131964 0.021022901 -0.116118774 0.060758017 -0.07031597 0.08615812 -0.03875294 -0.034601934
-0.0443066 0.106815696 -0.07668255 0.03487888 -0.040202476 -0.1654784 -0.06771142 0.030042874
-0.107977755 0.013220444 -0.034125287 0.00035955757 -0.09321476 0.021895926 -0.025464948 0.01040706
-0.08829678 -0.0009600568 -0.06330846 -0.07509487 0.012150597 -0.09993901 -0.09392972 0.0516875

fc2.bias f4 [64]
00000000: 84a7 9c3d fca7 3abe d125 5ebc 6b15 fdbd
00000010: a8bd 9dbc 0a4a 513e 1fe1 84be 1ea5 a4bd
00000020: 9062 343c 9328 843e c6f7 83bd 0ccc 4e3e
00000030: 804f f7bd cc22 a9ba 5e64 a7bd 9f54 97bd
00000040: 25a6 12be 20f0 8bbd 645f 0dbe 5c8e 05bd
00000050: 2d65 643d 79fb 47bd 4599 80bc 14bd ee3d
00000060: e743 093d b0db ec3d 8298 e43d 7f83 1a3c
00000070: 85ff 323d 647c 69bb afaa 003e 76e1 a33d
00000080: 263b 413d ce94 873e 60c1 653e a249 033e
00000090: 71a7 b53d 5de1 b53c 1e1a 533e b398 bc3d
000000a0: 1060 413e 493f 47bd 8ca1 963e 9e95 0abd
000000b0: 1e1b 03bd bc35 cb3c 3203 963d 3453 2c3e
000000c0: 4545 07bd 9195 d33d 73b7 0fbd a4e7 6d3e
000000d0: 8508 063e 0ce0 e43d 26d3 983d bed6 803e
000000e0: 2ad8 3c3d c4df 07bd b1de 60be c946 8c3c
000000f0: 7ab4 a5bd da91 033e 6083 f43d c1bf 8d3e
0.076491386 -0.18228143 -0.013558821 -0.12357601 -0.019255474 0.204384 -0.25953004 -0.08039306
0.011009827 0.25812206 -0.064437434 0.20195025 -0.1207571 -0.0012904047 -0.081734404 -0.07389187
-0.14321192 -0.068329096 -0.1380592 -0.032606468 0.05576055 -0.048823807 -0.015698085 0.116571575
0.033512022 0.115653396 0.11161901 0.009430765 0.043700714 -0.003562712 0.1256511 0.08001988
0.04717555 0.26480716 0.22437048 0.12821057 0.088698275 0.022202188 0.20615432 0.092088126
0.18884301 -0.048644338 0.29420125 -0.033834092 -0.032008283 0.024805896 0.07324828 0.16828614
-0.033025045 0.10331262 -0.03508706 0.23232895 0.13089187 0.11175546 0.07462148 0.25163835
0.046104588 -0.033172384 -0.2195995 0.017123597 -0.08091064 0.12848607 0.1193912 0.2768536

fc3.weight f4 [10, 64]
00000000: 887a 9fbe 1417 5ebc cd98 3fbe bc26 ac3e
00000010: 9064 f7bd 94aa 1fbe a612 653e d7c5 0d3d
00000020: 1f7d 6a3e c37b bf3b 487f 2cbe d170 1a3b
00000030: b122 3f3e 034d 65bd a57a 233e 8bf1 603e
00000040: 54e9 31bc 53f0 973e fc17 193e 6e94 3a3e
00000050: 396e ca3d 6991 dcbe d2e2 10be f457 bfbd
00000060: 9ea5 2c3e 007b fbbe 6497 f63d 4947 2c3e
00000070: 4ff0 78bd fb81 9cbe a269 443e 3a1e 103e
00000080: b8b6 d3bd 251a d9be be82 20bf 3c51 c1be
00000090: a6f1 f53d 07af 003e f10e 23bf e1e3 83be
000000a0: 5b2a d6be 3254 a0be fef4 ebbe db11 d43d
000000b0: 3101 7fbc 841a a3be a8ad bbbe cf78 d8bd
000000c0: 2516 3b3e ca61 a6be 6cb0 c3be 2bbf aa3d
000000d0: 3383 12be 63ba fd3d 1195 353e 4da3 eabe
000000e0: c583 29be 9f31 063e e670 0fbe 44b3 2b3e
000000f0: ff69 29bd 09c8 543e 5c01 63be fdf4 bbbd
00000100: 4180 5c3e 94bd d7bd 486b 93be 4d21 83be
00000110: 8a32 12be 2495 03bf d269 cebe 1d20 14be
00000120: 6639 25bf fda0 04bf cee1 16be 421d b8be
00000130: b276 1abf 0ecf a2bd 47bf 04bf 20b6 a9be
00000140: 572d 963b 696d 05bf 83d1 b5bd 38f3 05bf
00000150: 9fa4 8d3e 633f c9bd 5dc7 87be e3af 313e
00000160: a0eb 643e 4c16 1d3e cf47 a1be 9f52 b2be
00000170: bb97 a33d db4e a9be c825 53bf 517b 8d3e
00000180: eac9 b2be 0c3b 543e 4a3a 4b3e ed09 ab3e
00000190: b0f9 a33e 8591 373e a4ba 3c3e 7515 1fbe
000001a0: a983 583e a5d2 023d d4b5 873e 8cdc f83c
000001b0: aa4e 893e b731 3a3c 27f9 c3bd f7f6 b6be
000001c0: 111d 4cbb 811d 9dbe 1c5e 0d3e 6723 cabe
000001d0: abc0 f0be b0ec a53d 0477 82be 9899 74bd
000001e0: ca17 493e 9f1e fcbe 71cc 48bd d36d f2be
000001f0: 4b72 a3be 2ccc 983d e657 d33b 65ea 053e
00000200: f27e 753e c96b acbd 60f1 ef3d 7ccf 4ebe
00000210: e39f b23e 3c48 9f3d 09ba 683e b7ca 90bd
00000220: 6987 25be 188a b0be 48cf 2e3e 5b0f 2fbe
00000230: c070 103e ceaf 00bd 50f5 9c3d 19f2 ba3d
00000240: ccc7 83bc a154 9ebe 4fc9 13bc 7f8e 45be
00000250: 626b 743e 4ec2 843e 220e 213c 00c9 c63d
00000260: 9bc6 d73d 526e 0cbf 5e88 e63d c630 1a3e
00000270: 2cd3 923d 2a53 163e 3e4a 9c3d a132 85be
00000280: 7d60 a5be e36f 5ebe 13da 11bf 7585 643e
00000290: e431 aebd fa72 d5be eb02 abbe 03a8 29bd
000002a0: f216 473e d47b 8ebd 51f3 c1be a5dd 14bd
000002b0: ccce b03d ed22 843e f376 e23c ef75 e7bc
000002c0: 79f5 653d 3969 a7bd 936b 07be 4a09 f93d
000002d0: 930f e3be 3d7e 613e 37a4 74bd c9c4 d63d
000002e0: 7a12 5d3e 547e 863d f9e2 1cbd ece2 5fbe
000002f0: bd30 41be 4172 223d 9074 b23d 0279 c1be
00000300: f5a2 233e 3882 bb3c 245a c9bd e553 8f3d
00000310: f7f3 88be dc55 99bd 911d 123e 12af 013b
00000320: 1595 84be 0375 4e3d 70b5 10be 2300 7ebe
00000330: a2cf b9be 2322 03be e0e9 043e 9cbd 20be
00000340: 356b a0bd 9b8e 2dbe 10b2 6a3e 29bb c23d
00000350: 1c6f 9bbd 8219 283e fecc 6ebd 70f5 2d3e
00000360: c4e4 70be 8abf a93e 7f5c be3d 582c 5a3e
00000370: b729 e63d 0789 51be 737e 49be 8084 b2be
00000380: 2859 c13d 4ddd f8be 0da3 f33d 134b d6be
00000390: 4886 cdbe 58cb 403e ae49 063e c3e9 0abe
000003a0: 434e f2be 3c06 dcbd b675 95be 1085 dcbb
000003b0: e547 143e df46 3d3e fb0d 663e 6f4e d4be
000003c0: c636 963d 48b9 8bbd a090 4b3e f13c 97be
000003d0: 7b0b 87be 94d1 5cbd e572 7cbe 3d63 c8be
000003e0: 60ef 803e f4fb 0f3e 6671 5dbe 07d8 e1be
000003f0: 3e9c 9d3e ec7e abbe 4101 8d3e ae95 4ebe
-0.3114817 -0.013555307 -0.18710633 0.33623302 -0.12079728 -0.15592414 0.22370395 0.034612503
0.22899292 0.005843611 -0.16845429 0.002356578 0.18665577 -0.055981647 0.15964754 0.21967141
-0.010858852 0.2967554 0.14950556 0.18220684 0.098843046 -0.4307969 -0.14149025 -0.093429476
0.16860053 -0.4911728 0.12040594 0.16824068 -0.06077605 -0.30567917 0.1918092 0.1407403
-0.10337585 -0.4240276 -0.62699497 -0.3775729 0.120089814 0.12566768 -0.63694674 -0.25759795
-0.4182919 -0.31314236 -0.46085352 0.10354968 -0.015564249 -0.31856167 -0.36655927 -0.105699174
0.18270166 -0.32496482 -0.38220537 0.08337244 -0.14307861 0.12389066 0.17732646 -0.45827714
-0.16554172 0.13104866 -0.14007911 0.16767603 -0.04136085 0.20779432 -0.22168487 -0.09177587
0.215333 -0.10534206 -0.28792787 -0.25611344 -0.14277092 -0.51399446 -0.4031511 -0.14465375
-0.6454071 -0.5180815 -0.14734575 -0.35959822 -0.60337365 -0.07949649 -0.51854366 -0.33146763
0.0045830416 -0.5212007 -0.08877852 -0.5232425 0.27664658 -0.09826543 -0.2651929 0.17352252
0.22355509 0.15340537 -0.31500098 -0.3482866 0.07987925 -0.33067974 -0.82479525 0.27633145
-0.34919673 0.2072565 0.19846454 0.3340601 0.32026434 0.17926605 0.18430573 -0.15535529
0.21143974 0.031939168 0.2650591 0.030378602 0.26817828 0.011364392 -0.095690064 -0.35735294
-0.0031145255 -0.30686572 0.13805431 -0.39480135 -0.47021994 0.08101785 -0.25481427 -0.05971679
0.19637981 -0.49242112 -0.049023096 -0.47349414 -0.31923136 0.07460818 0.0064496873 0.13077696
0.23974207 -0.08418996 0.117159605 -0.20196337 0.3488761 0.077774495 0.22727217 -0.07069915
-0.16164936 -0.34480357 0.17071259 -0.17095701 0.1410551 -0.03141766 0.07663977 0.09128208
-0.016086482 -0.30923942 -0.009020164 -0.19292639 0.23869088 0.25929493 0.00983003 0.097063065
0.10535928 -0.54855835 0.11256479 0.15057668 0.07169184 0.14680162 0.07631348 -0.2601519
-0.32300177 -0.21722369 -0.5697338 0.22316535 -0.0850561 -0.41689283 -0.33400664 -0.041419994
0.19442347 -0.06957212 -0.37880948 -0.03634419 0.086331934 0.25807896 0.02764461 -0.028254477
0.056142304 -0.081743665 -0.1322463 0.12159975 -0.4434782 0.22020812 -0.05972692 0.104867525
0.2158908 0.06567064 -0.038302395 -0.21863908 -0.18866248 0.039659742 0.08713639 -0.37787634
0.15980132 0.022889242 -0.09831646 0.069984235 -0.2674863 -0.074870795 0.14269091 0.0019788188
-0.2589499 0.05040456 -0.14131713 -0.2480474 -0.36291224 -0.12805991 0.12979841 -0.1569733
-0.07832948 -0.16948931 0.22919488 0.09508354 -0.07589552 0.1641598 -0.058300965 0.16988158
-0.23524767 0.33153945 0.09294986 0.21305978 0.11238425 -0.20462428 -0.19677143 -0.34866714
0.09440833 -0.4860634 0.11896334 -0.41854152 -0.4014151 0.1882757 0.13114044 -0.13565736
-0.47325334 -0.107433766 -0.2919137 -0.0067297295 0.1448055 0.18484066 0.2246627 -0.4146609
0.07334666 -0.06822449 0.19879389 -0.29538682 -0.26375946 -0.053910807 -0.24653204 -0.39138213
0.2518263 0.14060956 -0.2162529 -0.44110128 0.30783266 -0.3349527 0.2754002 -0.20174286

fc3.bias f4 [10]
00000000: c896 19be 7e4b 883e 9fd9 77be 7c4e 93bd
00000010: cc0d 1c3e c284 7a3d ee6a 47bd a295 1a3e
00000020: 56ea 8e3e b8c7 f73b
-0.14998925 0.26620096 -0.2420411 -0.07192704 0.15239638 0.061161764 -0.04868596 0.15096143
0.2791316 0.00756165
