s1_M4-Pytorch/final_exercise/training_model.pt (torch, 439383 bytes, 6 tensors)

fc1.weight f4 [128, 784]
0	0xbc92ab53	-0.01790396
1	0x3cf33f8e	0.029693391
2	0xbc069e5c	-0.008216467
3	0x3cd1b8f0	0.02560088
4	0x3ca8ae68	0.020590976
5	0x3bb56d78	0.0055367313
6	0x3b6c0900	0.0036016107
7	0xbc512a18	-0.012766384
8	0xbc56444a	-0.013077805
9	0xbcb5df1c	-0.022201113
10	0xbc7314f8	-0.014836542
11	0x3d5eb942	0.054375894
12	0xbc44cb36	-0.01201134
13	0xbc78fd38	-0.015197091
14	0xbc3f2958	-0.011667572
15	0x3c9103e0	0.017702043
16	0xbc172e26	-0.009227311
17	0xbd0e6ce8	-0.03477183
18	0xbccab3f3	-0.02474401
19	0xbc1beefc	-0.0095174275
20	0xbc2e6a4a	-0.0106454585
21	0x3b915c38	0.004436042
22	0xb9bcf980	-0.00036044046
23	0x3ce85be2	0.028364126
24	0xbc35eb6e	-0.011103494
25	0xbad645a0	-0.0016347654
26	0x3cd774d8	0.026300833
27	0xbbf98508	-0.0076147355
28	0x3c5e66bc	0.0135742985
29	0xbcbeda3e	-0.023297425
30	0x3c9a1346	0.018808018
31	0x3b8e6cb8	0.0043464564
32	0xbc29b6ae	-0.010358496
33	0xbcfddb11	-0.030988248
34	0xbc8acdc7	-0.016943825
35	0x3d7d1bf0	0.06179422
36	0x3defddad	0.11712203
37	0x3a6162f9	0.0008597817
38	0xba9e9459	-0.0012098654
39	0xbc70ae30	-0.014689967
40	0xbdf14910	-0.11781514
41	0xbda9fbed	-0.08300004
42	0xbd8d0eec	-0.06887612
43	0xbdbefbb2	-0.09325351
44	0xbdeb1f92	-0.11480631
45	0xbdb63230	-0.08896291
46	0x3c9672ed	0.018365348
47	0x3ce92833	0.028461551
48	0xbd04326f	-0.03227466
49	0x3bd418a0	0.006472662
50	0x3d11e349	0.035617147
51	0xbd38b59d	-0.045095075
52	0xbd82d16a	-0.06387599
53	0xbc1dac20	-0.009623557
54	0xbca271f7	-0.019829733
55	0x3c988e4a	0.018622536
56	0x3cce415e	0.025177654
57	0xbc6a0ac0	-0.01428479
58	0x3cd1b10e	0.025597122
59	0xbcb265fe	-0.02177715
60	0xbdae6a8f	-0.08516418
61	0xbe0c2447	-0.13685714
62	0xbd8fec31	-0.07027472
63	0x3da91b71	0.08257187
64	0x3de8cb8f	0.11366951
65	0x3c943ec6	0.018096339
66	0xbabad99c	-0.0014255526
67	0xbdc83701	-0.09776116
68	0xbe141c86	-0.14464006
69	0xbe5cd19c	-0.21564335
70	0xbe57e5ea	-0.21083799
71	0xbe2dd014	-0.16973907
72	0xbe923ad4	-0.28560507
73	0xbdf1a6f5	-0.11799423
74	0xbdbeaafe	-0.09309958
75	0xbd2a3bb4	-0.041560844
76	0x3bc9cb36	0.006158258
77	0xbd79ebd6	-0.061015926
78	0xbd56d949	-0.052453313
79	0xbb9fc887	-0.0048761996
80	0xbd36dcdf	-0.044644233
81	0x3bea5ba0	0.007152036
82	0xbd047455	-0.032337505
83	0xbc4a9ba6	-0.012366211
84	0x3d08e8d7	0.03342518
85	0xbc2222b8	-0.009895973
86	0xbd0a1e6a	-0.03372041
87	0x3d045b1f	0.032313462
88	0xbd31e610	-0.043432295
89	0xbdd7fada	-0.10545893
90	0xbdd23ce6	-0.10265522
91	0xbdd80449	-0.10547692
92	0xbd9bd485	-0.07608894
93	0xbd10f2af	-0.03538769
94	0xbd7e2447	-0.062046316
95	0xbd72c2fe	-0.05926799
96	0xbddac2a5	-0.10681657
97	0xbe623e3c	-0.22094053
98	0xbe60f809	-0.21969618
99	0xbe402052	-0.18762329
100	0xbe050b28	-0.12992537
101	0xbea6ae49	-0.32554844
102	0xbe2bdb44	-0.16782862
103	0xbda96598	-0.082713306
104	0xbd4d8f93	-0.05018575
105	0xbda4a842	-0.08039905
106	0xbdfd0c13	-0.123558186
107	0x3b0f5961	0.0021873342
108	0x3d9a5b27	0.07536917
109	0xbb7a5966	-0.0038200258
110	0x3c76640f	0.015038504
111	0x3c9912aa	0.018685658
112	0x3cacd3e2	0.021097127
113	0xbcca04d8	-0.024660513
114	0xbcc7026c	-0.024293147
115	0x3dfc8364	0.12329748
116	0x3ccd4312	0.025056396
117	0xbe18557f	-0.14876364
118	0xbe399b8a	-0.1812574
119	0xbcbe5ee9	-0.023238616
120	0xbdd549f3	-0.10414495
121	0xbd86b925	-0.06578282
122	0xbc9fc5be	-0.01950347
123	0x3d9dc8ac	0.07704291
124	0x3c2d56d8	0.010579787
125	0xbd103691	-0.03520829
126	0xbdb2501b	-0.08706685
127	0xbcac15b8	-0.02100645
128	0xbdd33efa	-0.10314746
129	0xbdbae37d	-0.09125421
130	0xbd99a7c9	-0.075027056
131	0x3cab0f83	0.02088142
132	0x3e97e0ba	0.2966364
133	0x3e6ecda1	0.23320629
134	0x3e10fa18	0.14157903
135	0x3e3996ae	0.18123886
136	0x3e9d7b0a	0.30757934
137	0x3eab2375	0.3342549
138	0x3d6cc77c	0.05780743
139	0x3cf83e42	0.030303124
140	0x3b054680	0.002033621
141	0x3c7d53a4	0.015461836
142	0x3e42b379	0.19013776
143	0xbd292462	-0.041294463
144	0xbe01e8e1	-0.12686493
145	0xbd42c17e	-0.04754781
146	0x3d1a4891	0.03766686
147	0x3dfe2460	0.12409282
148	0x3e59ded0	0.21276402
149	0x3e51613b	0.20447247
150	0x3e673903	0.22580342
151	0x3e465ed6	0.19372115
152	0x3c3e3c89	0.011611112
153	0x3d414682	0.047186382
154	0xbda06674	-0.078320414
155	0xbd2c9ec6	-0.042143606
156	0xbdea0533	-0.11426773
157	0xbcf358b7	-0.029705388
158	0xbd72da22	-0.05929006
159	0xbdd72ca2	-0.1050656
160	0xbd5a9707	-0.053366687
161	0x3e314d65	0.1731468
162	0x3dbf47db	0.09339877
163	0x3e469fa4	0.19396836
164	0x3e893d08	0.26804376
165	0x3e52f9cf	0.20603107
166	0x3e000bf2	0.12504557
167	0xbc79ba54	-0.015242178
168	0x3c79c5fc	0.015244957
169	0xbbb1fd1c	-0.0054317843
170	0xbbfcfdee	-0.0077207005
171	0x3bf30684	0.007416548
172	0x3c1d274b	0.009591888
173	0xbc3a9a79	-0.011389368
174	0x3cb802b8	0.022462234
175	0x3d975328	0.07388908
176	0x3dc8a291	0.09796632
177	0x3e7bc2a9	0.24585976
178	0x3e8cbcba	0.27487737
179	0x3e51cc1c	0.20488018
180	0x3e642887	0.22281085
181	0x3dbc3473	0.091896914
182	0x3d8d9025	0.06912259
183	0x3c3fee8a	0.011714587
184	0xbc9282ff	-0.01788473
185	0xbd963149	-0.07333619
186	0xbc690d24	-0.014224324
187	0x3db2a221	0.0872233
188	0x3d9ad43d	0.075600125
189	0x3df446d0	0.11927569
190	0x3e5599f2	0.20859507
191	0x3e849a52	0.25898987
192	0x3e49bec6	0.1970168
193	0xbaf2a17a	-0.0018511259
194	0xbcd33c98	-0.02578573
195	0x3dce5ea9	0.10076649
196	0xbb7c2630	-0.003847491
197	0x3b12c223	0.0022393547
198	0xbce97aa1	-0.028500857
199	0xbd7ec680	-0.062201023
200	0x3c721260	0.014774889
201	0x3a7dbb91	0.00096791337
202	0x3dcfcab7	0.10146087
203	0x3e1fa02b	0.15588443
204	0x3e3ae6a8	0.18252051
205	0x3e43d25e	0.19123217
206	0x3ca99874	0.020702578
207	0xbbd8a5f9	-0.0066115824
208	0x3d4ec0bf	0.050476786
209	0x3d97b06c	0.07406697
210	0x3dc08c9d	0.0940182
211	0x3e033115	0.12811692
212	0x3df87517	0.12131708
213	0x3df992e0	0.12186217
214	0x3e4252e9	0.1897694
215	0x3e08e865	0.13369901
216	0x3e29f813	0.16598539
217	0x3d8022b0	0.06256616
218	0x3dfc091a	0.123064235
219	0x3df0fa1a	0.11766453
220	0x3e23235c	0.15931457
221	0x3e844c90	0.25839663
222	0x3e963e16	0.29344243
223	0xbcc44f27	-0.023963524
224	0xbca9fb8a	-0.020749826
225	0xbc685928	-0.014181413
226	0xbdcc08f7	-0.099626474
227	0xbe6b229c	-0.22962421
228	0xbe9c02e3	-0.30470952
229	0xbc2d389c	-0.010572579
230	0x3cb5230c	0.022111438
231	0x3e324180	0.17407799
232	0x3df7a498	0.12091941
233	0x3ded0c92	0.11574663
234	0xbd645017	-0.055740442
235	0xbd25ccfc	-0.04047869
236	0x3c4cf6b8	0.012509994
237	0xbd8eaef1	-0.06966961
238	0x3d87726c	0.06613621
239	0x3e2c2731	0.16811825
240	0x3e0996ab	0.13436382
241	0x3c9fcac0	0.019505858
242	0x3c1ced9a	0.009578133
243	0xbd15c638	-0.03656599
244	0xbc938594	-0.018008031
245	0xbdb9f513	-0.09079947
246	0x3d138704	0.036017433
247	0xbd7eecb2	-0.06223745
248	0x3dad45eb	0.084606014
249	0x3e06c12d	0.13159628
250	0x3e69d7c7	0.22836219
251	0xbdad5514	-0.08463493
252	0x3c5d36c6	0.013501829
253	0xbd74fcd5	-0.059811432
254	0xbdbae8ec	-0.091264576
255	0xbeaba7fc	-0.335266

fc1.bias f4 [128]
0	0x3d39985a	0.04531131
1	0xbd3ce3b3	-0.04611559
2	0x3bc5ac5e	0.0060325107
3	0xbdab5fb1	-0.08367861
4	0x3e06bcb2	0.13157919
5	0x3e0f778b	0.14010446
6	0xbdffbe9d	-0.124875285
7	0x3dcb79d3	0.099353455
8	0x3c890b8d	0.01672914
9	0xbd38ff75	-0.045165498
10	0xbdaec768	-0.085341275
11	0xbd0f7ddf	-0.03503215
12	0xbbf894d1	-0.0075860997
13	0xbca3f0c1	-0.020012261
14	0xbd238612	-0.03992278
15	0x3d43efc7	0.04783609
16	0xbb98de84	-0.004665198
17	0xbdabef48	-0.08395249
18	0xbe0dbc64	-0.13841397
19	0xbe0133d1	-0.12617423
20	0xbd3b0b78	-0.045665234
21	0xbd8a917e	-0.06766032
22	0xbda25ca8	-0.07927829
23	0xbd5e6859	-0.054298732
24	0xbda8f491	-0.08249772
25	0xbe03fb48	-0.12888825
26	0x3c8c1075	0.017097691
27	0x3cd1fe2a	0.02563389
28	0x3d99f26e	0.07516943
29	0xbd5e35ad	-0.054250408
30	0xbe0e79de	-0.13913676
31	0xbd899374	-0.067175776
32	0xbd951ebe	-0.07281254
33	0xbc7fb205	-0.015606408
34	0xbe1c8fbb	-0.15289204
35	0xbe886991	-0.2664304
36	0xbdf15226	-0.11783247
37	0x3d8e885a	0.06959601
38	0x3c768d79	0.015048378
39	0x3c0e8c24	0.008700404
40	0xbe16b394	-0.14716941
41	0xbcd16926	-0.025562834
42	0x3e4e165b	0.20125715
43	0xbac3d575	-0.0014940934
44	0xbd990151	-0.07470954
45	0x3c9de5e9	0.019274669
46	0xbc6f2559	-0.014596307
47	0xbe2f3b9c	-0.17112583
48	0x3dbcf178	0.09225744
49	0xbd2c1423	-0.04201139
50	0xbc0b9efd	-0.0085217925
51	0xbe3e7bd1	-0.1860192
52	0x3d5d133c	0.05397342
53	0xba835f64	-0.0010022935
54	0xbd463a2a	-0.048395313
55	0xbda943c3	-0.08264878
56	0xbe4ed670	-0.20198989
57	0xbd97ae4f	-0.074062936
58	0xbcb90720	-0.022586405
59	0x3dac1138	0.08401722
60	0x3e2890e6	0.16461524
61	0xbe650043	-0.22363381
62	0x3dfae878	0.12251371
63	0xbe0f0a27	-0.13968717
64	0x3de18c92	0.1101314
65	0x3e26835b	0.16261046
66	0x3d4c053b	0.049809676
67	0x3dc2bbbd	0.095084645
68	0x3da27734	0.079328924
69	0xbb9c011e	-0.0047608754
70	0x3e165d57	0.14684044
71	0xbe357a04	-0.17722327
72	0x3d00e1c4	0.031465307
73	0x3d2e795b	0.042596202
74	0xbcdd7288	-0.027032152
75	0xbb423be5	-0.002963775
76	0x3e919d3d	0.28440276
77	0xbe0ee2ac	-0.13953656
78	0x3de689e0	0.11256766
79	0xbd7d130a	-0.061785735
80	0x3ce3ac3b	0.027792087
81	0xbca5e782	-0.020251993
82	0xbe070836	-0.13186726
83	0x3d2e8550	0.042607605
84	0xbd1193b7	-0.035541262
85	0x3d95341e	0.07285331
86	0xbd0f6683	-0.035009872
87	0x3d3e6fa0	0.046493173
88	0x3d807a8e	0.062733755
89	0x36412000	2.8777868e-06
90	0x3c0733a0	0.008252054
91	0x3dee7422	0.11643244
92	0x3cdf5a2c	0.027264677
93	0x3e0c9f23	0.13732581
94	0xbcd8e929	-0.026478367
95	0x3c33a4da	0.010964597
96	0x3da6d886	0.08146767
97	0xbc807d38	-0.015684709
98	0xbe034d81	-0.12822534
99	0x3da34def	0.07973849
100	0xbd7a1a11	-0.061060015
101	0xbd1a91b3	-0.037736606
102	0x3d82301e	0.06356834
103	0x3dbe9c38	0.0930714
104	0x3c7fb5c8	0.015607305
105	0x3ad928f4	0.0016567991
106	0xbd51ee13	-0.051252436
107	0x3d5bf6a4	0.05370201
108	0xbda10eed	-0.07864175
109	0xbd917129	-0.07101662
110	0x3dbb102e	0.091339454
111	0xbcde560b	-0.027140638
112	0x3a74a08d	0.0009331785
113	0x3d413ec7	0.04717901
114	0x3e0fe486	0.14052019
115	0xbd2055d7	-0.039144363
116	0xbdcfa29e	-0.10138439
117	0x3ddcd2bd	0.10782383
118	0xbc91157c	-0.01771044
119	0xbd47fc49	-0.048824582
120	0x3b5c95f4	0.0033658715
121	0xbc08949f	-0.008336215
122	0x3d66f0e5	0.05638208
123	0xbdab8ba0	-0.08376241
124	0xbd900186	-0.070315406
125	0x3e2530fc	0.16131967
126	0xbb88ab76	-0.0041708304
127	0xbe5bdb62	-0.21470407

fc2.weight f4 [64, 128]
0	0x3e62a7bc	0.22134298
1	0xbe16866d	-0.14699717
2	0x3dabb8d8	0.083848655
3	0xbd152a0e	-0.03641706
4	0x3ee97dcd	0.4560379
5	0x3d845604	0.06461719
6	0xbdb51469	-0.088417836
7	0x3e040662	0.1289306
8	0xbd8c5c25	-0.06853513
9	0x3e571b76	0.2100657
10	0x3d8866ff	0.0666027
11	0x3bb87e6c	0.005630305
12	0xbd2b25d4	-0.041784123
13	0xbd0b3e35	-0.033994872
14	0xbd15fa55	-0.03661569
15	0xbcf71b75	-0.03016446
16	0xbe4758d0	-0.19467473
17	0xbe837fd7	-0.25683472
18	0x3e264f0e	0.16241094
19	0x3db2b0bd	0.087251164
20	0x3cbd668c	0.023120187
21	0x3d7c410d	0.061585475
22	0xbabe72f6	-0.0014530111
23	0xbd6f6479	-0.058445428
24	0xbcfbb90c	-0.030727886
25	0x3d6dc799	0.05805168
26	0x3dbef142	0.0932336
27	0x3da4abe1	0.08040596
28	0x3d4c6e80	0.04991007
29	0x3dbf3563	0.093363546
30	0xbe5a0eeb	-0.21294753
31	0xbe6db4bf	-0.2321348
32	0x3dbf27c7	0.09333759
33	0xbe3873a3	-0.18012862
34	0x3d93da03	0.07219317
35	0xbebc9123	-0.3682948
36	0xbc17f36a	-0.009274343
37	0x3e822061	0.25415328
38	0x3d961e4a	0.07329996
39	0x3c941828	0.018077925
40	0xbe86efe7	-0.26354906
41	0x3e0c836d	0.1372201
42	0x3e191924	0.14950997
43	0x3db5c17c	0.08874795
44	0xbe944e4e	-0.28965992
45	0xbe883565	-0.26603237
46	0x3dcf3fab	0.101195656
47	0x3dea4bf2	0.11440267
48	0x3c0b7c39	0.008513504
49	0xbd927bda	-0.07152529
50	0xbd05bb46	-0.0326493
51	0xbd5e12d2	-0.054217167
52	0x3eb21d51	0.34787992
53	0xbd5c6f13	-0.053816866
54	0x3dad82fa	0.084722474
55	0xbe154937	-0.1457871
56	0xbe23ad78	-0.15984142
57	0xbe47107d	-0.19439884
58	0x3e13fe56	0.1445249
59	0x3e76f612	0.24117306
60	0x3e6de8bb	0.23233311
61	0xbe0805e2	-0.13283494
62	0x3ce19e04	0.027541168
63	0xbe60b650	-0.21944547
64	0xbd4af8b0	-0.049553573
65	0x3e8e1e5d	0.2775754
66	0xbd97c64b	-0.07410868
67	0x3ed090af	0.40735385
68	0x3de6453c	0.11243674
69	0xbeb321c2	-0.34986693
70	0x3e5e2bad	0.21696348
71	0xbd68a3ae	-0.056796722
72	0x3d7c2cf2	0.0615663
73	0x3f041365	0.51592094
74	0xbdb4bc1c	-0.088249415
75	0xbdf4e29a	-0.11957283
76	0x3e4bbd37	0.19896398
77	0x3ca970a0	0.020683587
78	0x3ec27c8e	0.37985653
79	0xbcd697dc	-0.026195459
80	0x3d9bf209	0.07614524
81	0xbc80e40d	-0.015733743
82	0x3d33ca16	0.043893896
83	0x3dc752ce	0.097325906
84	0x3df27768	0.11839181
85	0x3f2c16a8	0.6722207
86	0x3ca428a8	0.020038918
87	0x3ec0a292	0.3762403
88	0x3ea0ee39	0.3143175
89	0xbe292206	-0.16516885
90	0xbd09dd45	-0.033658285
91	0xbe287ea4	-0.1645456
92	0xbdc313de	-0.09525274
93	0xbcda6a2b	-0.026661953
94	0x3eb131dd	0.34608355
95	0xbc9ff7ba	-0.019527305
96	0x3dcbb957	0.0994746
97	0xbe5421db	-0.2071604
98	0xbd573dff	-0.05254936
99	0x3e8ddfed	0.27709904
100	0xbdc06fd3	-0.09396329
101	0x3da7c1e5	0.08191279
102	0xbd3d8b21	-0.04627526
103	0x3e8652cb	0.2623504
104	0xbe7d3f73	-0.24731235
105	0x3c8be7be	0.017078277
106	0xbd8334f0	-0.064065814
107	0x3eb3a866	0.35089415
108	0x3dd9061c	0.105968684
109	0xbdb2d364	-0.08731726
110	0x3ebd58a2	0.36981684
111	0xbe9eae79	-0.30992487
112	0x3c95112a	0.018196661
113	0x3e92f9ce	0.2870621
114	0x3df74fa0	0.12075734
115	0xbc933022	-0.017967287
116	0xbdd0051c	-0.101572245
117	0x3deb08a9	0.11476261
118	0xbce7bde8	-0.028288797
119	0xbeaeac33	-0.34115753
120	0x3ea7a0cc	0.32739866
121	0xbb8be49b	-0.0042691953
122	0xbe1adf7b	-0.15124314
123	0x3d23ea26	0.040018223
124	0xbc873f47	-0.016509665
125	0x3ed33c1c	0.41256797
126	0x3bdd99f9	0.0067627397
127	0x3c9efa1b	0.019406369
128	0xbef63ca4	-0.4809314
129	0x3e819bfa	0.25314313
130	0x3e3adb9c	0.18247837
131	0xbd02fc02	-0.031978615
132	0xbddf3857	-0.10899418
133	0x3ea0df0c	0.3142017
134	0x3d96e04e	0.073670015
135	0xbe02c548	-0.1277057
136	0xbc77fc93	-0.015135902
137	0x3e24cba7	0.16093312
138	0xbe2b66a4	-0.16738373
139	0xbda8b270	-0.08237159
140	0xbd3e1068	-0.046402365
141	0xbceebd24	-0.029142924
142	0x3db759d8	0.08952683
143	0x3eab1a85	0.3341867
144	0x3e03d54b	0.12874334
145	0x3eb8141d	0.35952845
146	0x3c8d7e76	0.017272215
147	0xbdbfd214	-0.09366241
148	0x3c460bdb	0.0120877875
149	0x3cc2525c	0.023720913
150	0x3e22c90e	0.15897009
151	0xbd9d91f4	-0.07693854
152	0x3ea0c256	0.31398267
153	0x3d8abc2f	0.067741744
154	0x3e05c18d	0.13062115
155	0x3d9e1608	0.07719046
156	0xbd5a3ba2	-0.053279527
157	0x3d480d37	0.048840728
158	0x3daa17b7	0.083053045
159	0xbd81f6ef	-0.06345927
160	0xbe2e177e	-0.17001149
161	0xbdea34d7	-0.1143586
162	0xbe9fcc10	-0.31210375
163	0x3e889c6c	0.2668184
164	0x3c80e968	0.015736297
165	0xbdadf16c	-0.08493313
166	0x3e9eb0e3	0.3099433
167	0xbd830735	-0.06397859
168	0x3e582ce2	0.21110871
169	0xbe831e8d	-0.25609246
170	0xbd2cab8d	-0.04215579
171	0x3db0dd5f	0.08635973
172	0x3e73b706	0.23800287
173	0x3e3bebca	0.18351665
174	0xbe05bce8	-0.13060343
175	0xbda92370	-0.08258712
176	0x3d903935	0.070421614
177	0xbcbaf1dc	-0.022820406
178	0x3ea3372d	0.31878033
179	0x3dbdd30a	0.09268768
180	0x3ca9d363	0.02073068
181	0xbcff2fda	-0.031150747
182	0x3d75e296	0.060030542
183	0xbd51d60e	-0.05122953
184	0xbc8be729	-0.017078
185	0x3dbcee8c	0.09225187
186	0xbec0a128	-0.37622952
187	0xbd73d419	-0.059528444
188	0xbeab5b22	-0.33467966
189	0xbd2d3b00	-0.042292595
190	0x3e96ad11	0.29428914
191	0x3def954b	0.11698397
192	0xbe4367e8	-0.19082606
193	0xbe9071e3	-0.2821189
194	0xbd19c74f	-0.03754359
195	0xbd53f0d6	-0.05174335
196	0xbd478a73	-0.04871602
197	0x3e5c89fd	0.21537013
198	0xbe55b683	-0.20870404
199	0xbdee2115	-0.11627404
200	0xbddb773b	-0.10716101
201	0xbcc60464	-0.024172015
202	0x3e20870a	0.15676513
203	0xbe364f5b	-0.17803709
204	0xbd36bf7e	-0.044616215
205	0xbe267222	-0.16254476
206	0x3a7e9788	0.0009711911
207	0xbcabfb8e	-0.020993974
208	0xbbeb7dbe	-0.0071866205
209	0x3d1c39e6	0.038141154
210	0x3d818888	0.063248694
211	0xbd78d335	-0.060748298
212	0xbec3f658	-0.38273883
213	0x3e83c9f5	0.25740018
214	0x3a25fca9	0.00063319
215	0xbe9705b3	-0.29496536
216	0xbe02c74c	-0.12771338
217	0x3c22ff9f	0.00994864
218	0xbdb5dedf	-0.088804
219	0x3b87e064	0.0041466225
220	0xbdca3c16	-0.09874742
221	0xbe325a1d	-0.17417188
222	0x3cd4c0c9	0.025970833
223	0x3e21eede	0.15813777
224	0x3e89bf3e	0.2690372
225	0xbb9e5ba5	-0.004832702
226	0xbe5d61a6	-0.21619281
227	0xbe9f4b69	-0.3111222
228	0x3c82c5fc	0.015963547
229	0xbd522e6b	-0.0513138
230	0x3f0de83a	0.55432475
231	0xbe94b128	-0.2904141
232	0x3e0b0f3e	0.13580033
233	0xbea02177	-0.31275532
234	0xbd665d3c	-0.05624126
235	0xbdd9375d	-0.10606263
236	0xbee3e55b	-0.44510922
237	0x3da33b3f	0.07970285
238	0xbe5b9da5	-0.21446855
239	0x3e8482ce	0.25881046
240	0xbd79ad1b	-0.060956102
241	0xbc74014b	-0.014892886
242	0x3d84eada	0.06490107
243	0x3e65a576	0.224264
244	0xbd04eb7e	-0.032451145
245	0xbd6cf32b	-0.05784909
246	0x3a4767ae	0.0007606697
247	0x3e1c80ab	0.15283458
248	0xbe4edd91	-0.20201708
249	0xbeb2eaf3	-0.34944877
250	0x3c43aae6	0.011942601
251	0x3e1d903c	0.15387052
252	0x3d824674	0.06361094
253	0x3d8d8a98	0.069112
254	0x3e3233bd	0.17402549
255	0x3d2bfc71	0.041988794

fc2.bias f4 [64]
0	0x3da248f9	0.07924075
1	0x3db59994	0.08867183
2	0x3ddc2efd	0.1075115
3	0xbdbab1e7	-0.091159634
4	0x3e9e0afa	0.3086775
5	0x3ceb9603	0.028758055
6	0x3e0ae52c	0.13563985
7	0x3da57fc5	0.08081011
8	0xbaf9b5ec	-0.0019051409
9	0x3e1d807b	0.15381043
10	0x3e2c1e90	0.16808534
11	0xbbbe018b	-0.005798524
12	0x3e0d4762	0.13796762
13	0xbe3e9b33	-0.18613891
14	0xbd8c9149	-0.068636484
15	0x3e388b34	0.18021852
16	0x3d83e080	0.06439304
17	0xbad031dd	-0.0015884001
18	0x3b443432	0.0029938337
19	0x3d85ab5e	0.06526826
20	0x3e34fa01	0.17673494
21	0xbcf13b88	-0.029447332
22	0x3ea36753	0.31914768
23	0x3dd440bc	0.103639096
24	0xbe2b68f1	-0.1673925
25	0xbd8e463f	-0.06946992
26	0x3e127307	0.14301692
27	0x3e1143ae	0.14185974
28	0xbd1efb88	-0.038814098
29	0xbd6336c9	-0.05547217
30	0x3e014e59	0.12627544
31	0xbdb4cd7f	-0.08828258
32	0x3d5f1601	0.054464344
33	0xbe207afa	-0.15671912
34	0x3cc1ed91	0.02367285
35	0x3da04ce4	0.07827166
36	0xbdd1fa55	-0.10252825
37	0x3c6f3b84	0.014601592
38	0x3e445eb2	0.19176748
39	0x3d5ad5cf	0.05342656
40	0x3e0a356b	0.1349694
41	0xbd8829a4	-0.06648567
42	0x3d541876	0.05178114
43	0x3d3ec9b6	0.046579085
44	0x3e3199f0	0.17343879
45	0x3dcda844	0.1004186
46	0xbe045290	-0.1292212
47	0xbd2cf556	-0.042226158
48	0x3df6b340	0.12045908
49	0xbdceeef2	-0.10104169
50	0xbcceb9c1	-0.025235059
51	0x3c75cdcc	0.015002679
52	0x3d07e6d7	0.03317913
53	0x3dc10811	0.09425367
54	0x3e0e0afc	0.13871378
55	0x3e63db72	0.2225168
56	0xbde3f6e9	-0.11131079
57	0x3e2bf949	0.16794313
58	0x3ded9f4b	0.11602648
59	0xbe015f21	-0.12633945
60	0x3defe29c	0.11713144
61	0xbd72f213	-0.05931289
62	0x3d7a5e9b	0.06112538
63	0x3e1fbe5e	0.15599963

fc3.weight f4 [10, 64]
0	0x3e9eda95	0.3102614
1	0xbe79fd35	-0.24412997
2	0x3e84e3ba	0.25954992
3	0x3e2cd2d4	0.168773
4	0xbee3bbbd	-0.4447917
5	0xbe64673f	-0.2230501
6	0x3dfab168	0.12240869
7	0x3daec088	0.08532816
8	0x3e5ce0c7	0.21570121
9	0x3e2e6574	0.17030889
10	0x3e9ee6cb	0.31035456
11	0x3e5066e1	0.20351745
12	0x3e15d70a	0.14632812
13	0xbe48fc4f	-0.19627498
14	0x3e1de9b8	0.15421188
15	0xbe980460	-0.29690838
16	0xbe298247	-0.16553603
17	0x3e95ffda	0.29296762
18	0xbee053b2	-0.43813854
19	0xbd8a832d	-0.06763301
20	0xbef03825	-0.46917835
21	0x3e790a13	0.2432025
22	0x3e478b1b	0.19486658
23	0xbd5585c8	-0.052129537
24	0xbad6cedf	-0.0016388557
25	0x3d77bcce	0.060482793
26	0xbe7a73fb	-0.24458306
27	0xbecd489f	-0.40094468
28	0x3d0860b9	0.033295367
29	0x3e6ca5dc	0.23110145
30	0x3d0e7942	0.03478361
31	0xbe58346a	-0.21113744
32	0xbde0149e	-0.109414324
33	0xbe14df3a	-0.14538279
34	0xbdb4af92	-0.0882255
35	0xbe87a74c	-0.26494825
36	0xbc341bc1	-0.010992945
37	0xbe85cc34	-0.26132357
38	0x3a5cbb09	0.00084202044
39	0xbe9e4093	-0.3090864
40	0x3e3fd725	0.18734415
41	0x3e6a0292	0.22852543
42	0x3e0ed0df	0.13946865
43	0xbe15cb7e	-0.14628407
44	0xbe9831ad	-0.297254
45	0x3d4697e3	0.048484694
46	0x3d0cfa58	0.034418434
47	0x3e59b167	0.2125908
48	0xbd7b8094	-0.06140192
49	0xbed18d72	-0.40928227
50	0x3e0d77af	0.13815187
51	0xbe2da9e2	-0.16959336
52	0x3cf1f376	0.029535037
53	0xbd6dd32c	-0.058062717
54	0xbe4f3d25	-0.20238169
55	0xbe6742ff	-0.2258415
56	0xbdf04c4b	-0.11733302
57	0x3e2a49be	0.16629693
58	0xbe5fc780	-0.21853447
59	0x3e157378	0.14594829
60	0xbe731191	-0.2373717
61	0x3e3b1d8b	0.18272988
62	0xbec9eef8	-0.3944013
63	0xbecfa53f	-0.4055576
64	0x3d05fe51	0.03271324
65	0x3e85cfda	0.2613514
66	0xbee56f2c	-0.4481138
67	0xbea06aef	-0.31331584
68	0x3e6892b4	0.22712213
69	0xbe90b09d	-0.28259745
70	0xbea1ee8a	-0.31627303
71	0x3e56eb55	0.2098821
72	0xbf044564	-0.5166838
73	0xbe88c162	-0.2671004
74	0xbf010b77	-0.5040812
75	0xbf18ec71	-0.5973578
76	0x3e147982	0.14499477
77	0xbd330213	-0.04370315
78	0xbe7c534b	-0.24641149
79	0x3e0865bb	0.13320057
80	0x3deb3b5f	0.114859335
81	0xbee1a6d5	-0.44072595
82	0x3df23364	0.11826208
83	0xbec23ece	-0.3793854
84	0x3e8b4c53	0.27206668
85	0xbe7841d0	-0.24243855
86	0xbb9d992e	-0.00480952
87	0x3e14cfab	0.14532344
88	0xbe2c6777	-0.16836344
89	0x3de16453	0.110054635
90	0x3d9c7313	0.07639136
91	0x3e340e7c	0.1758365
92	0x3e447073	0.19183521
93	0xbeb3036d	-0.3496355
94	0xbe88e4af	-0.26736972
95	0x3e01debb	0.12682621
96	0x3bf1a939	0.0073749092
97	0xbe97ce59	-0.29649618
98	0xbe1301c0	-0.14356136
99	0x3e8492b9	0.2589319
100	0xbd167ede	-0.036742084
101	0x3c51a6b3	0.012796092
102	0x3e39c264	0.1814056
103	0x3d1999fc	0.037500367
104	0x3e8edd24	0.27903092
105	0xbf246311	-0.64213663
106	0xbe0d3a06	-0.13791665
107	0xb88feb6b	-6.8626214e-05
108	0xbe0cf422	-0.13765004
109	0xbef1229e	-0.47096723
110	0xbde6e604	-0.11274341
111	0xbbb43304	-0.0054992456
112	0xbc8a1a60	-0.01685828
113	0x3e1e3ad3	0.15452127
114	0xbf147f18	-0.5800643
115	0xbe4afd35	-0.19823153
116	0xbed7ceb6	-0.42149895
117	0xbe9b4455	-0.3032557
118	0xbe197dd0	-0.149894
119	0x3e99f071	0.30066255
120	0x3c53521d	0.012897995
121	0xbe4b65f0	-0.19863105
122	0x3e47d418	0.19514501
123	0xbed56bd8	-0.4168384
124	0xbea8576c	-0.32879198
125	0xbe8235b4	-0.25431597
126	0x3e51dd52	0.20494583
127	0x3e8b4de1	0.27207854
128	0xbeca97ec	-0.39569032
129	0x3eab155d	0.33414736
130	0x3e43d0d6	0.19122633
131	0xbef1994d	-0.47187272
132	0xbeac175f	-0.3361158
133	0x3d0504ff	0.032475468
134	0xbec29e1a	-0.38011247
135	0xbdfa4005	-0.12219242
136	0xbddee27c	-0.10883042
137	0x3c880f52	0.016608868
138	0x3dd8f5b3	0.105937384
139	0x3e623910	0.2209208
140	0x3e1f6845	0.1556712
141	0xbdd6cd4b	-0.10488375
142	0x3e34b66f	0.17647718
143	0x3e02f1c6	0.12787542
144	0x3e344947	0.17606078
145	0xbe9a66da	-0.30156595
146	0xbe528d2d	-0.20561667
147	0x3d83b1cd	0.06430397
148	0xbf049d95	-0.5180295
149	0xbc8da75f	-0.017291723
150	0x3b579f0e	0.00329012
151	0xbe9999fc	-0.30000293
152	0x3d91a476	0.071114466
153	0x3d65e43f	0.056125876
154	0xbe5183c7	-0.20460425
155	0x3e476796	0.19473109
156	0xbe8abaeb	-0.27095732
157	0xbecc6b10	-0.39925432
158	0x3e1f3325	0.15546854
159	0x3dfefe3a	0.124508336
160	0xbda098aa	-0.07841618
161	0xbe103021	-0.1408086
162	0x3c5efce4	0.0136100985
163	0x3daa506f	0.08316123
164	0x3d42420b	0.047426265
165	0x3e16168f	0.14657043
166	0x3e4d1cea	0.20030561
167	0x3e015aba	0.12632266
168	0x3e1b692d	0.1517684
169	0xbebd30de	-0.36951345
170	0x3e18f2ff	0.14936446
171	0x3e14c965	0.14529951
172	0xbe7c80f8	-0.24658573
173	0xbe8773cb	-0.2645553
174	0x3c2df454	0.010617334
175	0x3e889619	0.26677015
176	0x3b9c17fe	0.0047636023
177	0xbcd49ab6	-0.025952678
178	0xbe67cb49	-0.22636141
179	0xbe42022a	-0.18946138
180	0x3e00726b	0.12543647
181	0x3e1346a4	0.14382416
182	0xbc53e3d2	-0.012932735
183	0xbe7dbd47	-0.24779235
184	0x3c192c5c	0.009348955
185	0x3d97b2c2	0.07407142
186	0xbeddfd82	-0.43357474
187	0xbd39ad88	-0.045331508
188	0x3e7f78e4	0.2494846
189	0x3e905e93	0.28197154
190	0x3d6919d9	0.056909416
191	0xbeb3c3f6	-0.35110444
192	0xbe30f805	-0.17282112
193	0xbee196d8	-0.44060397
194	0xbe90de65	-0.28294674
195	0x3e5f9c85	0.21837051
196	0xbe510d93	-0.20415334
197	0xbe80a7c4	-0.25127995
198	0x3e5f6474	0.21815664
199	0xbf101bc4	-0.56292367
200	0x3e2f5dda	0.17125645
201	0xbebc744a	-0.36807472
202	0xbd2474d9	-0.040150497
203	0xbeae7e18	-0.34080577
204	0x3e3929ba	0.18082324
205	0x3e8cb75e	0.27483648
206	0x3e27e551	0.16396071
207	0x3d8b4959	0.06801099
208	0xbcb784e9	-0.022402244
209	0xbe137acb	-0.1440231
210	0x3dc88e2e	0.097927436
211	0x3d95d776	0.073164865
212	0x3e500eb2	0.20318106
213	0x3e3dca70	0.18534255
214	0xbeca48c6	-0.39508647
215	0xbee333de	-0.4437551
216	0x3cccfe9c	0.025023751
217	0x3deae882	0.114701286
218	0xbe991d4c	-0.29905164
219	0x3da84486	0.08216195
220	0x3b2a8288	0.0026017744
221	0xbe89ba84	-0.26900113
222	0xbc32cb97	-0.010912797
223	0x3ddeb625	0.10874585
224	0xbdc46605	-0.09589771
225	0x3e6c9f9f	0.23107766
226	0xbdb8e55f	-0.09028124
227	0x3e2386ec	0.15969437
228	0xbc05ed44	-0.008174244
229	0x3d267df5	0.040647466
230	0x3debcc46	0.115135714
231	0x3e1c9f2f	0.15295099
232	0xbe1bc18d	-0.15210553
233	0xbe961826	-0.293153
234	0xbd9b27d5	-0.07575957
235	0x3d8d328d	0.068944074
236	0xbe09c0c2	-0.13452438
237	0xbe47dacd	-0.1951706
238	0x3c8acb2e	0.016942587
239	0x3e1bef5e	0.1522803
240	0xbec5b790	-0.3861661
241	0x3d8d9d86	0.06914811
242	0x3e164f14	0.14678603
243	0xbe67045f	-0.22560261
244	0x3dbc796e	0.092028484
245	0xbe3f42a9	-0.18677773
246	0xbd8474a6	-0.064675614
247	0xbe80b5ba	-0.25138646
248	0x3d805402	0.06266023
249	0x3e0f3346	0.13984403
250	0xbc4a1c9e	-0.012335924
251	0xbe4c3587	-0.19942294
252	0xbe018987	-0.12650119
253	0xbe9c8b67	-0.30575106
254	0xbb4285e5	-0.0029681858
255	0xbe5d4ae2	-0.21610597

fc3.bias f4 [10]
0	0xbe483b9d	-0.1955399
1	0x3e4761a6	0.19470844
2	0xbdbca59a	-0.092112735
3	0xbe27f7df	-0.16403149
4	0x3cf7c1bc	0.030243747
5	0x3d5a8669	0.05335084
6	0x3c3b6eb9	0.011439973
7	0xbe17859a	-0.14797059
8	0x3d6aeb6e	0.05735343
9	0xbc75222b	-0.01496176
