s1_M4-Pytorch/final_exercise/training_model.pt (torch, 439383 bytes, 6 tensors)

fc1.weight f4 [128, 784]
0	0x3c435200	0.011921406
1	0x3ba281d0	0.0049593225
2	0x3d0abe27	0.03387275
3	0xbd073517	-0.033009615
4	0xbd06d54d	-0.032918263
5	0xbc83b26e	-0.016076293
6	0x3cb484f8	0.02203606
7	0xbcb88d58	-0.022528335
8	0x3c802344	0.015641816
9	0xbd0de893	-0.03464563
10	0xbcdf03da	-0.027223516
11	0x3bdbd368	0.006708551
12	0xbd02775f	-0.031852122
13	0x3a15f340	0.0005720146
14	0x3d03f6f1	0.032217924
15	0x3c068bc4	0.008212034
16	0x3c9a560e	0.018839862
17	0x3d30e4b8	0.043186873
18	0xbd21f021	-0.039535645
19	0xbd2434ca	-0.040089406
20	0xbd43e31c	-0.04782401
21	0x3c89c024	0.016815253
22	0xbcde67c3	-0.027149087
23	0xbc8ce670	-0.017199725
24	0x3cce371a	0.025172759
25	0xbceab718	-0.028651759
26	0xbc941eb0	-0.01808104
27	0x3c950846	0.018192422
28	0x3a6243c0	0.00086313114
29	0xbcc4c363	-0.024018949
30	0x3cf75706	0.030192863
31	0xbc500cc0	-0.012698352
32	0x3ab1c020	0.0013561286
33	0x3c66f6d4	0.014096934
34	0xbcf0ee15	-0.029410401
35	0x3c62b97a	0.013838166
36	0x3d8b2c07	0.06795507
37	0x3c3396e0	0.010961264
38	0x3d0d04c5	0.034428377
39	0x3d0b364b	0.033987325
40	0xbd56a6f0	-0.052405298
41	0x3df66ee5	0.1203287
42	0x3de5d1f8	0.11221689
43	0x3e4f8db5	0.202689
44	0xbdad700c	-0.08468637
45	0xbe082e66	-0.1329895
46	0xbd2bcd13	-0.04194362
47	0xbd43f5b6	-0.04784175
48	0xbe2b50b6	-0.16730008
49	0xbd49fb10	-0.049311697
50	0xbd9f01b2	-0.07763995
51	0xbd8ffa4d	-0.07030163
52	0x3bbd7af0	0.0057824776
53	0xbbf7af40	-0.007558733
54	0xbcdfb8e0	-0.027309835
55	0xbc2f2952	-0.010691004
56	0xbc898a97	-0.016789718
57	0x3c4a73e0	0.012356728
58	0x3cbe28c8	0.023212805
59	0xbc872f2a	-0.016501982
60	0xbdaac825	-0.08338956
61	0xbae74bb2	-0.001764646
62	0xbc736146	-0.014854735
63	0xbd8e58bc	-0.069505185
64	0xbd82d27c	-0.06387803
65	0xbde7d311	-0.113195546
66	0xbd6ca123	-0.05777086
67	0xbd8c1494	-0.068398625
68	0xbe064b9b	-0.13114779
69	0x3d14546a	0.036213316
70	0xbd5fcc5f	-0.054638263
71	0xbe001968	-0.12509692
72	0xbe6d5156	-0.23175558
73	0xbe49e316	-0.19715533
74	0xbda0d89f	-0.07853817
75	0xbd32c0f8	-0.04364106
76	0xbe97d99b	-0.29658207
77	0xbe577475	-0.21040519
78	0xbe543aec	-0.20725602
79	0xbdf7bbc4	-0.1209636
80	0xbca3763c	-0.01995384
81	0x3bc284eb	0.005936255
82	0xbc74eb5c	-0.014948692
83	0xbc85eff3	-0.016349768
84	0xbc26391c	-0.010145452
85	0x3c59f638	0.013303332
86	0xbc25307c	-0.01008236
87	0xbcecea41	-0.028920295
88	0xbbb03e30	-0.005378507
89	0xbd485233	-0.048906516
90	0xbddb19b7	-0.10698264
91	0xbdd7cb52	-0.10536827
92	0xbe546561	-0.20741798
93	0xbe0ad83e	-0.13559052
94	0xbd2bb49c	-0.04192029
95	0xbddd78e7	-0.10814076
96	0xbde66e04	-0.112514526
97	0xbcc4c99d	-0.024021918
98	0x3d81e243	0.06341984
99	0xbd9e914e	-0.077425584
100	0xbd842452	-0.0645224
101	0xbdfe7c6f	-0.124260776
102	0xbdf2e583	-0.11860182
103	0xbe346351	-0.17616011
104	0x3b993aa9	0.0046761823
105	0x3c2ebbd7	0.010664902
106	0xbd60824e	-0.05481177
107	0xbdb8538f	-0.090003125
108	0x3d8f6d9d	0.07003329
109	0x3ce86314	0.028367557
110	0x3c909f15	0.017653981
111	0xbccae17e	-0.024765726
112	0x3c6eb8c0	0.014570415
113	0x3c90db30	0.017682642
114	0xbbca6580	-0.0061766505
115	0xbcd55672	-0.026042197
116	0x3d02045a	0.03174243
117	0xbd1ec235	-0.03875943
118	0xbcdaa9b4	-0.026692249
119	0xbdea4742	-0.114393726
120	0xbe07bfb8	-0.13256729
121	0xbdaf587e	-0.085618004
122	0xbe33aaea	-0.17545667
123	0xbe162333	-0.14661865
124	0x3d1952a7	0.03743234
125	0x3e78a21d	0.24280591
126	0x3e29a143	0.16565423
127	0x3dfff776	0.12498371
128	0xbe0cc12e	-0.13745567
129	0xbdd97174	-0.106173426
130	0xbd67d5d2	-0.0566004
131	0xbe040dc5	-0.12895878
132	0xbe0b3b64	-0.13596874
133	0xbdad9055	-0.08474795
134	0x3db29543	0.08719876
135	0x3e325a59	0.17417277
136	0x3e532b14	0.20621902
137	0xbd8c27cf	-0.068435304
138	0xbd895377	-0.06705373
139	0xbcfb82ee	-0.03070208
140	0xbc88ab73	-0.016683316
141	0xbb132480	-0.0022452176
142	0x3e68eeb7	0.22747312
143	0xbc284855	-0.010271152
144	0xbe13b2e1	-0.14423706
145	0xbdb8fbbb	-0.09032389
146	0xbdfbf08a	-0.123017386
147	0xbd36df6d	-0.04464667
148	0xbe1cb6ef	-0.15304159
149	0xbe34a919	-0.1764263
150	0xbe9f807f	-0.31152722
151	0xbe58ea6e	-0.21183178
152	0xbdc14f3c	-0.09438941
153	0xbdc7195f	-0.09721636
154	0xbd11f8c3	-0.03563763
155	0xbe174e96	-0.14776072
156	0xbea8491d	-0.3286828
157	0xbe3df386	-0.18549928
158	0xbe70b1b3	-0.23505287
159	0xbe8e88a2	-0.27838618
160	0xbdc116fd	-0.09428213
161	0x3d39a651	0.045324627
162	0xbe26c61b	-0.16286509
163	0x3c0ffa0d	0.008787644
164	0x3db75cbc	0.089532346
165	0x3d4c9885	0.04995014
166	0xbd8964e1	-0.06708694
167	0x3cff6bb2	0.031179283
168	0x3c814388	0.015779272
169	0x3e0e0d4f	0.13872264
170	0x3ecb119f	0.3966188
171	0x3cca92a8	0.024728134
172	0xbc20945d	-0.009800998
173	0xbd992229	-0.07477219
174	0xbd913ea1	-0.07092024
175	0xbe687fb2	-0.22704962
176	0xbe983346	-0.2972662
177	0xbe61ab45	-0.2203799
178	0xbe7b4a17	-0.24539982
179	0xbe2b8597	-0.16750179
180	0xbe44cd7c	-0.19219011
181	0xbdd5e3a4	-0.1044381
182	0x3dbc8967	0.09205895
183	0x3e383f2a	0.17992845
184	0x3e0c88b1	0.13724019
185	0x3dc01484	0.09378913
186	0xbe01d915	-0.12680466
187	0xbdffe4f7	-0.124948435
188	0xbdbe9d2a	-0.093073204
189	0x3cfc0e23	0.03076846
190	0xbd570699	-0.052496526
191	0x3e24e5b2	0.16103247
192	0x3e857f9d	0.26073924
193	0x3d6724cb	0.056431573
194	0xbe6077d8	-0.21920717
195	0xbdac21e4	-0.084049016
196	0x3cae0d78	0.021246657
197	0x3e04899c	0.12943119
198	0x3e24bf50	0.16088605
199	0x3e2c32c5	0.16816242
200	0x3d84efbf	0.064910404
201	0xbdfc2868	-0.123123944
202	0xbda5f827	-0.08103972
203	0xbdbc349f	-0.09189724
204	0xbe0b4dd3	-0.13603906
205	0xbe4cb4aa	-0.19990793
206	0xbe47b820	-0.19503832
207	0xbe410a7e	-0.18851659
208	0xbe0df6cc	-0.13863677
209	0xbba4b86a	-0.0050268667
210	0x3de7b72e	0.11314236
211	0x3e175652	0.14779022
212	0x3e9223e2	0.28543
213	0x3e84c849	0.25934055
214	0x3d2aca2a	0.041696705
215	0x3d3e5b24	0.046473637
216	0x3dab5b22	0.083669916
217	0x3d5ddf67	0.05416813
218	0x3e3db37e	0.18525502
219	0x3e91600c	0.2839359
220	0x3e81136f	0.2521014
221	0x3e836f5e	0.25670904
222	0xbd4181a4	-0.047242776
223	0xbe2aede2	-0.16692308
224	0xbcadf7da	-0.021236349
225	0xbd4d0d2f	-0.0500614
226	0x3d8b1933	0.06791916
227	0x3d9bd838	0.076096
228	0xbcd18a61	-0.02557868
229	0xbd63adb7	-0.05558559
230	0xbe3a1b2e	-0.1817443
231	0x3c2d80ae	0.010589762
232	0xbd6c7651	-0.057730023
233	0xbe4307f8	-0.19046009
234	0xbe0ff006	-0.14056405
235	0xbdf38ac5	-0.118917026
236	0xbd11774d	-0.035514165
237	0x3e1038ba	0.1408414
238	0x3e76fce7	0.24119912
239	0x3e316de7	0.1732708
240	0x3e4aa803	0.19790654
241	0x3e76da29	0.24106659
242	0x3e6ddd26	0.23228893
243	0x3e1a0438	0.15040672
244	0x3e1d4db9	0.1536168
245	0x3e16b236	0.1471642
246	0x3e03ffa3	0.12890486
247	0x3da04e7d	0.078274705
248	0x3d65c603	0.05609704
249	0xbc837d71	-0.016051026
250	0xbe532453	-0.20619325
251	0xbd197372	-0.037463613
252	0x3bc6aa1a	0.006062758
253	0xbd13f441	-0.03612161
254	0x3dd86c8d	0.105675794
255	0x3da5c33d	0.08093879

fc1.bias f4 [128]
0	0x3d8430d4	0.06454626
1	0x3e2af7e5	0.16696127
2	0x3e696037	0.2279061
3	0xbd58917b	-0.052873116
4	0xbda8b37c	-0.08237359
5	0xbd3333da	-0.04375062
6	0x3d54c54a	0.051945962
7	0x3cd8ef2b	0.026481232
8	0xbd4bbc77	-0.04974028
9	0xbe4fcd70	-0.20293212
10	0x3dee8cb9	0.116479345
11	0x3db14f64	0.08657721
12	0xbbc24f46	-0.0059298603
13	0xbc92dc8b	-0.017927429
14	0xbcd53975	-0.026028374
15	0x3c407fdc	0.011749234
16	0x3d799495	0.060932714
17	0xbcef531f	-0.02921444
18	0xbe386f94	-0.18011314
19	0x3d9d983b	0.07695051
20	0xbcf090b9	-0.029365884
21	0xba4c0521	-0.00077827467
22	0xbdb88956	-0.0901057
23	0x3cfabfdc	0.030609064
24	0x3d67d026	0.05659499
25	0xbe1eaa3f	-0.15494631
26	0x3e52f347	0.20600615
27	0x3e614456	0.21998724
28	0x3e030ab4	0.12797052
29	0x3ccb4c53	0.024816668
30	0x3c38b578	0.011273734
31	0x3c9dc85e	0.019260582
32	0xbd64d404	-0.055866256
33	0x3e75e741	0.24013998
34	0x3cc4b92a	0.024014074
35	0x3df20d21	0.118189104
36	0xb947978c	-0.00019034575
37	0xbdd94967	-0.106097035
38	0xbc71c04a	-0.014755318
39	0x3b177345	0.0023109477
40	0xbe0d4f57	-0.13799797
41	0x3d03a8b3	0.032143306
42	0xbd7e8f27	-0.06214824
43	0xbd0bf3c9	-0.03416804
44	0x3d5fab8f	0.05460697
45	0xbe3275b5	-0.17427714
46	0x3df5de50	0.12005293
47	0xbe28578f	-0.16439651
48	0xbe23c816	-0.15994295
49	0xbdb56920	-0.08857942
50	0xbceb2a1c	-0.028706603
51	0x3d03eb98	0.0322071
52	0xbe028486	-0.12745866
53	0xbcb48afb	-0.022038927
54	0xbceede2f	-0.02915868
55	0xbcf94af1	-0.030431243
56	0x3e04364e	0.1291134
57	0xbe3727d4	-0.17886287
58	0x3dbbe936	0.09175341
59	0x3bc8781b	0.0061178333
60	0xbd407ded	-0.046995092
61	0xbde30c30	-0.11086309
62	0xbdd1db5d	-0.10246918
63	0xbd82b3ee	-0.06381975
64	0x3df251df	0.11832022
65	0xbc81622b	-0.01579388
66	0x3c4c5ef4	0.01247381
67	0xbdd55da7	-0.104182534
68	0xbe1b473e	-0.15163895
69	0xbdacd845	-0.08439688
70	0x3e3b0822	0.18264821
71	0xbe53ee34	-0.20696336
72	0x3c0ddb9e	0.008658318
73	0x3e0cb845	0.13742168
74	0xbe1ba8e1	-0.15201141
75	0x3d857094	0.06515613
76	0xbce99e72	-0.028517935
77	0xbd39a7f6	-0.045326196
78	0xbd41ed3e	-0.047345392
79	0x3e38f844	0.18063456
80	0xbd260638	-0.040533274
81	0x3e29bbc6	0.16575536
82	0x3db853f2	0.09000386
83	0xbd556798	-0.052100748
84	0x3e55160f	0.20809196
85	0xbcdd10d5	-0.026985565
86	0xbcf1bdad	-0.02950939
87	0x3dfb88a4	0.122819215
88	0xbd4f0173	-0.05053849
89	0x3e08bd3e	0.1335344
90	0x3df4f56c	0.11960873
91	0xbc9fea1f	-0.019520817
92	0xbc4f839f	-0.012665658
93	0xbc127594	-0.008939166
94	0xbd35109e	-0.0442053
95	0x3d2a34b2	0.04155416
96	0xbda783ab	-0.081794105
97	0xbd4ab06e	-0.049484663
98	0xbcf0a9ad	-0.029377783
99	0x3dc7a2a6	0.097478196
100	0xbe46b1e8	-0.19403803
101	0xbc619907	-0.013769395
102	0xbd64be57	-0.055845585
103	0x3bbc8abd	0.0057538436
104	0x3e1234f2	0.1427801
105	0x3d698a50	0.05701667
106	0x3e838a8a	0.25691634
107	0xbb80ea7e	-0.0039342036
108	0x3d9a45a3	0.075328134
109	0xbdc3c0c7	-0.09558254
110	0x3b0c7734	0.0021433355
111	0x3d7eae29	0.06217781
112	0x3cd67c38	0.026182279
113	0xbe1d1d30	-0.15343165
114	0xbd42ec49	-0.04758862
115	0x3d651f55	0.055938084
116	0xbe14ca80	-0.14530373
117	0xbdc2a358	-0.095038116
118	0xbca526ea	-0.020160157
119	0xbd9ac974	-0.075579554
120	0xbe04a2b4	-0.12952691
121	0xbe199527	-0.14998303
122	0xbdda5e21	-0.10662485
123	0xbc1fdbd8	-0.009757005
124	0x3e2823c4	0.16419894
125	0x3e27677d	0.16348071
126	0xbc4df88a	-0.012571463
127	0x3da40ec9	0.080106325

fc2.weight f4 [64, 128]
0	0x3dd8978f	0.105757825
1	0xbdb1316d	-0.08652005
2	0x3e592111	0.2120402
3	0x3e1cc8e7	0.15311013
4	0x3d003b9c	0.031306848
5	0x3be8fb22	0.0071100155
6	0xbe443448	-0.19160569
7	0x3efdce77	0.49571583
8	0xbe9dace9	-0.30795982
9	0x3e827e71	0.25487092
10	0xbddb6967	-0.10713463
11	0x3e25c119	0.16186942
12	0xbdb1ccbb	-0.08681627
13	0xbd7e2967	-0.062051203
14	0xbd31f31d	-0.04344474
15	0xbe948497	-0.29007408
16	0xbe8a7c3e	-0.27047914
17	0xbc04a7a0	-0.008096606
18	0x3e44db1d	0.1922421
19	0x3e9150fa	0.28382093
20	0xb9bca37e	-0.00035979965
21	0x3e546397	0.20741116
22	0xbe8053c4	-0.25063908
23	0x3e04ba35	0.12961657
24	0xbe6c844c	-0.23097342
25	0x3de48bcf	0.11159479
26	0xbd8418af	-0.064500205
27	0xbc505f4c	-0.012718033
28	0xbe5e61ea	-0.21717039
29	0xbcb39525	-0.021921704
30	0x3aac1e95	0.0013131673
31	0x3e5ce4c2	0.21571639
32	0xbd5f30e1	-0.054489974
33	0xbb8a8ec0	-0.004228443
34	0xbe96262a	-0.29325992
35	0x3e53447d	0.20631595
36	0xbe4ec150	-0.2019093
37	0xbe867e70	-0.2626834
38	0x3d83355d	0.064066626
39	0xbde48f64	-0.11160162
40	0x3db2cca5	0.08730439
41	0xbe4fdbe0	-0.2029872
42	0xbd791120	-0.060807347
43	0x3da632e4	0.08115175
44	0xbe98ad33	-0.2981964
45	0xbe51e939	-0.20499124
46	0xbe0250d9	-0.12726153
47	0x3dde8e87	0.10867029
48	0x3de749f9	0.11293406
49	0x3dde7f71	0.10864151
50	0x3d1fcf46	0.03901603
51	0xbd873444	-0.06601766
52	0x3ef1e095	0.47241655
53	0x3c671c2f	0.014105841
54	0xbd1812b1	-0.0371272
55	0x3d42bcd2	0.047543354
56	0xbc9baff3	-0.019004798
57	0x3d9d58a9	0.07682926
58	0xbe8bf2e8	-0.2733376
59	0xbd4cfa22	-0.050043233
60	0x3d0eb9ef	0.03484529
61	0xbe61aed6	-0.22039351
62	0xbdef7463	-0.11692121
63	0x3e3bc7ea	0.1833798
64	0x3e2de488	0.16981709
65	0xbca78356	-0.020448368
66	0xba32f213	-0.0006826233
67	0x3e08ade0	0.13347578
68	0x3c9293a8	0.017892674
69	0xbdb6a604	-0.08918384
70	0x3d9e7d5e	0.07738756
71	0x3ced17e4	0.028942056
72	0x3dce5e32	0.1007656
73	0x3da8fdd5	0.082515396
74	0x3e1b6206	0.15174112
75	0xbe8ca414	-0.27468932
76	0x3d048266	0.03235092
77	0x3eb6c96e	0.35700554
78	0xbd26bd73	-0.040708017
79	0x3dc56fa9	0.09640438
80	0xbce317da	-0.027721334
81	0x3f04da2b	0.518954
82	0xbe0ef4bf	-0.1396055
83	0xbd82f75f	-0.063948385
84	0x3ebf69a3	0.37385282
85	0xbe6a1199	-0.22858275
86	0x3eb057e1	0.34442046
87	0xbcffae8e	-0.031211164
88	0x3baf9080	0.005357802
89	0xbceb9e53	-0.028762018
90	0x3e3a9dcd	0.18224259
91	0x3ae880fe	0.0017738638
92	0x3dbffe37	0.093746595
93	0xbea76a17	-0.32698128
94	0x3dbc0390	0.09180367
95	0xbcc7cf65	-0.024390886
96	0xbd98cbe4	-0.07460764
97	0xbd4ee036	-0.050506793
98	0xbe119e98	-0.14220655
99	0x3e08939b	0.13337557
100	0xbd1e2509	-0.03860954
101	0xbc9036ca	-0.01760425
102	0xbc8a85da	-0.016909529
103	0xbe9005cc	-0.28129423
104	0x3eadcaad	0.33943692
105	0xbdb7be78	-0.08971876
106	0x3b818277	0.00395232
107	0xbd912807	-0.07087713
108	0x3c0321a6	0.008003628
109	0x3e5328cc	0.20621032
110	0x3d93d92a	0.07219155
111	0xbcc5adab	-0.024130663
112	0x3f0c6754	0.54845166
113	0x3e0829f1	0.1329725
114	0xbd990b10	-0.07472813
115	0xbebb035b	-0.36525998
116	0xbd88c5b5	-0.066783346
117	0xbd1a5b9d	-0.037685025
118	0xbd66df13	-0.056365084
119	0x3dc5ba6a	0.09654696
120	0x3c442cc4	0.011973564
121	0xbe9250dd	-0.2857732
122	0xbd90ce27	-0.070705704
123	0xbd2f4692	-0.04279191
124	0x3d011458	0.031513542
125	0xbe43b34a	-0.19111362
126	0xbe2751f0	-0.1633985
127	0x3e40694f	0.18790172
128	0xbd8d2825	-0.068924226
129	0xbbad7446	-0.005293402
130	0x3e79de18	0.24401128
131	0x3ddbe954	0.10737863
132	0xbe96c479	-0.29446772
133	0x3e36d267	0.178537
134	0x3de69f1f	0.11260819
135	0x3f04b25c	0.51834655
136	0xbea2b950	-0.31782007
137	0x3d99d77e	0.07511805
138	0x3d772af8	0.060343713
139	0x3e83f2ee	0.25771278
140	0xbe5af429	-0.21382202
141	0x3d207e64	0.039183035
142	0x3cef4b01	0.02921057
143	0x3e1a7bcd	0.15086289
144	0xbdba17e9	-0.09086592
145	0x3d8852e1	0.06656433
146	0x3dc954e2	0.09830643
147	0x3e9bf560	0.30460644
148	0x3d240ad5	0.040049393
149	0x3df2c6f3	0.11854353
150	0xbe4582ba	-0.1928815
151	0x3e85908f	0.26086852
152	0xbd950c06	-0.07277684
153	0xbd649eb7	-0.055815425
154	0x3d99daf8	0.07512468
155	0x3e374a37	0.17899404
156	0xbe023b4a	-0.1271793
157	0xb886b10c	-6.4225955e-05
158	0xbd812d19	-0.0630743
159	0x3ea7a655	0.3274409
160	0x3d4ebce6	0.050473116
161	0x3e132bec	0.14372224
162	0xbe56469c	-0.20925373
163	0x3e1c5450	0.15266538
164	0xbc8b75bf	-0.01702392
165	0xbea1973d	-0.31560698
166	0xbe0b233e	-0.13587663
167	0x3da6a965	0.08137778
168	0xbc03457c	-0.008012172
169	0xbe4fedd2	-0.20305565
170	0xbed04bda	-0.4068287
171	0x3e4239da	0.18967381
172	0xbec2971e	-0.38005918
173	0xbe92018f	-0.28516814
174	0x3aeb2596	0.0017940279
175	0xbdd1d59b	-0.1024582
176	0x3e5bff76	0.2148417
177	0xbcac4dc3	-0.021033173
178	0x3c7da96f	0.015482291
179	0xbdcbe29d	-0.099553324
180	0x3f102f07	0.5632176
181	0x3d0ba9cc	0.034097478
182	0xbb1f605b	-0.0024318907
183	0xbd77d2b2	-0.06050367
184	0x3daedf83	0.08538725
185	0x3d8a3df9	0.067501016
186	0xbe48b6b0	-0.1960094
187	0x3cb90f6e	0.022590365
188	0xbdb5293b	-0.08845755
189	0xbe8e7a60	-0.2782774
190	0xbba04d33	-0.0048920154
191	0xbc21bb7f	-0.009871363
192	0x3ca1a875	0.019733647
193	0xbd9e603b	-0.07733198
194	0x3cc5d126	0.024147581
195	0x3dca90c6	0.098908946
196	0xbd0698f7	-0.032860722
197	0x3d429111	0.047501627
198	0x3c4c0f61	0.0124548385
199	0xbd7b4466	-0.061344527
200	0x3a7a69fd	0.00095525366
201	0x3e093a58	0.13401163
202	0x3d10955c	0.03529869
203	0xbd4bfb74	-0.04980035
204	0x3d4001b5	0.046876628
205	0x3f0160e6	0.5053848
206	0xbd143e71	-0.03619236
207	0xbd9b3179	-0.075777955
208	0xbd2995f3	-0.04140277
209	0x3ed2f329	0.4120114
210	0xbe2f495a	-0.17117825
211	0x3d712a82	0.05887843
212	0x3e3caf74	0.18426305
213	0xbe3ed121	-0.18634464
214	0x3eebe1b8	0.46070647
215	0x3e103c45	0.14085491
216	0xbd30cbf1	-0.043163244
217	0x3ccb4aa1	0.02481586
218	0xbd56e0e8	-0.05246058
219	0x3da6c644	0.08143285
220	0xbca7c0ea	-0.02047773
221	0xbd9fb412	-0.077980176
222	0x3e82e1c0	0.2556286
223	0x3d996aef	0.07491099
224	0xbd02b7af	-0.031913456
225	0xbcb1fdc9	-0.02172746
226	0xbd810ada	-0.06300898
227	0x3d186126	0.037202023
228	0xbe2111cf	-0.1572945
229	0xbdffff0a	-0.12499817
230	0x3e082147	0.13293944
231	0xbe3312ba	-0.17487612
232	0x3e4822e2	0.19544557
233	0xbd88e4bd	-0.06684253
234	0xbe2b8e39	-0.16753472
235	0xbd7cb37c	-0.061694607
236	0xbd700a8b	-0.058603805
237	0x3e8ff6cf	0.28117988
238	0xbd2e0ae1	-0.042490844
239	0xbdc8ddb2	-0.0980791
240	0x3f083ec3	0.53220767
241	0x3eddb781	0.43304065
242	0xbe1baded	-0.15203066
243	0xbeaa5e13	-0.33274898
244	0xbe8bcb9c	-0.2730378
245	0xbe1c191b	-0.15243952
246	0xbd6faeaa	-0.058516182
247	0x3dbd377a	0.09239097
248	0x3dd9985b	0.106247626
249	0xbe8dea2d	-0.27717724
250	0x3e1364c9	0.14393915
251	0x3cd9f88d	0.026607776
252	0x3d231d70	0.039822996
253	0xbe9a8d42	-0.30185896
254	0xbe00527e	-0.12531468
255	0x3cc9d765	0.02463884

fc2.bias f4 [64]
0	0x3cf8ad50	0.03035608
1	0x3ba22be2	0.004949079
2	0x3e7e3bed	0.24827547
3	0x3e35b5e0	0.17745161
4	0x3d1d385c	0.038383827
5	0xbcb84530	-0.022493929
6	0x3e62829a	0.22120133
7	0x3caf4f72	0.021400187
8	0xbd9db16c	-0.07699856
9	0xbdfc8887	-0.12330728
10	0x3cee80be	0.029114123
11	0x3e0f5394	0.13996726
12	0xbe225939	-0.15854348
13	0x3dfd448e	0.123665914
14	0x3d656621	0.0560056
15	0xbc09dc1e	-0.008414296
16	0x3da6dca4	0.081475526
17	0x3dd414b7	0.103555135
18	0xbd7783d6	-0.060428463
19	0xbdb4caff	-0.08827781
20	0xbcd25a54	-0.025677837
21	0xbe2c6591	-0.1683562
22	0x3e295c33	0.16539077
23	0xbc674815	-0.014116307
24	0x3e33fd26	0.17577037
25	0x3e08e896	0.13369974
26	0xbe152ac6	-0.14567098
27	0xbe22fe7d	-0.15917392
28	0x3ded51af	0.115878455
29	0x3e16d7a5	0.147307
30	0x3dc6eaef	0.09712779
31	0xbe0463d1	-0.12928702
32	0x3c72eb6d	0.014826638
33	0xbcb7c448	-0.022432461
34	0xbd30e482	-0.043186672
35	0xbd7cafd2	-0.061691113
36	0x3e11b9b9	0.14231004
37	0x3c0a0f81	0.008426548
38	0x3c2ac8c2	0.010423841
39	0x3e1f3fb0	0.15551639
40	0xbcb4a823	-0.02205283
41	0xbd512853	-0.051063847
42	0xbdfc65b4	-0.12324086
43	0xbd28064d	-0.041021634
44	0x3e2ea514	0.1705516
45	0x3d0b7584	0.03404762
46	0xbe591afe	-0.21201703
47	0x3c9093c8	0.017648593
48	0x3b385745	0.0028128189
49	0x3d1aa7c5	0.037757654
50	0x3e1f6c50	0.15568662
51	0xbcf56a16	-0.029957812
52	0x3c9bb597	0.019007487
53	0x3e544b7d	0.20731921
54	0x3d40ac40	0.04703927
55	0xbd91fece	-0.07128678
56	0x3e018d8e	0.12651655
57	0x3ddec01a	0.10876484
58	0x3e06c343	0.13160424
59	0x3de7c4d2	0.11316837
60	0xbe0c5a10	-0.13706231
61	0x3d316301	0.043307308
62	0xbd013ff5	-0.031555135
63	0xbd7c38f5	-0.061577756

fc3.weight f4 [10, 64]
0	0x3e0c8e24	0.13726097
1	0xbdd79a46	-0.10527472
2	0xbed78236	-0.4209153
3	0xbdf3ed7b	-0.1191053
4	0x3e2a1110	0.16608071
5	0x3df47520	0.11936402
6	0xbf0d55ab	-0.55208844
7	0xbea82630	-0.32841635
8	0xbd20600d	-0.0391541
9	0xbe9d98cd	-0.3078064
10	0xbe29e499	-0.1659111
11	0x3e5df6df	0.21676205
12	0x3d9722e6	0.07379703
13	0xbdf94d1a	-0.12172909
14	0xbe1d4fc9	-0.15362467
15	0xbe240638	-0.16017997
16	0x3e4ea332	0.20179442
17	0xbe036ffb	-0.12835686
18	0xbdcada6d	-0.09904943
19	0xbd6ddcf7	-0.058072057
20	0xbe144342	-0.14478782
21	0xbdd07d5a	-0.10180159
22	0x3d25b4e3	0.04045571
23	0x3dce22aa	0.100652054
24	0xbee89ddc	-0.45432937
25	0xbbb8424b	-0.005623137
26	0x3eecbcff	0.46237943
27	0xbdd3d3ea	-0.10343154
28	0xbe992680	-0.29912186
29	0xbd8fea32	-0.07027091
30	0xbe8261c6	-0.2546522
31	0x3e134e8c	0.14385432
32	0xbea40ed3	-0.3204256
33	0xbde1ff17	-0.11034983
34	0xbd9aa406	-0.07550816
35	0x3e5239b6	0.20529827
36	0x3e19f021	0.15033008
37	0x3de5f4d3	0.11228337
38	0xbe846096	-0.2585494
39	0xbeea8570	-0.4580493
40	0x3d89ade1	0.06722618
41	0x3e82e860	0.25567913
42	0xbca1135a	-0.019662548
43	0x3e687974	0.2270258
44	0x3e0a2879	0.13492002
45	0xbe436e60	-0.19085073
46	0x3e39c3a2	0.18141034
47	0x3e567418	0.20942724
48	0xbe5e4047	-0.21704207
49	0xbd20ef0a	-0.039290465
50	0xbe15cb78	-0.14628398
51	0x3e203e14	0.15648681
52	0x3e04e35d	0.12977357
53	0xbed0e075	-0.40796247
54	0x3e311345	0.17292507
55	0x3dea4b3f	0.11440133
56	0xbe4e392e	-0.20139
57	0xbddffa79	-0.10936446
58	0xbbc8156b	-0.006106069
59	0xbe6797be	-0.22616479
60	0x3da6b3c0	0.08139753
61	0xbe230d83	-0.15923123
62	0x3e84373c	0.2582339
63	0xbe833640	-0.25627327
64	0xbe8e292e	-0.27765793
65	0xbe91791d	-0.28412715
66	0x3e61db57	0.22056328
67	0xbe8c28b0	-0.27374792
68	0xbefd03dc	-0.49417007
69	0x3d07c3e2	0.033145793
70	0x3e85ce51	0.2613397
71	0x3e57ef59	0.21087398
72	0x3dbd0958	0.09230298
73	0x3e096d6c	0.13420647
74	0x3e5dac35	0.21647723
75	0xbe8625c8	-0.262007
76	0x3e335deb	0.17516296
77	0xbe074b8f	-0.13212417
78	0x3cfa7d5a	0.03057735
79	0xbe57eb9b	-0.2108597
80	0xbedfe7c8	-0.43731523
81	0x3db7e1c2	0.08978607
82	0x3e5e00f1	0.21680047
83	0x3d3e596a	0.04647199
84	0xbe12e51f	-0.14345215
85	0xbe941be0	-0.28927517
86	0xbf11494a	-0.56752455
87	0xbf06e0a9	-0.52686554
88	0x3e1b2e31	0.1515434
89	0xbe869d4c	-0.26291883
90	0xbcacdf4f	-0.021102576
91	0xbed5b3a4	-0.41738617
92	0x3e0174a5	0.12642153
93	0xbea69858	-0.32538104
94	0x3dbbbd72	0.09166993
95	0xbe0670c6	-0.13128957
96	0xbeb75c29	-0.358125
97	0x3c6f1418	0.014592193
98	0x3e379cf4	0.17930967
99	0xbed05732	-0.40691525
100	0xbe8554dc	-0.26041305
101	0xbe5eef19	-0.21770896
102	0x3e69b08e	0.22821257
103	0x3e223724	0.15841347
104	0xbe63a579	-0.22231092
105	0xbe29c779	-0.16579999
106	0x3bd6bf5a	0.0065535726
107	0xbeeee4ce	-0.4665894
108	0xbee1728f	-0.44032714
109	0xbe7c6da7	-0.24651204
110	0xbebb3bc7	-0.36569044
111	0xbedeaf1c	-0.43492973
112	0xbd029c17	-0.03188714
113	0x3e8677cf	0.26263282
114	0x3e20d90f	0.15707801
115	0xbe2dbd16	-0.16966662
116	0x3c3f67a4	0.011682425
117	0xbea45219	-0.32093886
118	0x3b4a1849	0.003083723
119	0xbe97617c	-0.29566562
120	0x3e19c7b8	0.15017593
121	0x3e46017c	0.19336504
122	0x3eb25dc5	0.34837165
123	0xbbf87fa0	-0.0075835735
124	0xbe86d62e	-0.2633528
125	0xbe89e419	-0.26931837
126	0xbe386a56	-0.18009314
127	0x3dac22be	0.08405064
128	0xbe52f73d	-0.20602126
129	0xbeb76568	-0.35819554
130	0xbf0ba531	-0.5454894
131	0xbeb7d756	-0.35906476
132	0x3e243554	0.16035968
133	0xbd9905fe	-0.07471846
134	0xbe4146fc	-0.18874735
135	0x3e529f0d	0.20568486
136	0xbceea308	-0.029130474
137	0x3e1a6dd5	0.1508096
138	0x3e455748	0.19271576
139	0xbe3d2495	-0.18470986
140	0x3e4b0714	0.19826919
141	0xbde47345	-0.111547984
142	0x3dc5b2a3	0.09653213
143	0x3e3eceec	0.18633622
144	0xbd24c909	-0.040230785
145	0xbe9e54a9	-0.30923966
146	0x3e1affd8	0.15136659
147	0x3d7a7a37	0.06115171
148	0x3d09a2b5	0.033602435
149	0x3e54d691	0.20784976
150	0x3d045af6	0.03231331
151	0x3dfe85fd	0.124279
152	0xbe68f822	-0.22750905
153	0x3dc551e0	0.09634757
154	0xbe023f15	-0.12719376
155	0x3e7faeed	0.24969073
156	0xbde0729f	-0.10959362
157	0xbea77d1c	-0.32712638
158	0xbd896c83	-0.0671015
159	0x3e61f520	0.22066164
160	0xbecb3b96	-0.39693898
161	0xbc243ff0	-0.0100250095
162	0x3e3647cc	0.17800826
163	0x3c90a83a	0.017658342
164	0xbebb4231	-0.36573938
165	0xbe276f6d	-0.163511
166	0x3e400432	0.187516
167	0xbf0262ac	-0.5093181
168	0xbecfe9bc	-0.40608013
169	0x3c84a787	0.016193165
170	0xbdd70865	-0.10499648
171	0xbe744f91	-0.23858477
172	0xbeaf8227	-0.34278986
173	0xbe2bb962	-0.16769937
174	0x3e4826cb	0.19546048
175	0xbe79f32a	-0.24409166
176	0xbeaacb5d	-0.3335828
177	0xbefa8a31	-0.48933557
178	0x3e300a0b	0.17191331
179	0xbd7d3279	-0.061815713
180	0x3e6c2bc3	0.23063569
181	0xbd7c4ff6	-0.061599694
182	0x3e80d3f2	0.251617
183	0xbdaa6636	-0.083202764
184	0x3d73a9aa	0.059487976
185	0xbeafb592	-0.34318215
186	0xbec395b0	-0.3820014
187	0xbe386f89	-0.18011297
188	0x3e0cc166	0.1374565
189	0x3dd58017	0.10424822
190	0xbe7f04ba	-0.24904147
191	0x3e1b66ce	0.15175936
192	0x3e8c57d8	0.2741077
193	0x3e80c97f	0.2515373
194	0x3e417532	0.18892363
195	0xbe96957b	-0.2941092
196	0x3e3a80c8	0.18213189
197	0xbdce2d76	-0.10067265
198	0x3bb16b58	0.0054144077
199	0xbe8b633a	-0.2722414
200	0xbdc68e95	-0.09695164
201	0x3da652ef	0.08121287
202	0x3e0902ba	0.13379946
203	0xbe9a46fe	-0.30132288
204	0x3dac45c4	0.08411744
205	0xbe2eae2b	-0.17058627
206	0xbe8689a8	-0.26276898
207	0x3d9573f8	0.0729751
208	0xbeb65b16	-0.35616368
209	0x3e072f7d	0.13201709
210	0x3e05026a	0.12989202
211	0xbdb691e6	-0.08914547
212	0xbe0f3ce0	-0.13988066
213	0x3d6fcce8	0.058545023
214	0xbebb1c49	-0.36545017
215	0x3dfe7e69	0.124264546
216	0xbe9953b8	-0.29946685
217	0xbe2d2076	-0.16906914
218	0xbe5b5847	-0.21420394
219	0xbd38fc34	-0.045162395
220	0xbe7f2b43	-0.24918847
221	0xbe39a9e4	-0.18131214
222	0xbeabeb6c	-0.3357805
223	0x3e878255	0.26466623
224	0x3d4864c2	0.048924215
225	0x3d5330e0	0.051560283
226	0xbdaa9475	-0.08329097
227	0x3e2e1229	0.16999115
228	0xbeee3d5c	-0.46531188
229	0x3de39d60	0.11114001
230	0x3da0840a	0.078376845
231	0x3e757b1f	0.23972748
232	0x3e8982a8	0.26857495
233	0xbdd65cd6	-0.10466926
234	0x3d728311	0.059207026
235	0xbea3f751	-0.32024625
236	0xbe4569b5	-0.19278605
237	0xbe1c9b39	-0.15293588
238	0x3d94944e	0.072548494
239	0xbe3253b1	-0.17414738
240	0xbde14448	-0.10999352
241	0xbd959779	-0.07304282
242	0xbcb9fafb	-0.022702685
243	0xbd9dfae3	-0.077138685
244	0xbe5ca3ed	-0.21546908
245	0xbe7e0b5d	-0.24809022
246	0xbe66ca65	-0.22538145
247	0x3e49baec	0.19700211
248	0xbe13fa73	-0.14451008
249	0xbe2b545f	-0.16731404
250	0x3e747a58	0.23874795
251	0x3d8e3b1a	0.069448665
252	0x3e5db648	0.21651566
253	0x3e19420b	0.149666
254	0xbea25b19	-0.31710127
255	0x3e8c8de8	0.27452016

fc3.bias f4 [10]
0	0xbd4f5f95	-0.050628264
1	0x3cc70d0c	0.024298213
2	0xbd289748	-0.041159898
3	0x3d0c490b	0.034249347
4	0x3e5580c4	0.20849901
5	0x3dca1a2b	0.098682724
6	0x3bceaeb4	0.0063074473
7	0x3d175c0e	0.036953025
8	0x3e7a123f	0.24421023
9	0xbadb66b1	-0.0016738978
