s1_M4-Pytorch/checkpoint.pth (torch, 440087 bytes, 6 tensors)

weight f4 [128, 784]
0	0xbc237aae	-0.00997798
1	0xbd071213	-0.03297622
2	0xbb5718b0	-0.0032821111
3	0x3d032747	0.03201988
4	0x3cd4a136	0.025955778
5	0xbc9ce73c	-0.01915323
6	0x3d106e01	0.035261158
7	0x3c0526b4	0.008126903
8	0x3cd47ae1	0.0259375
9	0xbcc2e40e	-0.023790386
10	0x3ce97a9e	0.028500851
11	0xbcbc4378	-0.02298139
12	0xba8dd276	-0.0010820169
13	0xbc03daba	-0.008047754
14	0x3a8618c1	0.0010230766
15	0xbcdb76b8	-0.026790008
16	0x3ccf4902	0.025303368
17	0xbcc1098b	-0.02356412
18	0xbcaf7d21	-0.02142197
19	0xbbedc410	-0.0072560385
20	0xbc764c46	-0.015032833
21	0x3be57500	0.007002473
22	0xbcec47e9	-0.028842883
23	0xb9235d00	-0.00015579537
24	0x3a95f2a0	0.0011440106
25	0xbc6f1c32	-0.014594125
26	0xbc9619fc	-0.018322937
27	0xbc726852	-0.01479538
28	0x3c28ecfc	0.010310408
29	0xbcf51493	-0.029917037
30	0x3c94d1bc	0.018166415
31	0x3d053c2d	0.03252809
32	0xbc80e24c	-0.015732907
33	0x3d0b2f27	0.033980515
34	0xbca81615	-0.020518342
35	0x3c3d9ebe	0.011573492
36	0x3b4feebc	0.003172799
37	0xbcc4e2b7	-0.024033887
38	0x386ad612	5.5989316e-05
39	0x3bc1ecd3	0.005918124
40	0x3c2af040	0.010433257
41	0x3bfee7c1	0.007779092
42	0x3b3d5418	0.0028889235
43	0xbc164241	-0.00917107
44	0xbca51429	-0.020151215
45	0x3d069805	0.03285982
46	0x3cc44e71	0.023963185
47	0x3bd68ec9	0.006547783
48	0xbca63a4e	-0.020291474
49	0xbd06480c	-0.032783553
50	0x3c5f2627	0.013619936
51	0xbcda35c8	-0.026636973
52	0x3c524536	0.012833884
53	0xbcb1ee4c	-0.021720074
54	0x39889d80	0.00026057288
55	0xbcb1b63e	-0.021693345
56	0xbcf80a31	-0.030278297
57	0x3c00dc74	0.00786506
58	0xbbcaef9c	-0.0061931144
59	0xbc2e110e	-0.010624183
60	0x3cf9994d	0.030468607
61	0xbc20e85c	-0.009821024
62	0x3bada4c2	0.0052991817
63	0x3cf00ab5	0.02930198
64	0x3c9bdc5a	0.01902597
65	0xbd07b0a2	-0.033127435
66	0xbba7ac5d	-0.005116983
67	0xbd0ecfb7	-0.03486606
68	0xba00a203	-0.0004906954
69	0x3c1fda35	0.009756614
70	0x3c822f79	0.015891777
71	0x3c20cce0	0.009814471
72	0x3cbcdd4e	0.023054745
73	0x3b00569d	0.0019582876
74	0xbbb61d82	-0.005557717
75	0x3c31bc49	0.010848113
76	0x3c1c7d31	0.009551332
77	0x3cde5841	0.027141692
78	0x3d0e2797	0.034705725
79	0x3d066d04	0.03281881
80	0xbc9e9345	-0.019357333
81	0x3c9830e8	0.018578008
82	0xbca8f44e	-0.020624306
83	0xbb46ea50	-0.0030352063
84	0xbc9c8c5c	-0.019109897
85	0x3c5118b0	0.012762234
86	0xbca2fd60	-0.01989621
87	0x3cfde716	0.03099398
88	0x3c3f1e12	0.011664884
89	0xbcd1158e	-0.025522973
90	0x3c96e70e	0.018420722
91	0xbc93a1a3	-0.01802141
92	0xbd10c599	-0.035344694
93	0x3d0d0e2c	0.034437343
94	0x3abe2f2e	0.001450991
95	0x3d02a5ef	0.031896528
96	0xbcd1a706	-0.025592338
97	0x3c8a9061	0.016914548
98	0xbce9f7cc	-0.028560542
99	0xba9da043	-0.0012025911
100	0x3cb80f8e	0.022468355
101	0xbb950c7f	-0.004548609
102	0x3b396f32	0.0028295037
103	0xbcabf568	-0.020991042
104	0xbc583f28	-0.013198651
105	0x3d106ae9	0.035258207
106	0x3d11c033	0.035583686
107	0xbb293eea	-0.0025824853
108	0xbc15326d	-0.009106261
109	0xbd03601d	-0.032074083
110	0xbd037143	-0.032090437
111	0x3cb0fef8	0.021605954
112	0x3bf9f370	0.007627897
113	0xbce021c3	-0.027359849
114	0x3caeb250	0.02132526
115	0xbcbb4a1e	-0.02286249
116	0x3d094d66	0.03352108
117	0xbcd603a1	-0.026124777
118	0x3cd195a5	0.025584051
119	0x3d0184d9	0.031620834
120	0x3c65a481	0.014016272
121	0x3b2ed25c	0.0026675677
122	0x3c1cbb3e	0.009566126
123	0xbb63e253	-0.003477235
124	0xbcacb995	-0.021084586
125	0xbcbf3578	-0.023340926
126	0x3d0a4d0e	0.03376489
127	0x3cc702e1	0.024293365
128	0xbca7e969	-0.02049704
129	0x3ba3bd30	0.004996918
130	0x3b120128	0.0022278521
131	0x3c83ff81	0.016113045
132	0xbd03840a	-0.032108344
133	0xbcdad5a4	-0.0267132
134	0xb9910645	-0.00027661226
135	0xbc9dfe23	-0.01928622
136	0xbcbc0236	-0.022950273
137	0x3cb562fd	0.022141928
138	0x3ce49be6	0.02790637
139	0x3ccf8722	0.025332991
140	0x3cef18c2	0.02918661
141	0xbbb869b8	-0.005627837
142	0x3bdccff5	0.0067386576
143	0xbaa75a8f	-0.0012768077
144	0xbc867000	-0.016410828
145	0xbbb4544c	-0.005503213
146	0x3b58bc89	0.003307136
147	0x3c5e7fd4	0.013580281
148	0x3cfd351b	0.030909112
149	0x3d0774a7	0.033070233
150	0xbd11871b	-0.035529237
151	0x3b7a2f75	0.003817526
152	0xbbef6766	-0.007306027
153	0x3c3d82fa	0.011566872
154	0x3ca9fdcd	0.020750904
155	0x3c0c1424	0.008549724
156	0x39df6d33	0.00042615234
157	0x39a8dadb	0.00032206517
158	0xbcd3e28a	-0.025864858
159	0x3c30079d	0.010744003
160	0xbccc100d	-0.024909997
161	0xbcc996d8	-0.02460806
162	0xbc2526ef	-0.010080083
163	0x3a945b35	0.0011318686
164	0x3b596e0b	0.0033177163
165	0xbcaadfc6	-0.020858657
166	0xb9f15afe	-0.00046034897
167	0xbccaaa80	-0.024739504
168	0x3cc2a1fa	0.023758877
169	0x3c0e38c9	0.008680531
170	0xbc0d3110	-0.008617654
171	0xbc6b5e18	-0.014365695
172	0x3d0bd928	0.034142643
173	0xbb516867	-0.0031953098
174	0x3ccce5b6	0.025011878
175	0xbcb2adbc	-0.021811359
176	0x3d06e426	0.032932423
177	0xbbbaf62c	-0.0057056155
178	0xbce35ce9	-0.027754264
179	0xbcf934be	-0.030420657
180	0x3d07b1c2	0.033128507
181	0x3c67f84f	0.0141583225
182	0x3c4c382e	0.012464566
183	0x3b22590c	0.0024772314
184	0xbd0c1861	-0.034202937
185	0x3c9e68b7	0.019337041
186	0xbcba833c	-0.022767656
187	0x3cbaa4cb	0.022783658
188	0x3b037bef	0.0020062884
189	0x3b5ab9f7	0.0033375004
190	0x3d118cdb	0.03553472
191	0x3cd986ee	0.026553597
192	0x3c1cf1de	0.00957915
193	0xbcada4ff	-0.02119684
194	0x3c4c3d24	0.012465749
195	0xbc8f3ec6	-0.017485987
196	0x3bc95348	0.006143961
197	0x3bea63a1	0.00715299
198	0x3cf4bc24	0.029874869
199	0x3c997413	0.018732106
200	0xbc4093e4	-0.01175401
201	0x3c98df3f	0.01866114
202	0xbcb25c51	-0.021772536
203	0xbd06c292	-0.0329004
204	0x3c7db789	0.015485653
205	0x3b47e69f	0.003050245
206	0x3cd2ddba	0.025740493
207	0xbcaed378	-0.02134107
208	0xbb84e134	-0.0040551666
209	0xbc89194a	-0.016735692
210	0xbc4e52d2	-0.012592988
211	0xbcb13ce9	-0.02163549
212	0xbc98cd2b	-0.01865252
213	0x3d01b69b	0.031668287
214	0xbce00632	-0.027346704
215	0xbca5c96f	-0.020237653
216	0x3babb213	0.005239734
217	0x3a655506	0.0008748326
218	0xbcc4bae3	-0.024014896
219	0x3cf128c0	0.029438376
220	0xbbcf2bd5	-0.006322364
221	0xbc0839b6	-0.008314541
222	0x38fae5d8	0.00011963741
223	0x3cad07ca	0.021121878
224	0x3d122b83	0.035686027
225	0xbb7b674b	-0.0038361128
226	0xbc25107a	-0.010074729
227	0x3cd7f7d7	0.026363296
228	0xbbf75824	-0.007548349
229	0xbd0aa92a	-0.033852734
230	0x3c5b27e5	0.013376211
231	0xbc1606c8	-0.00915689
232	0xbcda6997	-0.026661677
233	0xbb89d091	-0.0042057713
234	0xbd092b79	-0.033488724
235	0xbcd4c701	-0.025973799
236	0xbce6ca4d	-0.028172636
237	0xbd0747d5	-0.03302749
238	0xbd09ef6f	-0.033675607
239	0x3c88ea57	0.016713304
240	0xbd0f6e41	-0.035017256
241	0xbc7cb691	-0.015424387
242	0xbc9da21b	-0.019242337
243	0xbca0500e	-0.019569423
244	0xbcd56b7e	-0.026052233
245	0x3c41e7e4	0.011835072
246	0x3cc1f7ff	0.023677824
247	0x3c460dd8	0.012088262
248	0xbbf07bee	-0.0073389923
249	0xbcce7682	-0.025202993
250	0xbc4d45cf	-0.012528851
251	0x3bf0e0c8	0.0073510148
252	0x3c751c7c	0.0149604045
253	0x3c9803e6	0.018556546
254	0xbcf27593	-0.02959708
255	0xbc1036c1	-0.008802117

bias f4 [128]
0	0x3cee5daf	0.029097406
1	0xbcd3c555	-0.025850931
2	0xbc63c0c8	-0.013900943
3	0x3c07eb59	0.008295857
4	0x3c51c26f	0.012802704
5	0x3ca69bb0	0.02033791
6	0x3c8966a4	0.016772576
7	0xbc7a035d	-0.015259591
8	0xbcb7598d	-0.022381568
9	0xbca92466	-0.020647239
10	0x3c2b0025	0.010437046
11	0x3d0d4542	0.034489878
12	0x3cbbde1c	0.022933058
13	0x39f8582c	0.0004736794
14	0x3c13a8ca	0.00901241
15	0x3cc08d18	0.023504779
16	0xbd135d71	-0.035977785
17	0x3b6ed0a8	0.0036440287
18	0xbbe23f61	-0.006904528
19	0x3d0e35f3	0.03471942
20	0xbd047723	-0.03234018
21	0x3d091ea0	0.033476472
22	0xbcfef768	-0.031123832
23	0xbc2097ab	-0.009801785
24	0xbca92db4	-0.020651676
25	0xbc88b5b7	-0.01668821
26	0xbca33b31	-0.019925686
27	0xbd0eacef	-0.03483289
28	0x3c983d7e	0.01858401
29	0x3d069cdf	0.032864448
30	0x3cff288a	0.03114726
31	0xbcb26dac	-0.021780811
32	0xbd004eb2	-0.03132505
33	0xbb09226f	-0.0020925065
34	0x3cf2422d	0.02957257
35	0x3cb5ddce	0.022200491
36	0x3c4978ba	0.01229685
37	0x3b60f31c	0.0034324592
38	0x3c67230f	0.01410748
39	0x3cea5ac1	0.028607728
40	0x3c30f742	0.010801138
41	0xbd0891d7	-0.03334221
42	0x3bae79ad	0.0053245635
43	0x3bc12630	0.005894445
44	0x3ceaaa1d	0.02864557
45	0xbd015dd9	-0.03158364
46	0x3cb87bfb	0.022520056
47	0xbadc4989	-0.0016806583
48	0x3ccf6038	0.025314435
49	0x3d060939	0.03272364
50	0x3b8345d0	0.004006125
51	0xbc116c2c	-0.008875888
52	0x3d0851d5	0.033281166
53	0x3bd30414	0.006439695
54	0xbb6a4f9d	-0.003575302
55	0xbcde6dc6	-0.027151953
56	0x3c812910	0.01576665
57	0x3cdaa2a0	0.026688874
58	0xbcdc4398	-0.0268877
59	0x3ce3565d	0.027751142
60	0x3cc41b3f	0.023938773
61	0xba2c743c	-0.00065785996
62	0xbc9d9701	-0.019237043
63	0xbca815ba	-0.020518173
64	0xbc8e9760	-0.017406166
65	0x3b5096af	0.0031828096
66	0x3c3e2a2d	0.011606735
67	0xbcf1dfcf	-0.029525666
68	0x3b393e4c	0.0028265892
69	0xbd0e5478	-0.034748524
70	0x3cbe5ac2	0.023236636
71	0x3bf96ff5	0.0076122233
72	0xbc20124a	-0.009769985
73	0x3caec15d	0.021332437
74	0x3b18e0bd	0.0023327314
75	0x3be06afe	0.006848692
76	0x3caf02e4	0.021363683
77	0xbc4f15fb	-0.012639518
78	0x3d068c32	0.032848544
79	0xbc84d678	-0.016215548
80	0x3d081e18	0.033231825
81	0x3cb53c11	0.022123368
82	0x3bd5fec2	0.0065306136
83	0x3cfcd75b	0.030864408
84	0x3ce2732e	0.027642813
85	0x3b2f21c6	0.0026723011
86	0xbc08f5de	-0.008359401
87	0x3d0e83ee	0.034793787
88	0x3c814e67	0.015784455
89	0x3c2e55db	0.010640587
90	0x3c80252e	0.015642729
91	0xbcb81351	-0.022470148
92	0xbcb81521	-0.022471013
93	0xbb2e2053	-0.002656956
94	0xbbf2b823	-0.0074072047
95	0xbc74970f	-0.014928593
96	0xbcc78a5a	-0.024357963
97	0x3c3a84b8	0.011384182
98	0x3ad6aebc	0.0016378979
99	0x3ce25efc	0.027633183
100	0x3cc9c6d7	0.024630947
101	0x3c31185e	0.010809032
102	0xbcd7dcc1	-0.02635038
103	0x3d13f18c	0.03611903
104	0xbcc80ad2	-0.024419222
105	0xbc8d8176	-0.017273646
106	0xbc72faa4	-0.014830265
107	0xbd00a9a3	-0.03141178
108	0x3c7860f9	0.015159839
109	0xbc0a2c0a	-0.008433351
110	0x3c87a9c4	0.016560443
111	0xbc11b564	-0.008893345
112	0xbccaca3f	-0.024754642
113	0xbc7045da	-0.014665091
114	0xbcf45c7d	-0.029829258
115	0xbc77eb47	-0.015131778
116	0x3cf5aca9	0.029989557
117	0x388eddff	6.812438e-05
118	0x3c3b413c	0.011429127
119	0xbca933cf	-0.020654587
120	0xbd00c5e9	-0.03143874
121	0xbc61396d	-0.0137466015
122	0xbd13e180	-0.036103725
123	0x3ca5cb31	0.02023849
124	0xbc86b80e	-0.016445186
125	0x3cc12743	0.023578292
126	0xbcf1216a	-0.029434878
127	0xbc0a677b	-0.008447523

weight f4 [64, 128]
0	0xbd677c87	-0.056515243
1	0xbd23fa2a	-0.040033497
2	0xbda189d8	-0.0788762
3	0x3d458923	0.048226487
4	0xbbad663b	-0.005291728
5	0x3d3cc1b6	0.046083175
6	0xbd1058d4	-0.035240963
7	0xbd2aace6	-0.041668795
8	0x3b61f6fe	0.0034479494
9	0x3d6a3b5d	0.05718552
10	0xbc37f910	-0.011228815
11	0x3dabe709	0.08393676
12	0x3c5ab54a	0.013348887
13	0xbc885e71	-0.016646596
14	0xbca5cede	-0.020240244
15	0xba3b8f79	-0.0007154863
16	0x3d9fce92	0.07803072
17	0x3db24fca	0.08706625
18	0xbcd8c3e9	-0.026460605
19	0xbaa12a21	-0.0012295881
20	0x3d94f738	0.07273716
21	0x3d2ad226	0.04170432
22	0xbd101023	-0.03517164
23	0xbcb10027	-0.021606518
24	0xbc08988a	-0.008337149
25	0xbcb59e0d	-0.022170091
26	0xbd0126ca	-0.031531133
27	0xbd496386	-0.04916718
28	0xbd925afd	-0.07146261
29	0xbccb40d3	-0.024811184
30	0x3d6f8442	0.05847574
31	0xbcd028fb	-0.025410166
32	0xbd24be3b	-0.04022048
33	0xb9e54be7	-0.00043734835
34	0x3c87c6e8	0.016574338
35	0xbbeb42a4	-0.007179575
36	0x3c7b3e0b	0.015334616
37	0x3d0f53b8	0.03499195
38	0xba8dd0ff	-0.0010819732
39	0x3cfcf0c8	0.030876532
40	0x399776b1	0.00028889396
41	0x3d726e8f	0.05918747
42	0x3d8a8d24	0.06765202
43	0x3d32a380	0.043612957
44	0x3d770522	0.06030763
45	0xbd23e5e1	-0.04001415
46	0x3d8b6bd6	0.068076774
47	0xbd8ae48d	-0.06781874
48	0xbc38aa4d	-0.011271072
49	0xbcfe065a	-0.031008888
50	0x3d9e6754	0.07734552
51	0x3d95bd26	0.07311468
52	0x3ce67201	0.028130533
53	0xbd94cbb0	-0.07265413
54	0x3baf65fa	0.0053527327
55	0x3d379261	0.044817332
56	0x3d2ace6e	0.041700773
57	0xbdaf3d0f	-0.08556568
58	0xbb8f24b8	-0.004368391
59	0x3d421a61	0.047388438
60	0xbda3d02c	-0.0799869
61	0x3c3865e4	0.011254761
62	0x3da23b60	0.07921481
63	0x3d9f26ca	0.0777107
64	0x3db14937	0.08656543
65	0xbcdc9bb9	-0.026929723
66	0x3d9019d5	0.07036177
67	0xbdae2baa	-0.08504422
68	0x3d8c5851	0.068527825
69	0x3bdac6cb	0.00667653
70	0x3d85be69	0.065304585
71	0x3c99cf30	0.018775553
72	0xbd0eb0b1	-0.034836475
73	0xbd8ca8a0	-0.068681
74	0xbc7cd0c9	-0.015430638
75	0xbced3ca3	-0.028959578
76	0x3d78bb9b	0.06072579
77	0x3ce17551	0.027521761
78	0x3d4a4b83	0.04938842
79	0xbc6f4996	-0.014604947
80	0x3d5a0873	0.053230714
81	0xbcc9fd1d	-0.024656827
82	0xbd76e90f	-0.060280856
83	0x3d59289c	0.053017244
84	0x3d5f7a9d	0.054560293
85	0xbd80673f	-0.06269693
86	0x3d0bdbfb	0.034145337
87	0xbd36803b	-0.044555884
88	0xbd5f1dc8	-0.05447176
89	0xbdac3dba	-0.08410211
90	0x3c63ec2d	0.013911289
91	0x3d0a202b	0.033722084
92	0x3ca1d81d	0.019756371
93	0x3d740c21	0.05958188
94	0xbc96e1b0	-0.018418163
95	0xbd27b5ee	-0.040944986
96	0x3d9ccb41	0.07655955
97	0xbda6478c	-0.08119115
98	0xbcb54287	-0.02212645
99	0xbcc4ffaf	-0.0240477
100	0x3d95c34a	0.07312639
101	0xbd921b47	-0.07134109
102	0xbcf0e265	-0.029404828
103	0xbd24f3f3	-0.04027171
104	0xbb8bc134	-0.004264975
105	0x3c8caac8	0.017171279
106	0xbce356a1	-0.027751269
107	0x3d344fe0	0.044021487
108	0x3db20850	0.08692992
109	0xbd85452a	-0.065073326
110	0xbcdbc97c	-0.026829474
111	0xbc93f83d	-0.018062705
112	0xbd96dd1b	-0.07366391
113	0xbd4e63bf	-0.050388094
114	0x3d74358d	0.059621383
115	0x3d711d02	0.058865555
116	0x3d27a8ed	0.040932585
117	0xbd0f96fd	-0.035056103
118	0xbd9d9978	-0.076952875
119	0x3d9a5c80	0.07537174
120	0xbda40410	-0.08008587
121	0xbdabc0f7	-0.083864145
122	0xbd437359	-0.047717426
123	0x3d91e56c	0.07123837
124	0x3db4780d	0.0881196
125	0xbda6c2a8	-0.081425965
126	0xbd3189ad	-0.04334419
127	0x3d59aeee	0.05314534
128	0x3d73306c	0.05937235
129	0x3d7b7edd	0.061400283
130	0xbb9b88bb	-0.004746524
131	0x3da1ef74	0.07907
132	0xbd4da5f8	-0.05020711
133	0x3d65db73	0.056117486
134	0x3d6ebebf	0.05828738
135	0xbceb73b9	-0.028741704
136	0xbd124d73	-0.035718393
137	0xbb48bab1	-0.0030628855
138	0x3d982850	0.07429564
139	0xbd85d6eb	-0.06535133
140	0xbd8ea7e1	-0.06965614
141	0xbd549bd3	-0.051906418
142	0xbda97f32	-0.08276214
143	0x3c772501	0.015084506
144	0x3daa2c9f	0.08309292
145	0x3c88d0fa	0.01670121
146	0xbda57906	-0.08079724
147	0xbdaf9d32	-0.085749045
148	0xbd239e55	-0.03994592
149	0xbd739872	-0.059471555
150	0xbdb4750d	-0.08811388
151	0xbd990fe6	-0.074737355
152	0x3d0b4f68	0.034011275
153	0xbd9e424b	-0.07727488
154	0x3c46e784	0.012140159
155	0xbd76932f	-0.06019896
156	0x3d7caf25	0.06169047
157	0x3d827ebc	0.06371829
158	0x3c110ab7	0.008852652
159	0x3da0a8f7	0.078447275
160	0xbd4af99d	-0.049554456
161	0xbd947f55	-0.07250849
162	0xbc5425f5	-0.012948503
163	0xbd0d5585	-0.034505386
164	0x3d6e5362	0.05818499
165	0xbd644f3e	-0.055739634
166	0x3d8e8b62	0.06960179
167	0xbb527c39	-0.00321175
168	0xbd2a4e73	-0.04157872
169	0xbb8dae5f	-0.004323765
170	0x3d5a3738	0.053275317
171	0xbd2fd508	-0.04292777
172	0x3d714adc	0.058909282
173	0x3cd40dba	0.025885452
174	0xbd9680d1	-0.073487885
175	0x3d635f26	0.055510662
176	0x3d07f664	0.03319396
177	0xbd9ecfac	-0.07754454
178	0xbcd152bf	-0.025552152
179	0x3d870583	0.06592848
180	0xbc83b153	-0.016075766
181	0xbd305ba0	-0.04305613
182	0xbd1baf0d	-0.03800874
183	0xbc9a93dc	-0.018869333
184	0xbd10629d	-0.035250295
185	0xbcc58bcb	-0.02411451
186	0xbd2b23a1	-0.041782025
187	0x3a89ac78	0.001050367
188	0x3d04f7c3	0.032462846
189	0x3cae363f	0.0212661
190	0xbd9dab39	-0.07698674
191	0xbca52d67	-0.020163251
192	0x3d932326	0.071844384
193	0xbc99bf03	-0.01876784
194	0xbd88bebb	-0.06677004
195	0x3bd28e33	0.006425643
196	0x3d2a36ed	0.041556288
197	0x3d9395ac	0.07206282
198	0x3d9ef340	0.0776124
199	0xbda49cdc	-0.08037731
200	0x3d634845	0.055488843
201	0xbd9f008c	-0.07763776
202	0x3d18edb5	0.03733607
203	0x3c66802e	0.014068646
204	0x3c4ea1b6	0.012611797
205	0x3dab9d74	0.08379641
206	0x3bf86e58	0.0075815134
207	0xbdabaa96	-0.08382146
208	0xbd1e81e2	-0.038698085
209	0xbdb08198	-0.08618468
210	0x3c846ae0	0.016164243
211	0x3bd0baf5	0.0063699433
212	0xbc8eae53	-0.017417109
213	0xbbbca9f8	-0.0057575665
214	0xbdabdf10	-0.08392155
215	0x3da6d602	0.081462875
216	0x3d834f48	0.06411606
217	0x3d9022e5	0.070379056
218	0x3d7fd34c	0.062457368
219	0xbd7eb8db	-0.06218801
220	0xbda359db	-0.07976123
221	0xbce06cce	-0.027395632
222	0xbd930ae9	-0.07179815
223	0x3d1a1283	0.03761531
224	0x3d09cf69	0.033645067
225	0x3a2160ae	0.0006156069
226	0xbd445e71	-0.04794163
227	0xbd2bb37b	-0.041919213
228	0x3cd0986d	0.025463307
229	0x3d81d437	0.06339305
230	0x3ce79a68	0.028271869
231	0x3d2cb235	0.04216214
232	0x3da19cb7	0.07891219
233	0x3daf04d0	0.0854584
234	0xbd851de9	-0.064998455
235	0xbd316567	-0.043309595
236	0xbc99b014	-0.018760718
237	0xbd7de2d6	-0.061983906
238	0x3da29718	0.07938975
239	0x3c931133	0.017952537
240	0xbda9d787	-0.08293062
241	0xbd4ae51c	-0.049534902
242	0x3d93f4cc	0.07224426
243	0x3d5d10d5	0.05397113
244	0xbce29d31	-0.027662845
245	0x3d943f14	0.07238594
246	0xbd08a385	-0.03335907
247	0x3d102e72	0.035200544
248	0x3b38a107	0.0028172152
249	0x3d75bd80	0.059995174
250	0x3da8ff86	0.08251862
251	0xbd9f5494	-0.07779804
252	0xbd66c071	-0.05633587
253	0x3d888079	0.06665129
254	0x3d3c9882	0.04604388
255	0x3d0cbc33	0.03435917

bias f4 [64]
0	0xbcca5a6c	-0.02470132
1	0x3c52c3c5	0.012864058
2	0xbc6b897f	-0.014376043
3	0x3c960646	0.018313538
4	0x3dacd4e1	0.08439041
5	0xbd9ca535	-0.07648698
6	0xbd6d395f	-0.05791604
7	0xbb871113	-0.0041219085
8	0x3d066e7e	0.032820217
9	0x3d895ad8	0.0670678
10	0x3c930b77	0.017949803
11	0xbc88cd3e	-0.01669943
12	0x3cd54575	0.026034096
13	0xbd68cc5b	-0.056835514
14	0x3db32311	0.08746923
15	0x3d586d96	0.052838884
16	0xbd8abdb4	-0.06774464
17	0xbd7b00c7	-0.06128004
18	0xbad26d17	-0.001605424
19	0x3d2f49b6	0.042794906
20	0xbda10d4f	-0.078638665
21	0xbd29477f	-0.04132795
22	0xbd06e124	-0.032929555
23	0x3b81a25b	0.003956122
24	0xbd6217b9	-0.055198405
25	0x3da9f0c1	0.08297873
26	0x3c7e0f3e	0.015506564
27	0x3d212ead	0.039351154
28	0xbd4b1f57	-0.049590435
29	0xbc70818e	-0.014679326
30	0x3d725e8e	0.059172206
31	0xba95626b	-0.0011397129
32	0x3c27728e	0.010220183
33	0xbda2b9e0	-0.07945609
34	0xbcd8429c	-0.02639895
35	0xbd7e6ae2	-0.06211365
36	0xbc9c7827	-0.019100262
37	0xbc6ba012	-0.014381425
38	0xbcf339f7	-0.029690726
39	0xbd84461c	-0.06458685
40	0x3d14b762	0.0363077
41	0x3b7a5d14	0.0038202452
42	0xbca71462	-0.020395461
43	0x3d426f7b	0.047469597
44	0xbccc032d	-0.024903858
45	0xbd44c2f3	-0.04803748
46	0x3da09371	0.07840622
47	0x3d888dbc	0.06667659
48	0xbbfb4b58	-0.007668894
49	0x3da89df8	0.08233255
50	0xbd7ad30f	-0.061236437
51	0x3d776907	0.060402896
52	0x3c62e025	0.0138473855
53	0x3ce133f9	0.027490603
54	0xbd2df853	-0.04247315
55	0x3d8e675e	0.069533095
56	0xbd83608c	-0.06414899
57	0x3cf43854	0.029812016
58	0x3cb84afc	0.022496693
59	0xbd1a1533	-0.037617873
60	0xbd7003f1	-0.05859751
61	0x3cf0080a	0.029300708
62	0xbd5a9bed	-0.05337136
63	0x3d2eb8af	0.042656597

weight f4 [10, 64]
0	0x3dc2a4ab	0.09504064
1	0xbde852f1	-0.11343945
2	0x3c735509	0.014851817
3	0x3c5c1895	0.013433595
4	0x3cf7ca44	0.030247815
5	0xbc4651a1	-0.012104423
6	0xbdf6ca18	-0.12050265
7	0xbd54092a	-0.051766552
8	0xbd97c2a1	-0.074101694
9	0xbdd3088f	-0.10304367
10	0x3ce7563a	0.028239358
11	0x3d8571f5	0.06515876
12	0xbd5ee42f	-0.05441683
13	0xbdef3186	-0.11679368
14	0x3c69205f	0.014228909
15	0xbdbe4225	-0.0928996
16	0x3d64493e	0.05573391
17	0x3dc09f59	0.09405393
18	0xbdfc025b	-0.12305137
19	0xbd0e168a	-0.034689464
20	0x3dced5dd	0.10099385
21	0xbd609043	-0.05482508
22	0xbd8c7dc8	-0.06859928
23	0x3def8cc6	0.11696772
24	0xbc9539c1	-0.018216016
25	0x3debdb69	0.115164585
26	0x3dcfaba2	0.10140158
27	0x3cdc9e3f	0.026930926
28	0x3b10a97b	0.0022073674
29	0xbd701bca	-0.05862025
30	0xbde6e6a6	-0.112744614
31	0xbda2e32e	-0.07953487
32	0xbddb5d25	-0.10711125
33	0xbdcdb033	-0.10043373
34	0x3dc50536	0.096201345
35	0xbd8e01d1	-0.0693394
36	0xbd8a1e59	-0.067440696
37	0xbcc98b00	-0.024602413
38	0xbdbf0357	-0.09326809
39	0x3d7e0e48	0.06202534
40	0x3ca53d61	0.02017087
41	0x3dc9c6d8	0.098523796
42	0xbdff1d68	-0.12456781
43	0xbc1eea55	-0.009699424
44	0x3d38848b	0.045048278
45	0x3dc2d666	0.095135495
46	0xba421b20	-0.00074045546
47	0xbd57a086	-0.05264332
48	0x3da78f50	0.081816316
49	0x3ce73ec7	0.028228177
50	0x3ddd44e0	0.108041525
51	0x3dc6e0ad	0.09710822
52	0x3dbb8a6b	0.091572605
53	0x3d14d231	0.036333267
54	0xbdd77149	-0.10519654
55	0x3dad2ddc	0.084560126
56	0xbde70d0f	-0.112817876
57	0x3ce42cf1	0.027853461
58	0xbda571b9	-0.080783315
59	0xbc49112b	-0.01227216
60	0x3daa78a7	0.08323794
61	0xbc956633	-0.018237209
62	0xbdece872	-0.11567773
63	0x3dbb510b	0.09146317
64	0x3db1a4e7	0.08674031
65	0xbd2f2aa7	-0.042765286
66	0x3d144c1d	0.0362054
67	0xbdca206e	-0.09869467
68	0x3d9685cb	0.07349738
69	0x3c28134b	0.010258506
70	0xbd668c39	-0.05628607
71	0x3ddaeb0c	0.10689363
72	0xbdf53a00	-0.11973953
73	0x3db6d491	0.089272626
74	0xbd806b56	-0.06270473
75	0x3d95f1cf	0.07321512
76	0xbdb5843d	-0.08863113
77	0xbdaa46f7	-0.08314317
78	0x3d20fa8d	0.039301444
79	0x3c171ba3	0.009222898
80	0x3d3d7231	0.04625148
81	0x3de940e8	0.11389333
82	0x3ba1a525	0.004933017
83	0xbde9b619	-0.114116855
84	0x3bd398be	0.0064574173
85	0x399cccfc	0.00029907364
86	0xbd8b0bf8	-0.06789392
87	0x3dc75e86	0.09734826
88	0xbd83b092	-0.064301625
89	0xbba1faae	-0.0049432134
90	0x3dd4e00d	0.10394297
91	0xbd93ad8d	-0.072108366
92	0x3c8f7021	0.017509522
93	0x3dc6412b	0.096803986
94	0xbd7e5a1e	-0.06209766
95	0x3dec2ce7	0.11532002
96	0xbd1aa310	-0.037753165
97	0x3cf5e0af	0.030014364
98	0xbdf76735	-0.12080232
99	0xbd4b590d	-0.049645472
100	0x3daae7bc	0.08344981
101	0xbd806635	-0.062694944
102	0xbd80e443	-0.062935375
103	0xbc52d090	-0.012867108
104	0x3de9fdba	0.114253476
105	0xbd60b740	-0.05486226
106	0xbdfcca61	-0.12343288
107	0xbd236cdc	-0.03989874
108	0xbc85744e	-0.01629081
109	0x3dc59609	0.096477576
110	0x3cc318e9	0.023815589
111	0xbd50957d	-0.050923813
112	0x3dfcc118	0.12341517
113	0xbd738976	-0.059457265
114	0xbd772389	-0.060336623
115	0x3dc6b3e1	0.09702278
116	0xbd68bc11	-0.05681998
117	0xbc82a3f7	-0.015947325
118	0x3d9371e8	0.0719946
119	0x3cbb5536	0.02286778
120	0xbd45b7e6	-0.048271082
121	0x3d82ba2f	0.06383168
122	0xbddcae4b	-0.10775431
123	0xbd942bab	-0.072348915
124	0xbdd1d908	-0.102464736
125	0x3de3d462	0.11124493
126	0x3df3b6e5	0.11900119
127	0x3c6f4086	0.014602786
128	0xbd817466	-0.06321029
129	0xbd186827	-0.037208702
130	0xbd2caab7	-0.042154994
131	0xbcd43134	-0.025902368
132	0xba7a04c2	-0.0009537452
133	0x3de582ec	0.11206612
134	0xbd853695	-0.06504551
135	0x3de06e3a	0.10958524
136	0x3d8ff095	0.07028309
137	0xbdc08adb	-0.094014846
138	0x3cac8456	0.021059196
139	0xbb75c864	-0.0037503475
140	0x3dd519dc	0.10405323
141	0x3dbc453e	0.091928944
142	0x3dfe3514	0.124124676
143	0xbb9fedcc	-0.0048806425
144	0x3bcc5c09	0.0062365574
145	0x3d1dcf97	0.03852805
146	0x3d958156	0.073000595
147	0x3dfc1899	0.12309379
148	0xbd377c57	-0.044796314
149	0x3dde589f	0.10856747
150	0x3c79e5b2	0.015252518
151	0x3dc59555	0.096476234
152	0xbda75952	-0.081713334
153	0xbda856e0	-0.08219695
154	0xbdc2840c	-0.09497842
155	0x3b1e254f	0.0024131124
156	0x3c602b8e	0.013682259
157	0xbdd95545	-0.10611967
158	0xbc8a0339	-0.01684724
159	0xbd8871a6	-0.06662302
160	0xbc0cd9da	-0.008596862
161	0x3d277872	0.04088635
162	0x3caf1335	0.021371463
163	0xbd6b3cb9	-0.057430957
164	0x3d28e8f0	0.04123777
165	0xbdcc0526	-0.099619195
166	0xbdd0660c	-0.10175714
167	0x3cc2c418	0.023775145
168	0xbdc98bc5	-0.09841112
169	0x3d84292a	0.06453164
170	0xbd1c09b9	-0.03809521
171	0x3d8cbc8d	0.06871901
172	0x3c03266a	0.008004764
173	0xbd6068a3	-0.05478729
174	0x3d86649e	0.0656216
175	0xbdca75a3	-0.09885719
176	0x3ca1703b	0.019706836
177	0xbcfb6111	-0.030685933
178	0x3dd5dbf7	0.104423456
179	0xbdb798ce	-0.08964692
180	0x3de1cecd	0.11025772
181	0x3ce1d502	0.02756739
182	0x3d7e83db	0.062137466
183	0x3dbbbd2c	0.09166941
184	0xbc791ebe	-0.015205083
185	0x3d45da7c	0.048304066
186	0x3d1aebf6	0.037822686
187	0x3df26bf6	0.11836998
188	0xbdd3041b	-0.103035174
189	0xbc2086e0	-0.009797782
190	0xbdeee46e	-0.11664663
191	0x3d3d1bd2	0.04616911
192	0x3d263516	0.04057797
193	0x3be7c8b6	0.007073487
194	0xbddcfd21	-0.10790468
195	0xbde65d00	-0.11248207
196	0xbdbf30b5	-0.09335462
197	0x3dde10c2	0.1084304
198	0x3debc068	0.11511308
199	0xbdfc567a	-0.123211816
200	0xbcd37526	-0.025812697
201	0xbd0cedd6	-0.034406506
202	0xbd07e754	-0.033179596
203	0xbd80a868	-0.06282121
204	0x3da394e4	0.07987383
205	0x3da313dd	0.07962773
206	0x3def63ff	0.116889946
207	0xbc99643b	-0.018724551
208	0x3dc10449	0.094246455
209	0x3cc0c0e4	0.023529477
210	0xbd7049bc	-0.05866407
211	0x3dd26356	0.10272853
212	0x3cdd8f05	0.027045736
213	0x3de10f62	0.10989262
214	0x3cb656a3	0.022258108
215	0xbd7ce293	-0.061739516
216	0x3deccdec	0.11562714
217	0x3defe2b4	0.11713162
218	0x3dfd8990	0.123797536
219	0xbcd914f8	-0.026499256
220	0xbd60b1cc	-0.05485706
221	0x3bd59bc6	0.006518814
222	0xbd598d94	-0.053113535
223	0x3db4c4dd	0.08826611
224	0xbd94f428	-0.072731316
225	0xbd8cd280	-0.06876087
226	0xbd8c9041	-0.06863452
227	0x3d50a069	0.05093423
228	0xbd30659b	-0.04306565
229	0x3ddb810e	0.107179746
230	0x3c92760b	0.017878553
231	0xbdce62fe	-0.10077475
232	0x3db394b4	0.08768597
233	0x3dd9b6d2	0.10630573
234	0x3d98be6d	0.07458196
235	0xbd5e064c	-0.054205224
236	0x3df4aa7d	0.119465806
237	0x3d2f930a	0.042864837
238	0x3c8b20df	0.016983448
239	0x3def8304	0.11694911
240	0x3c539c44	0.012915675
241	0xbad04177	-0.0015888651
242	0x3dd93755	0.10606257
243	0xbdc1ac81	-0.09456731
244	0xbdd84356	-0.10559718
245	0xbcfd3a0b	-0.030911466
246	0x3d8c8408	0.068611205
247	0x3d04f35c	0.032458648
248	0x3d7d18d7	0.061791267
249	0x3c9af3f7	0.01891516
250	0xbbb64a6a	-0.00556307
251	0xbb9c0a12	-0.0047619427
252	0xbdfe3b34	-0.12413636
253	0x3daaeec6	0.08346324
254	0xbd83ce27	-0.06435805
255	0x3dd7167f	0.10502338

bias f4 [10]
0	0x3dcfc86c	0.10145649
1	0x3d030dc9	0.03199557
2	0xbd4d9e83	-0.050199997
3	0x3ddcf64b	0.10789164
4	0x3c90493c	0.017613046
5	0xbd3d56a0	-0.04622519
6	0x3d60dca4	0.05489792
7	0x3ddf9dce	0.10918771
8	0x3ce8a141	0.028397204
9	0x3d335ff6	0.043792687
