s2_Organization_and_version_control/M6 - Code Structure/models/training_model.pt (torch, 439383 bytes, 6 tensors)

fc1.weight f4 [128, 784]
00000000: d8ca 0bbc 23db c1bc 21e1 eebc 2591 ffbc
00000010: 68b9 d43c b296 a43c be29 d73c c0d5 143c
00000020: 104c 593c ce37 e73c f084 673b 4adb 813c
00000030: 800a 4a3d 724a fd3c ba0f d23c 9a3a 08bd
00000040: ee41 043c e80f 9b3c 9f31 18bd 3b2c 573d
00000050: c822 4c3d 9ad6 f73c e3e1 9cbb e0a1 72bb
00000060: 3efd 823c 9437 923c ea0d 2ebc 944d 803c
00000070: 0611 4bbc 5367 04bd b5dd f4bc 607a 31bb
00000080: dc1f 643c d87a 723c d343 8bbc e33e 723d
00000090: e149 8d3d 987b f63d a03a e53d 3f49 46bd
000000a0: 002c 433d 9be9 873d 7753 363d ff36 bc3d
000000b0: a102 913d 4719 2f3d 54bd 6cbc a14a 863e
000000c0: ce32 783e 28bc 653e aa53 913d 6068 473c
000000d0: dfd7 843d 3a88 a6bc fa0c f73c 1e49 84bc
000000e0: 80bb 48ba 0003 c8bc 9ee8 05bd e0d7 caba
000000f0: b974 21bc 032b 663d 15be 21bb 6386 b33c
00000100: d4eb 443d 3199 c03d f813 1a3e df7a 3a3e
00000110: 4c45 603d 9060 b33d ab5b 343d 1cdd d93d
00000120: 6971 2a3e 0bf1 963e 9ef9 a93e 00cf d53e
00000130: 474c ce3e 294f 023f 8794 c83e 295b 9cbd
00000140: 70a7 41bd a509 fb3b 585d 47bc b0fa e93b
00000150: 40f6 a03b 794e 0b3d bce5 afbc d3dc fbbc
00000160: b3da dbbd 2f95 f73d 818f d2bc 7a26 1bbc
00000170: 2b50 bebc 9b79 c33a e231 37bd 824b 20bd
00000180: 6c83 923d a2dc 0fbe bb40 7c3d ef37 653e
00000190: ed11 9b3e 8f8a 1f3e 627b 243e 23e2 053e
000001a0: 51d9 403e d629 da3e c522 9b3e 2fec 0b3d
000001b0: 8cfa 1e3c 2dfc 213e fcf1 36bc 78e1 bb3b
000001c0: 0491 5d3c 2513 bfbc 3c6f 23bc e573 933d
000001d0: 4a03 793d f3c7 8ebd 195e 48be 9b74 15be
000001e0: dc02 01be f770 6fbc d44c 87bd 56d0 4abe
000001f0: 919b 86be 2ea1 7bbe c99f 37b9 adbd 6e3e
00000200: 8ac7 913e cdba b23d ac2b fb3d 9660 1c3e
00000210: 2481 a63d d34d 823e f28c 803e f374 093c
00000220: e574 833e 0c09 f93c 2d26 c23d 8122 573c
00000230: 58cb d53c 9e41 b6bc 56f1 19bc f271 923d
00000240: 78a7 493e c0d3 823e 6b36 a43b b462 313d
00000250: 41fe 913b 0ab0 13bc 4374 08be ed25 cfbe
00000260: 62e9 d6be 450e 8fbe 1a61 95bd 9718 a83d
00000270: 2ba2 5e3e 2422 c33d 6850 ce3d f00d d03d
00000280: b550 003e f399 4f3e e394 db3e e668 e43e
00000290: fef1 9a3e e9fa 183d 5d56 fd3d ff65 aa3d
000002a0: 20bc 703b ffc0 2cbc 456a ad3c 947c 8a3d
000002b0: 5ec9 143e b39e 0a3e 2277 9c3c 2ac6 413d
000002c0: a8a2 5cbc 161e a4bd 9677 9ebe 9046 0abf
000002d0: 4016 d6be 726a a6be a185 2dbd 0be4 b43c
000002e0: 3ac1 c4bd 5afb 67ba 05b0 113e 93d2 2f3e
000002f0: 5d3e 6a3e 99b6 ea3d c100 243e 5e0b 333e
00000300: e538 d93e 79c0 083e 0b83 f93d 11b4 493a
00000310: 08d9 993b 0b68 9e3d 6fbc ec3b b6e3 563d
00000320: d6ac 413d 81ce 543e 9334 273e a472 263d
00000330: a447 25bd eb1a 4ebd fd44 6ebe d607 13bf
00000340: 5f41 00bf ab47 7cbe dd3e 0dbe ab57 24be
00000350: 8c3d 11be d496 19be 4e60 a43d c073 9a3d
00000360: 994b 353d 4134 dd3c cb4f b3ba 5ecc 163e
00000370: bec3 793e 688b 7d3e a677 553e e3d4 193d
00000380: 27ce 623c ce8b 013d 84b7 ea3d 0d48 f8bc
00000390: 1e3a 243e 5210 0a3e 17fd 243e 84d8 983d
000003a0: 6593 1b3e 1fc1 4f3d 0274 94be aec5 dfbe
000003b0: 8569 bcbe 546f f6bd 8da9 d5bc e1ee 11bd
000003c0: 1ad1 41be eb48 24be 3f74 bf3b 220f ac3d
000003d0: ace9 1f3e fb90 e23d e050 303e 0b66 eabb
000003e0: a3c7 463e 9964 5d3e 592f 123e eaa6 b63d
000003f0: 94bd 2d3d fbe0 c33d f16f 123d 0588 07bd
-0.008532248 -0.023664063 -0.029160084 -0.03119714 0.025967315 0.020091388 0.026265021 0.009084165
0.013262764 0.028224852 0.003532704 0.015851635 0.04932642 0.030919287 0.025642265 -0.03325901
0.0080723595 0.018928483 -0.037156697 0.052532416 0.049837857 0.030253697 -0.00478767 -0.0037022755
0.015989896 0.017848767 -0.010623435 0.015661992 -0.012394195 -0.0323251 -0.029890874 -0.0027080998
0.0139236115 0.014799796 -0.017000115 0.059142005 0.06898857 0.120352924 0.111928225 -0.048409697
0.047649384 0.066363536 0.044513192 0.09190177 0.070805795 0.042748716 -0.014449436 0.26228812
0.2423813 0.22435057 0.07096036 0.012170881 0.06486487 -0.02032863 0.030157555 -0.016148146
-0.0007657334 -0.024415493 -0.032692544 -0.0015475713 -0.009854489 0.056193363 -0.0024679948 0.021914667
0.048076466 0.09404219 0.1504668 0.18210934 0.054753587 0.08758652 0.044032734 0.106378764
0.16644825 0.29480776 0.33198255 0.4175949 0.4029257 0.5090204 0.39175817 -0.07634575
-0.04727882 0.007661062 -0.012168251 0.00714048 0.004912168 0.034010384 -0.02147185 -0.030744946
-0.10735073 0.120890014 -0.025703194 -0.009469623 -0.023231586 0.0014913561 -0.044725306 -0.03913451
0.07153973 -0.14049008 0.06158517 0.22384618 0.30287114 0.155802 0.16062692 0.13074546
0.188329 0.42610043 0.30299965 0.03416079 0.00970329 0.15818854 -0.011166092 0.005733665
0.013523344 -0.023324559 -0.009975251 0.071998395 0.060794152 -0.06971731 -0.19567145 -0.14595263
-0.12598747 -0.014614335 -0.06606451 -0.19806036 -0.26290563 -0.24573204 -0.00017511765 0.23314543
0.2847255 0.08727036 0.12264189 0.1527122 0.081301 0.2545 0.25107533 0.008389699
0.2567512 0.030399822 0.09479938 0.013130785 0.026097938 -0.022248086 -0.009395918 0.071506396
0.1969279 0.25552177 0.00501137 0.04330702 0.0044553583 -0.009014139 -0.133256 -0.40458623
-0.41974932 -0.27940574 -0.07293911 0.08207815 0.2174155 0.09527996 0.1007393 0.10158908
0.12530787 0.2027357 0.4288703 0.4461128 0.3026275 0.03734866 0.12369988 0.083202355
0.0036733225 -0.010544061 0.021168837 0.06762043 0.1452994 0.13537101 0.019099776 0.047308125
-0.013466515 -0.08013551 -0.30950612 -0.5401392 -0.4181385 -0.32503086 -0.042363767 0.022081396
-0.096071675 -0.0008849405 0.14227302 0.17170171 0.22875352 0.11460609 0.16015913 0.17484805
0.4242622 0.13354672 0.121831976 0.00076943735 0.0046950616 0.07734688 0.0072246115 0.052463256
0.04728397 0.207819 0.16328649 0.040636674 -0.040351525 -0.05031864 -0.23268504 -0.5743383
-0.5009975 -0.24636714 -0.13793512 -0.16049068 -0.14183635 -0.14998943 0.08026181 0.07541609
0.04426155 0.027002456 -0.0013680396 0.14726397 0.24391076 0.2476021 0.20846424 0.03755654
0.013843096 0.03162747 0.11460784 -0.030307794 0.16037795 0.13482788 0.16112171 0.07463172
0.15192945 0.050721284 -0.28994757 -0.43705505 -0.36799255 -0.12032953 -0.026081825 -0.035628203
-0.18927422 -0.16043441 0.005842715 0.08401324 0.15616482 0.11062809 0.17218351 -0.0071532778
0.19412093 0.21620406 0.14275874 0.08918555 0.042417124 0.09564396 0.035751287 -0.033088703

fc1.bias f4 [128]
00000000: 2190 9d3d 1404 e63d 27b4 14bd 5850 123d
00000010: 321d 523e e8a4 2d3e a8cb 45bc df0e c23d
00000020: 4cf3 e8bd 93c2 fd3d c8c7 bfbd 109d bbbc
00000030: acf5 20bb eba4 fdbc 95a3 70bd 6c28 8e3d
00000040: a7f4 c03c 7a6f 3dbd 55c7 abbd 6493 08bd
00000050: 241a 98bc 4b04 8c3d 0e0f 10bd 8969 313d
00000060: 0935 c3bc 2b1a ff3d 2c20 2abd 9ade 18bc
00000070: d61b fdbc 4a49 1d3e ca84 91be c46f 5ebe
00000080: ad01 b5bd 97ef 3f3d 2df5 4abd ed1b c6bd
00000090: d4fa 8dbd b870 04be 8ab9 4dbe 8a63 893d
000000a0: 3de9 7cbd d1b7 3a3d 359e c93d c670 183e
000000b0: 7c84 933d 9632 8e3c 2c77 d7bd 8f79 9bbd
000000c0: 0413 a7bd f071 87bd a4cf 383e 3ca1 a9bd
000000d0: 57b6 6f3b dd7a 2b3d de38 10be 8ab4 bdbd
000000e0: 2b44 08bd 7b40 183b 3f3f 2f3e 2b29 f23c
000000f0: 33e9 0a3e 43e3 223e 4193 d83d 73bb 57bd
00000100: 06c8 a8bd e8cc 933d 6f7c b93d 85ff a1ba
00000110: 4724 6fbc 349d 873c b0fd 0dbc 41cc 543d
00000120: 4d01 8f3b 045c b5ba 81b6 bbbd 0a01 81bb
00000130: 2c39 95bd 2169 94bc 9e0a 8ebb 67df 0bbd
00000140: bf3a dcbc 1bec cc3d 2f1a 88bd f8a0 15be
00000150: 6f5e 9cbc 1ecf 843d 10f9 a2bd 6f11 0cbd
00000160: ef31 a43d d4a2 c23c 1a46 a13d 5206 5e3c
00000170: 1347 1cbd 23f0 933d 8465 2f3e b7c3 053e
00000180: 3e5b 4ebe 07f8 b33c cd19 fdbd ece5 1dbe
00000190: 22c4 293d b2be 75bc 9e3a c43d 32e5 d1bd
000001a0: d661 89be f0cd 0f3e 5aff 3dbe fec8 1bbd
000001b0: d047 b63d 7a7a 90bc 4d47 2c3e 4f0c 64be
000001c0: 022c 39bd 260b 27be a288 333e fd80 183c
000001d0: eb56 b03d 86d0 a2bd 2dea ad3d 84d0 b1bc
000001e0: 293d 183e 0d2a 1ebe 1d1d cabb 5aec a9bb
000001f0: bb2b 163e f0ee 303c 6426 963d e9c7 62bd
0.07693506 0.112312466 -0.03630462 0.035721153 0.2051895 0.16957438 -0.012072481 0.09475493
-0.1137453 0.12390628 -0.09364277 -0.022902042 -0.0024560494 -0.030962428 -0.058749754 0.069413036
0.02355416 -0.04624889 -0.08387629 -0.033343688 -0.018567152 0.06836756 -0.035170607 0.043313537
-0.023829 0.12456163 -0.041534588 -0.009330416 -0.030897062 0.15359989 -0.28421623 -0.21722323
-0.0883821 0.04685935 -0.049550224 -0.09673295 -0.06932607 -0.12933624 -0.20090309 0.06708439
-0.06174587 0.045585457 0.09844629 0.1488677 0.07203004 0.017358106 -0.10520777 -0.07591545
-0.08157924 -0.06613529 0.18047959 -0.08282706 0.003657719 0.04186522 -0.14084193 -0.09262951
-0.033268135 0.0023231793 0.1711397 0.029560646 0.13565521 0.15907006 0.105749615 -0.052669
-0.082412764 0.07216817 0.09056937 -0.0012359476 -0.014596052 0.016554452 -0.008666441 0.051952604
0.0043641687 -0.0013836627 -0.09165669 -0.0039368914 -0.07286295 -0.018116536 -0.0043347618 -0.0341486
-0.026883481 0.10005971 -0.06645619 -0.14612186 -0.019087998 0.06484817 -0.07957661 -0.034196313
0.080173366 0.023759283 0.07874699 0.013551312 -0.03815372 0.07223537 0.17128569 0.1306294
-0.20151994 0.021968855 -0.12358437 -0.1541974 0.041446812 -0.014999079 0.09581493 -0.10248794
-0.26832455 0.14043403 -0.1855444 -0.038033478 0.08900416 -0.017636526 0.16824074 -0.2227032
-0.045207985 -0.16312847 0.1753259 0.009308097 0.08610328 -0.07949929 0.08491931 -0.021705873
0.14867081 -0.15445729 -0.0061680214 -0.005185646 0.1466512 0.010799155 0.07331541 -0.05536643

fc2.weight f4 [64, 128]
00000000: c85c 9cbc f6a5 143e 00f9 413d 65ad 0ebe
00000010: a0ee 783d 119e 783d 41f4 9abd 3a04 d23d
00000020: ed78 e3bd 9a0c 7d3e 81c0 533d a42d d83c
00000030: 7d63 d1bd 1b6a adbe bcfb 99bc 2238 32bd
00000040: 7076 0bbd 86c9 453d e9df 553e 80f2 94bd
00000050: b848 39bd b301 7cbc 7beb ab3c dc07 933e
00000060: 9209 0a3c 0cc1 0fbc 653a 9ebe 67b9 9d3d
00000070: dcb6 23bd a4f6 82be 54d8 4fbe 6052 393e
00000080: 18cd 503e 8627 2a3e 295a 8abd 1040 c23d
00000090: a75e 663e d221 2abe 3760 b23d 984e aebe
000000a0: 38c0 9abb 45f8 8d3e fc01 943b 2ad9 953d
000000b0: 78ad 93be fdc3 ad3d a641 093e 5f2e 50be
000000c0: 3019 be3d 2973 5b3d a67d 00be f07f 793c
000000d0: 3808 9e3e 4d5b 81ba 4804 9c3c d5e5 7e3e
000000e0: fa5d 233e b71e cebd 7230 a43e 7e35 04be
000000f0: 22ac 5e3d 2f29 773d 08a2 383e a287 c7bc
00000100: 3fe9 393e cb5e 233d 1b86 813d 13e1 5bbe
00000110: 04ff 873d b4a1 033d c79e 8a3d 61fb 7b3e
00000120: f814 41bd afbe fabc 4d95 9abd c95d b7be
00000130: fbb3 373d 527f 16be 3812 1c3e 1eb8 8ebe
00000140: 4442 80bc 75a8 68be e39a 7abc 69bc 93bd
00000150: 0ee0 82bd 15a9 f3bb 4916 88bc 53c9 1c3e
00000160: c973 a73d b0ae 06bd c9e2 e53d 3682 843e
00000170: aafe 033e ec78 96be eb63 8abd a564 a8bd
00000180: 7b93 dc3c b1d9 833d 1052 7fbe d3ac 823d
00000190: 0911 c3bd 3bb2 a63b 2059 e53d 1f47 763d
000001a0: 8475 4f3d e5fc 663d d4bb 69bd 0fdd 58be
000001b0: c089 4bbe 22d6 f23c 224b e1bc a7e1 86bb
000001c0: cdba 1a3d 9243 7a3e cd4f 83be f2b9 c43d
000001d0: 1717 ef3d a583 5c3e 0c72 46be de9c ea3c
000001e0: cbb7 d8be ba00 c63c a87d 9b3e 2f2d 8a3d
000001f0: 2492 a23d 31eb 2abe 9d5d 96bd 5d95 773c
00000200: 206d 21be 203c 73be aabf 3f3d ab46 a63d
00000210: a31f ab3d 3d90 95be 3566 40bd 6946 00bf
00000220: ed26 953e 9af6 b9be 5dee 89bd 50e9 93bc
00000230: 8403 b43c aed7 c93d e405 f6bc 90c3 44be
00000240: ba2b 88be d041 79be da4b 06be a8ab 263d
00000250: 4b21 aebd c49a a0bd 7d31 aa3d aca5 30bd
00000260: fb9c 913d 7930 3bbe c605 bc3c ae4e 533d
00000270: 6061 e43c 60d0 0dbe a027 0b3e 75a3 b53d
00000280: 87c4 a63d 5e4d 2b3e 8d8d b0bd 303d 883e
00000290: 5314 f2bd 97dc 15be 7aa0 523e 2a27 883c
000002a0: e27e 3fbe 8f33 0fbe 7dac 59bd b471 70be
000002b0: c53b 373e efd7 913e 4dc6 91be 7e86 d53b
000002c0: 6649 71bc 6a5c 193e 61e9 60be 6d7e 1fbe
000002d0: 7fc9 81bd bec0 0abe a65f 873e c5db 703e
000002e0: 557e 88be 6179 44bd 60ed 18bf 10ad 57be
000002f0: cdd6 80bd cbef a0bc 03fa e9be 68a7 83be
00000300: bec9 d8bd 9785 4ebe da9e 84be f87c 18bd
00000310: 6464 5c3e b720 e73d 88f5 7d3c 01fc 79bd
00000320: 4044 273b bcd9 353e 4e46 143d d74b afbd
00000330: a9a4 063c 9c07 29be 1832 1f3b ede2 f23d
00000340: a08e 0f3b 564e b53e 8ad7 15be 690d 29bf
00000350: e088 32bc a9c5 51be 4e92 703d cc3b 18bc
00000360: 73c9 90be 3e92 a1be f4db 81be 1667 20bd
00000370: 8c42 d03c 7b5a a53e 2a65 d2be b5cb 3d3e
00000380: 5c46 273e 6576 a43e a55e 36be 2187 5bbe
00000390: cd69 9fbe 3eef d23c 074b 12be 3608 3a3d
000003a0: 0980 103e 53f6 a83d 69b6 49be 9758 febd
000003b0: fabe 19be cb62 313d 1db9 82be 1fd8 813e
000003c0: edbe d3bd e8d8 b0be fcfd eebb 8730 a23d
000003d0: ae56 11be 8019 633d 3c11 54be d008 51bd
000003e0: 6847 d6be 1148 2b3c 0e34 f4be 1851 1b3e
000003f0: 0b3d d3be 30a6 a6bd 0ca3 09be fdf3 b7bd
-0.01908721 0.14516434 0.047356606 -0.13933332 0.060774446 0.06069762 -0.07566119 0.102547124
-0.11107049 0.24711838 0.051697258 0.02638895 -0.10224054 -0.33870015 -0.018796794 -0.043510564
-0.034048498 0.04828789 0.20886196 -0.07272816 -0.045235366 -0.0153812645 0.02098631 0.28716934
0.008425133 -0.008774053 -0.30903926 0.07701378 -0.03996931 -0.25578797 -0.20297366 0.1809783
0.20390737 0.1661664 -0.06755478 0.09484875 0.22497045 -0.16614464 0.08709758 -0.34044337
-0.0047226213 0.27728477 0.004516838 0.073168114 -0.28843284 0.084846474 0.13403949 -0.20330189
0.09282148 0.053576622 -0.12547931 0.015228257 0.30865645 -0.0009869129 0.01904501 0.24892361
0.15953818 -0.10064452 0.3206821 -0.1291103 0.054363377 0.06034201 0.1803056 -0.024356667
0.18155383 0.039885323 0.06324407 -0.21472578 0.06640437 0.032136634 0.067685656 0.24607612
-0.047139138 -0.030608503 -0.07548008 -0.3581374 0.044849377 -0.14697006 0.15241325 -0.27874845
-0.015656598 -0.22720511 -0.015295717 -0.07213671 -0.06390391 -0.0074359276 -0.016612189 0.15311174
0.08176381 -0.03288144 0.112248965 0.25880593 0.12890115 -0.2938913 -0.06757339 -0.082223214
0.026925793 0.06438006 -0.24933648 0.0638062 -0.095247336 0.0050871647 0.1119864 0.06012642
0.05064918 0.056393523 -0.057063892 -0.21178077 -0.19876766 0.029643122 -0.027501646 -0.0041162553
0.037775803 0.24439839 -0.2564682 0.09605779 0.11674326 0.21534593 -0.19379443 0.028639253
-0.42327723 0.024170268 0.30369306 0.06746899 0.0793803 -0.16691281 -0.07342074 0.015111295
-0.15764284 -0.23753405 0.046813644 0.081189476 0.083556436 -0.29211608 -0.046972472 -0.5010744
0.2913126 -0.36320955 -0.06734917 -0.018055588 0.021974333 0.09855591 -0.030032106 -0.19215226
-0.2659586 -0.24341512 -0.13114873 0.040691048 -0.08502444 -0.07842019 0.083102204 -0.043126747
0.0711002 -0.1828021 0.022951972 0.051588707 0.027878463 -0.1384902 0.13589334 0.088690676
0.08142953 0.16728732 -0.08620749 0.26609182 -0.11820283 -0.1463493 0.2056903 0.016620237
-0.18700746 -0.13984512 -0.053143013 -0.23480874 0.17893894 0.28485057 -0.28471604 0.006516277
-0.014726972 0.1497666 -0.21964027 -0.15575571 -0.063372605 -0.13550088 0.2644016 0.23521335
-0.26658884 -0.04796732 -0.59737206 -0.21062112 -0.0629097 -0.019645592 -0.45698556 -0.25713658
-0.10585354 -0.20168148 -0.25902444 -0.037228554 0.21522671 0.11285537 0.015500434 -0.061031345
0.0025522858 0.1775884 0.03619986 -0.08559387 0.008217969 -0.16506809 0.0024291333 0.11859689
0.002190508 0.35411328 -0.14633003 -0.6603609 -0.010896891 -0.20485558 0.058733277 -0.0092916
-0.28278694 -0.31556886 -0.25363123 -0.03916081 0.025422357 0.32295594 -0.41092807 0.1853474
0.16335434 0.32121578 -0.17809542 -0.21438266 -0.31135407 0.025748845 -0.14286433 0.045417987
0.14111342 0.082501076 -0.1969849 -0.12419241 -0.15014258 0.043307107 -0.25531855 0.253602
-0.103391506 -0.34540486 -0.007293461 0.07919412 -0.14193222 0.05544424 -0.207097 -0.051033795
-0.41851354 0.010454194 -0.47695965 0.15167654 -0.4125751 -0.081371665 -0.13441104 -0.08982084

fc2.bias f4 [64]
00000000: 5f8f 473d 646f b23d a388 cb3d cb91 bf3c
00000010: b228 fa3d 500e 8739 26ff f1bb d672 54bd
00000020: 743f 73bc ba05 553d 90e0 6e3e 1750 5cbc
00000030: 2860 9e3d 749b 903e 0560 333e 92a4 0b3e
00000040: 0f11 b43d 23cd 6e3d 3d12 763e a270 a23d
00000050: 4ae5 e43c 046b 67bd fc6b 903d dbce 413e
00000060: 96b8 423e 0509 92bc c5a4 57bd 5d42 523e
00000070: c4e9 d23d 0102 083d ccfd 3bbe 5f6a 573e
00000080: e9cd 303e 8237 f1bd 1e02 3b3d 9b90 b23d
00000090: 5df2 4f3e fdb4 ebbb 4726 153e e828 173e
000000a0: d00a f43d 4aea 573d 2d5e 593e e9cd abbd
000000b0: 9783 633d 4cd1 1ebe 4e8c b23d 92a3 ef3d
000000c0: d3ca 973d 86bf 90bc a509 97bd d7db f83d
000000d0: 0e4e dcbd 2c34 fbbd 6b93 853d 9a9d 86bd
000000e0: c005 7f3d c442 61bd b30a 473d 7c9d a43d
000000f0: 643b cabd f050 f03d 9c95 213e 31aa 303e
0.048720714 0.08712652 0.09938171 0.02338495 0.12214793 0.0002575987 -0.0073851524 -0.05186733
-0.014846671 0.052007414 0.23327851 -0.013446829 0.07733184 0.282436 0.17517097 0.13636997
0.08792316 0.058301102 0.24030395 0.07931639 0.027941365 -0.056498542 0.070518464 0.18926565
0.19015726 -0.017826566 -0.05264737 0.20533128 0.102984935 0.033205036 -0.18358535 0.21036671
0.17266048 -0.117781654 0.045656316 0.087189876 0.20307298 -0.0071932063 0.14565383 0.14761698
0.11916125 0.05271367 0.21227331 -0.083888836 0.055545416 -0.15509528 0.08718167 0.117011204
0.074117325 -0.01766945 -0.073748864 0.12151306 -0.10757075 -0.1226581 0.06522258 -0.06573029
0.062261343 -0.054995313 0.048594188 0.0803785 -0.09874609 0.117341876 0.15779728 0.17252423

fc3.weight f4 [10, 64]
00000000: 24ea 80be 59cb ffbe 6fc6 453e e22b a8be
00000010: 124f 6abe 5ca0 e13c 01b2 fb3d a25d 543e
00000020: 15c2 f9bd 5220 013e 8a92 493e 300d c7be
00000030: ea8b 8ebe 4a64 e4bd b018 89be e0ff 113d
00000040: aae7 8dbe b61e debe 474b 0abd 6b46 a9be
00000050: ff0d f4be cfe1 b5be 2c0f 413c 57a9 a0be
00000060: c4dd 98be abaf e0bd 26df cd3d 60bd e53d
00000070: 253e e5bd b49e 6d3e c5be 2c3e 1b15 9c3c
00000080: 2cff 01bf b3e6 533e 2844 a03e dc39 edbe
00000090: a85e abbe e763 7c3e 6e54 02be 4de7 13bd
000000a0: 13a1 503e bdea 4b3e 36c3 9d3d cb95 f53b
000000b0: f448 4a3d 1634 623c 13d4 87be 9839 c2be
000000c0: fcd9 a3be e46e 273e dcff 273e 4190 95be
000000d0: 6c5c a4be dc0c 1dbe 996a 77be 4e4d 4f3c
000000e0: 6201 a33b b2b9 093e 5c7c ccbc 41f7 c2be
000000f0: 4f52 1b3e 2506 383e e9d3 d6be eee9 99be
00000100: 2e9a 93be d55f 723e f0d1 cfbe bad5 13bd
00000110: ea79 473d 326a 96bc 279d 17bf d638 20bf
00000120: ae5c c33d 7216 94be b65e dd3c e734 bb3d
00000130: a8d6 cb3d fa1f debe 4d0d 523e 3c0b b5be
00000140: e8bd f53d 18c2 493e 4289 babe 99a3 193e
00000150: b538 273e 1b90 22be 1c00 86be ca18 4f3e
00000160: f90e a43e 5578 a23d 941d c8be f725 16bf
00000170: e835 ac3e c89c 7bbe 94cd f8be cb81 3bbe
00000180: 9e59 893e e87a 19be a176 08be 48ad 9c3d
00000190: c04e 8e3d 5353 94bd 7d1e 5fbe ab14 a5be
000001a0: 8d0f 1b3e fd34 32be 76ac 32be 8134 c5bd
000001b0: 33dd f93d 0786 03bf ee0c 3e3d ba6a c7be
000001c0: 3f4e e0be 6ece 92be 1768 94be 7eab 143e
000001d0: a1c3 713d 40d6 ddbd a5b2 ef3d c1ff 053e
000001e0: 1644 d83d 6bac e1be 9203 d3be 62dd 28bd
000001f0: 9221 d8be 09ba e1be 4f32 e43c c20e 363e
00000200: 7936 29be d31b e9bd f1b6 26be b1a8 613e
00000210: 0ccb 2cbe e6bd b5bc e33d 8a3c aa8d afbd
00000220: 5405 97bd 6490 45be f720 afbc 98b7 a73d
00000230: 2958 e6be 82a6 f7be b607 883d e0d3 ed3d
00000240: 7229 6dbe 22ed 1d3e f42e aabe 1dd1 393e
00000250: 0d46 6b3e 1939 b93d 2cb5 eabe 3f32 b3be
00000260: 74a2 af3d 2fce 873e 75ad 0e3e b92c a3be
00000270: 30ee d2be 7814 14be 8843 653e bea9 41bc
00000280: 6b10 f53d 59eb 3f3e 1fa6 8ebe 0bfc 123e
00000290: ef43 8fbe 43ed 79bb 4167 e1be ae6d aabe
000002a0: c69e c9bd f907 803d eaf6 c7bd 54cc f6bd
000002b0: 62f3 5e3e d3f2 323e a156 4e3c 5f1a 80be
000002c0: 4082 7cbc 4811 a0be e952 4f3e 399f 7fbe
000002d0: 75ae 633e 4019 683b 266e c7bd db17 003d
000002e0: a459 c73c c121 1c3e 4026 6a3d 12e6 70be
000002f0: 8a8e 113e c8ae 083e 89fa 0ebf 1a78 febe
00000300: dacc 813e c2dc 9ebe 7796 a93d 0b67 723e
00000310: f40e 8d3a 032e f43c f2e7 a03c 4ffa 4bbe
00000320: 626e 7c3d a218 d63d 95c7 3b3d 2638 acbe
00000330: f5bb 1bbe 8cce e2be bc97 21be cd85 7f3e
00000340: c82d ed3d 32c2 c8bd 4fe6 f7be d5cc a63c
00000350: b7b5 143e b4b4 1cbe af15 d9be 9a2e 383e
00000360: 35d9 113e 5840 1bbe 3fd7 8b3d 6209 ccbe
00000370: 00b3 cebe fb66 1fbe 430a adbe d41f edbd
00000380: 1d03 43be 49e3 6dbe 14c0 43be 1a63 9c3d
00000390: c34b 413d bdfe f2be 2231 153c 9da3 acbe
000003a0: e075 303e 93bb 5abe 17ac 6ebe f7d6 4e3d
000003b0: 16ea 383e d442 143e 78fb 75be ff98 04bf
000003c0: b3f5 40be 2444 513e d646 aebe 0eca d4be
000003d0: a80d 4f3e e9f1 d63d 839d c23d f769 9fbe
000003e0: 463e 583e 2bd3 38bb 78da d3bd 8844 0d3e
000003f0: 1764 abbe 58d4 2e3e e3ce 423e 9560 19be
-0.25178635 -0.4995983 0.19313978 -0.3284598 -0.22881725 0.027542286 0.12289811 0.20738843
-0.12195221 0.12609985 0.19684806 -0.3887725 -0.2784112 -0.11151941 -0.26776648 0.035644412
-0.27715808 -0.43382806 -0.033763196 -0.33061537 -0.47666928 -0.3552384 0.011783402 -0.31379196
-0.29856694 -0.10971006 0.10052328 0.11217761 -0.11193494 0.23205072 0.16869648 0.019053033
-0.50779986 0.20693474 0.31302 -0.46333206 -0.33470654 0.24647485 -0.1272752 -0.036109257
0.20373945 0.19913764 0.07703249 0.0074946634 0.04938598 0.013806364 -0.26528987 -0.37934566
-0.32002246 0.16350895 0.16406196 -0.2921162 -0.32101762 -0.15336937 -0.24161758 0.012652708
0.00497453 0.13449743 -0.024961643 -0.38079265 0.15168117 0.17971094 -0.4195855 -0.30061287
-0.28828567 0.2366937 -0.40589857 -0.036092497 0.04870025 -0.018361185 -0.5922417 -0.62586725
0.095391616 -0.28923374 0.0270227 0.0914095 0.09953052 -0.4338377 0.20512886 -0.35360134
0.11999112 0.19702947 -0.36432844 0.15003814 0.16330226 -0.15875284 -0.26171958 0.202243
0.32042673 0.07933108 -0.39085066 -0.5865168 0.33634877 -0.24571526 -0.48594344 -0.18311231
0.26826185 -0.14988291 -0.13326503 0.07650238 0.06948614 -0.07242455 -0.21788974 -0.3224233
0.15142651 -0.17403026 -0.17448601 -0.09629155 0.122003935 -0.51376384 0.04639905 -0.38948613
-0.43809697 -0.28673118 -0.28985664 0.14518544 0.059024457 -0.108318806 0.117039956 0.13085844
0.10559861 -0.44076857 -0.4121366 -0.041226752 -0.42213112 -0.44087246 0.02785602 0.17779067
-0.16524686 -0.1138226 -0.16280724 0.22037007 -0.16874331 -0.022185277 0.016875213 -0.08571942
-0.07374063 -0.19293362 -0.021378024 0.081893146 -0.44989136 -0.48369223 0.06642096 0.116126776
-0.23160341 0.1542249 -0.33238947 0.18146177 0.22975941 0.09044094 -0.45841348 -0.34999272
0.08575907 0.26524493 0.13933356 -0.31870058 -0.41197348 -0.14460933 0.22389042 -0.011820255
0.11966022 0.18742122 -0.27861115 0.1435396 -0.27981517 -0.0038135804 -0.4402409 -0.33286804
-0.09844737 0.06251521 -0.09763892 -0.12050691 0.2177253 0.17475443 0.012593896 -0.2502012
-0.015411913 -0.31263185 0.20246471 -0.24963082 0.22234519 0.003541544 -0.09737806 0.03127275
0.024334736 0.15247251 0.057165384 -0.23525265 0.1421453 0.13347924 -0.55851036 -0.49701005
0.25351602 -0.310278 0.08280652 0.2367212 0.0010761903 0.029807096 0.01964185 -0.19919704
0.061628707 0.10453917 0.045844633 -0.33636588 -0.15208419 -0.44298208 -0.15780538 0.24953385
0.11580998 -0.09802665 -0.484179 0.020361343 0.14522444 -0.15303308 -0.42399356 0.17986527
0.14243014 -0.15161264 0.06828164 -0.3985091 -0.4037094 -0.15566628 -0.33796892 -0.11578336
-0.19044156 -0.23231234 -0.1911624 0.076360896 0.047191393 -0.47459975 0.009105952 -0.33718577
0.17232466 -0.21360616 -0.23307835 0.050497975 0.18058047 0.14478618 -0.24021709 -0.51795954
-0.18843727 0.2043615 -0.3403842 -0.41560405 0.20220053 0.104953595 0.09502699 -0.31135532
0.21117505 -0.0028202038 -0.10344404 0.13795674 -0.334748 0.1707319 0.19024234 -0.1497825

fc3.bias f4 [10]
00000000: 16fc b2bd 264b 083e 4da6 89be 0627 80bd
00000010: 67ba 86bc 70ae 163e 9d08 b63d 9c24 5e3d
00000020: 9e38 8e3d 21c1 bc3b
-0.08739488 0.13309917 -0.2688469 -0.06257443 -0.016446305 0.1471498 0.088883616 0.054234132
0.069443926 0.0057603274
