s2_Organization_and_version_control/M6 - Code Structure/models/training_model.pt (torch, 439383 bytes, 6 tensors)

fc1.weight f4 [128, 784]
000000 fc a6 52 3c ae ed fa bc 76 2c 05 bd 55 12 ff bc
       0.012857195 -0.030630913 -0.032513104 -0.031136671
000010 32 59 ec 3c dc a8 ad 3c 80 26 dd b9 5c db b8 3c
       0.028851125 0.021198682 -0.0004218109 0.022565536
000020 22 09 de 3c df b8 ee 3a d8 e2 41 bd 29 83 94 bc
       0.027103964 0.0018213055 -0.047335476 -0.018128948
000030 08 86 9c bb 23 b6 eb bc 72 db 39 bc 56 f1 f0 3c
       -0.00477672 -0.028773373 -0.011343824 0.029411953
000040 1f da b6 3c 02 40 d5 3c c2 ae ca 3c 65 3f 1f 3b
       0.022320805 0.026031498 0.024741534 0.002429926
000050 c2 18 6d 3d 92 a6 a2 3c 4f fe 17 3c c0 38 5a 3c
       0.05788494 0.019854818 0.0092769405 0.013319194
000060 e8 dc b6 bc 53 7d ef bc 90 0a 56 3c 4a 9f 5a bc
       -0.022322133 -0.029234564 0.013064042 -0.013343642
000070 00 5f 86 b9 b0 7f 8a 3c 0b d5 0d 3d 71 0c fd bc
       -0.00025629252 0.01690659 0.034627 -0.030889722
000080 98 f4 70 bc 60 25 0b bd 07 0c 11 3d de 60 8a 3b
       -0.014706753 -0.03397119 0.03541186 0.0042229732
000090 28 24 b8 bc 7d 27 db bc 39 03 7a bb 10 14 ec bd
       -0.022478178 -0.026752228 -0.0038148894 -0.11527264
0000a0 0e 8f d8 bd da 49 23 bd c1 45 53 bd 48 f7 d2 bd
       -0.105741605 -0.039865352 -0.051580194 -0.103010714
0000b0 7b 62 2f bd c6 86 3a 3c cd a5 69 bc 0f 39 a2 bc
       -0.042818528 0.011384672 -0.014260721 -0.019802598
0000c0 97 d9 0e bd c6 75 48 3c 9e 0f b4 3c 6c 67 ce bc
       -0.03487548 0.012235111 0.021980103 -0.0251958
0000d0 48 4b 82 bc aa 83 d3 bc b0 51 55 3b f6 91 fb 3c
       -0.015905038 -0.025819618 0.003254991 0.030709248
0000e0 aa b1 af 3c 94 48 7b 3c f7 5d 06 3d e6 ae ce 3c
       0.021447022 0.015337128 0.032804456 0.025229882
0000f0 6d 57 d4 3c 3f b9 09 bd 29 11 0f bd 59 7a 04 3d
       0.025920594 -0.03362393 -0.034928475 0.032343242
000100 42 84 30 bd 77 ac a8 bd 05 46 12 be b6 e1 9d bd
       -0.04309488 -0.0823602 -0.14284523 -0.077090666
000110 3e 3b 03 be d5 37 a2 bd 06 d9 00 be 94 9d 16 be
       -0.12815568 -0.07920805 -0.12582788 -0.14708549
000120 7a 4e 02 be 97 cf 41 bd d4 52 fa bc 5d 0b be bd
       -0.12725249 -0.047317114 -0.030557074 -0.09279511
000130 c9 f9 0a 3d f7 7b 80 3d 2c 42 06 bd 0b 15 5a 3d
       0.03392962 0.062736444 -0.03277795 0.053242724
000140 f4 b7 b0 bc aa 62 75 bb bd 8e 0b bd c4 32 69 3c
       -0.02157209 -0.0037442842 -0.034071673 0.014233295
000150 76 95 a3 3c 30 d8 27 3b a4 c0 69 3c 5c 6e 73 3c
       0.01996873 0.0025611036 0.0142671205 0.014857855
000160 4f 9b 36 bd 04 b3 54 bc a2 2a 4f 3c cf ff eb bd
       -0.044581708 -0.012982134 0.012644442 -0.11523401
000170 d5 07 06 be 0d 27 1e be 04 4d 1d be 05 40 94 bd
       -0.13088925 -0.15444584 -0.1536141 -0.07238773
000180 3f 47 20 be 9f 7c 11 be cb c0 67 be 05 32 1b be
       -0.15652178 -0.14207695 -0.22632138 -0.151558
000190 58 43 ea bd 8a 0c 5e 3d dc 46 1e 3d 3c ea 2a bc
       -0.11438626 0.054211177 0.038641796 -0.010431822
0001a0 f6 43 13 bd 6d 84 4a bd 3f 6d f7 3d fc c9 74 bd
       -0.035953484 -0.049442697 0.12081384 -0.05976294
0001b0 c8 03 fd bc 9e 68 de bc 4d a6 4a bb d4 04 79 bc
       -0.030885592 -0.027149495 -0.0030921877 -0.015198905
0001c0 b6 bc a2 3c 15 8a f4 bb e1 e7 cf bd 51 c0 7b 3c
       0.019865375 -0.0074627497 -0.10151649 0.015365676
0001d0 2b 7b 97 3a ff cf 07 bd 01 82 13 3c e6 51 a3 bd
       0.0011557093 -0.033157345 0.009003163 -0.07974605
0001e0 36 d1 3f be d2 e6 55 be 48 b2 17 be 4c 0f 57 be
       -0.18732151 -0.20888832 -0.14814103 -0.21001929
0001f0 c7 b4 2f be 44 be 3d be 28 ed 38 be 62 ba c2 be
       -0.17158805 -0.18529612 -0.18059218 -0.38032824
000200 4e 26 95 be 78 e3 95 be 08 74 0c be 60 ff 49 be
       -0.29130787 -0.29275107 -0.13716137 -0.19726324
000210 00 79 d3 bc 64 e2 df bd ac 7f a9 3d 0a 73 ba 3d
       -0.025814533 -0.109318525 0.082763046 0.09103973
000220 71 b6 ba 3d d9 ba f8 3d 88 53 a4 bd 2a d5 f0 bc
       0.09116829 0.12145013 -0.08023745 -0.02939852
000230 8e 11 0d bc 30 16 2c 3b 58 51 44 3d 69 1e 6e 3d
       -0.008610142 0.0026258342 0.047929138 0.05813447
000240 31 28 34 3d 91 09 af 3c 10 61 6a 3d 68 0a a3 bd
       0.043983642 0.021366866 0.057221472 -0.07960969
000250 a4 8e f2 3a dc 5d bf bd 0e 5b a0 bc e9 04 13 be
       0.0018505645 -0.09344074 -0.019574668 -0.14357342
000260 f9 36 4a be 30 0a 65 be b6 b5 ad be ec 21 ad be
       -0.19747533 -0.22367167 -0.33927697 -0.33814943
000270 4b ee 77 be 82 75 40 be 54 53 fa bd 08 33 b4 bd
       -0.24211995 -0.18794826 -0.12222925 -0.08798796
000280 bf 02 32 bd bc 72 29 be 7e 02 0b bd da 75 1a 3e
       -0.04345965 -0.16547674 -0.033937924 0.1508402
000290 e0 8f c7 bc 4b c2 dd bb 6c 64 59 3d 40 7f 03 bc
       -0.024360597 -0.0067675463 0.053074285 -0.008025944
0002a0 d2 1b 39 bc 3d 36 b5 3c ca 10 e2 3d 1f 58 ea 3c
       -0.011298137 0.02212059 0.110383585 0.028606473
0002b0 4a 45 6e 3a 88 05 69 bd b3 08 85 bc af 49 3c bd
       0.00090893044 -0.05689004 -0.0162395 -0.045968708
0002c0 66 11 b1 bc 07 5a bc bc 19 00 87 bd be 93 b4 3d
       -0.021614742 -0.022992147 -0.065918155 0.08817242
0002d0 58 bc 91 bd 92 13 df bd 26 ee 5f be 65 08 3f be
       -0.07116002 -0.108924046 -0.2186819 -0.18655546
0002e0 87 45 22 be b3 7c 2f be 6c eb d2 bd b5 94 0c bd
       -0.15846835 -0.17137413 -0.102988094 -0.034321506
0002f0 27 b0 ac bd db 79 42 be 5a a0 08 be 04 5d 3b 3d
       -0.08432036 -0.18991797 -0.1334242 0.045743003
000300 35 cd 7d be b7 bb 5c 3d 3d 0a 83 3d d2 7f 31 3e
       -0.24785312 0.053889956 0.06398437 0.17333916
000310 00 80 b9 b8 73 c4 9f 3d 50 c4 e6 3d 9c 67 33 3b
       -8.845329e-05 0.078011416 0.112679124 0.0027374988
000320 66 20 53 3c d5 d6 cd bd 6a f4 35 bd 96 81 9d bd
       0.012886142 -0.100507416 -0.044422545 -0.07690732
000330 be 72 9f bd 6e 18 cb bd 3e 5c b5 bd 5e 76 a6 bd
       -0.07785557 -0.09916769 -0.088554844 -0.081280455
000340 58 bc b8 bd cd 60 a0 bd 37 de ea bd 24 61 2e be
       -0.09020299 -0.07830963 -0.11468165 -0.17029244
000350 2b 16 4d be 84 51 ab bd 7f d1 de bd 80 10 e6 bd
       -0.20027988 -0.08365157 -0.10879802 -0.11233616
000360 14 97 7e bd 22 c2 40 ba f3 14 3c be 0a a6 80 be
       -0.062155798 -0.0007353147 -0.18367366 -0.25126678
000370 41 83 3e bd 11 e3 ad 3d 71 c7 93 3d b6 98 04 bd
       -0.046511892 0.08490575 0.07215775 -0.0323722
000380 15 f4 08 bd 77 90 e5 3d 52 34 3b 3e 67 6d 67 3d
       -0.0334359 0.11209195 0.18281677 0.05650082
000390 b6 3e 22 3d e6 2c 92 bc 6b bf b2 bd 7f de 03 be
       0.039610587 -0.017843675 -0.08727916 -0.12877844
0003a0 73 74 4b be 1f 00 9b be 69 2e 7a be 30 1e 2e 3d
       -0.1986864 -0.3027353 -0.24431767 0.042509258
0003b0 12 df 69 3d 1d 0b b2 3d 78 58 ac bd 8c da 22 be
       0.057097502 0.08693526 -0.084153116 -0.15903682
0003c0 1d 9d 24 be 74 cd 2a be 17 ee a2 bd ca b4 90 bd
       -0.16075559 -0.16679937 -0.07955568 -0.07065733
0003d0 5e 8f 42 be 57 a2 40 be f4 3b 60 be ee b6 85 bd
       -0.19000003 -0.18811928 -0.2189787 -0.06529032
0003e0 7a b8 7a 3e 6d b4 ce 3d aa 1b 8a bd e4 51 de 3c
       0.24484435 0.10093007 -0.06743558 0.027138658
0003f0 59 f7 6e 3d 03 b3 08 3e a4 cd 51 3e fd 43 b4 3d
       0.058341358 0.13349538 0.20488602 0.0880203

fc1.bias f4 [128]
000000 62 cd 43 3e 9e 71 8b 3d 27 e1 4c bd 54 82 08 bd
       0.19121316 0.0680878 -0.05001941 -0.033327416
000010 33 5f 4e bd 35 79 c6 be 28 79 4f 3e ec a0 ec 3c
       -0.050383758 -0.3876435 0.20261061 0.028885327
000020 07 c0 25 bc da a8 3f 3d ad 89 27 3d 42 70 eb bd
       -0.010116584 0.04679189 0.040902782 -0.11496021
000030 4c b0 0d 3e 62 f7 2b 3e bd 95 54 3e b7 38 13 3e
       0.13836783 0.16793588 0.20760246 0.14377104
000040 aa 52 9c bc 4a c3 ba 3d 1c ff cf bb 18 ab 22 bd
       -0.019082386 0.0911928 -0.00634755 -0.03971395
000050 dc db a0 3c e7 eb db bc ea c6 be 3d 63 0e 27 bb
       0.019636087 -0.026845885 0.093152836 -0.0025490753
000060 cb 4c e6 3d 50 51 33 be af 46 79 bc 82 31 92 3d
       0.11245116 -0.17511487 -0.015214606 0.07138349
000070 a7 6a 19 be 7e a7 16 bd ff 6f 8c bc 75 80 04 bd
       -0.14982091 -0.036780827 -0.017143248 -0.03234907
000080 f1 a1 80 be aa 8d 35 be ce 00 23 be 63 bd a0 3d
       -0.2512355 -0.17729822 -0.15918276 0.07848623
000090 92 30 b1 3d 22 a2 56 3d 8c 98 cc 3c 15 84 0a be
       0.08651842 0.052400716 0.024975084 -0.13526948
0000a0 d0 84 e0 bc 9e 05 4d bd 89 48 94 be 9b 92 55 3e
       -0.02740708 -0.050054185 -0.2896159 0.20856707
0000b0 3b a0 3c bd 7f 62 75 bc 59 3b 14 bd a1 c2 94 bc
       -0.046051245 -0.014977097 -0.03618941 -0.018159213
0000c0 eb a4 74 bc ee 89 90 3d 86 fd 34 bd 9e 93 8f bc
       -0.014931898 0.07057558 -0.04418709 -0.017526444
0000d0 bb 03 37 bd 94 af 99 be b2 83 83 bc 42 e5 8d be
       -0.044681292 -0.30016768 -0.016054008 -0.27713972
0000e0 8d 8c 47 3c eb 11 6d be 14 cf d4 bc d5 e3 26 be
       0.012179506 -0.23151366 -0.025977649 -0.16297849
0000f0 cb 24 73 be aa 81 00 b8 ca 9f 28 3e 54 de ee bc
       -0.23744504 -3.0638337e-05 0.16467205 -0.029158749
000100 82 51 0f bd 20 9f 7f 3d 36 cd 26 bd 6a 74 bd 3d
       -0.03498984 0.062407613 -0.04072305 0.0925072
000110 86 fd f3 bc e8 43 68 bc 72 dd 84 bd b7 ae b7 3d
       -0.029783975 -0.014176346 -0.0648755 0.08968871
000120 91 a3 79 3d 34 b0 11 bd 99 84 05 be bf 13 a9 3d
       0.060947005 -0.03556843 -0.13038863 0.082557194
000130 79 c2 8d 3b e3 fd 3b 3e df 3a ad 3d ba e9 8e be
       0.0043261615 0.18358569 0.084584944 -0.27912694
000140 44 2d 50 3d 06 20 18 3e c7 38 16 bd df 7e f3 3d
       0.05082442 0.14855966 -0.03667524 0.11889433
000150 56 0b 26 3d f0 ca 33 bb b9 32 07 be 3b 8a db bd
       0.040538155 -0.0027434193 -0.13202943 -0.10719725
000160 ab ef 38 be 5e 15 8c bb 42 2b bf bd d0 ea 0c 3d
       -0.18060176 -0.004275008 -0.09334423 0.034403622
000170 a1 b9 30 3e 92 4f 46 3d 29 fd 09 3e 4d 3f 65 bd
       0.17258312 0.048415728 0.13475479 -0.05596857
000180 0b 47 2e 3c e7 38 01 3e 19 17 09 bd ae e1 f5 3c
       0.010637055 0.12619363 -0.033469293 0.030014839
000190 54 8b f1 bd b2 40 dc 3c 40 6d e7 3d e3 a3 18 bb
       -0.11794153 0.026886318 0.11300135 -0.0023291043
0001a0 3e 51 2b 3e 34 77 70 be 37 2a 63 bd 8f 64 18 bd
       0.1673021 -0.23482972 -0.05546018 -0.037205275
0001b0 2b 68 90 3e 82 88 ef bc 85 54 2d 3e ad e8 2b 3e
       0.28204474 -0.029239897 0.16926773 0.16787978
0001c0 99 ba 31 bd e8 df 82 be 7f 90 aa bd 4b ae 54 be
       -0.043390844 -0.25561452 -0.08328342 -0.20769612
0001d0 67 85 09 be c4 64 fd 3c e8 40 60 bc cd 27 10 bd
       -0.13429795 0.030931838 -0.01368735 -0.035194207
0001e0 01 45 23 3c 52 b8 35 3e 21 23 95 bc d2 0e be bd
       0.009965182 0.17746094 -0.018205227 -0.092801705
0001f0 50 ac d9 3d 88 a3 13 3e 5d 2e 9c bd f3 0f 24 3e
       0.10628569 0.14417851 -0.076260306 0.16021709

fc2.weight f4 [64, 128]
000000 39 42 89 be d6 6a 41 3b 63 ce 55 3d d5 e5 51 bd
       -0.26808336 0.0029513142 0.05219878 -0.051244576
000010 37 c1 52 bd 71 15 38 3e 3a 64 a7 be e9 d1 21 3e
       -0.051453795 0.17976929 -0.32693654 0.1580273
000020 a9 90 5d 3c 1c 3b d8 3d 29 21 89 3d 9d d5 42 3e
       0.013523259 0.10558149 0.06695778 0.190268
000030 8d c8 b3 be 33 10 3d be ef f7 a4 bc e1 fc 33 bd
       -0.35113946 -0.18463211 -0.020137755 -0.043942336
000040 20 16 a8 bc 20 7f 85 3e 57 36 5e 3e cb c4 16 3d
       -0.020518363 0.2607355 0.21700417 0.03680877
000050 7d 8c 4e be bc 3b 59 3c bf b0 d3 bd 01 e6 34 3e
       -0.2017078 0.013258871 -0.10336446 0.17665865
000060 89 06 d5 3d fe 27 59 3e e7 d3 a8 3d 56 5d 87 be
       0.10401637 0.21206662 0.08243542 -0.26438397
000070 2c 5a 89 be 33 bc 04 be 6a 0e 84 bd fe 1d 9f bc
       -0.26826608 -0.12962417 -0.06448062 -0.019423481
000080 c7 4e 8f 3d 9d a6 ca 3d cf b7 85 3c 45 91 57 be
       0.069974475 0.0989506 0.016322998 -0.2105151
000090 02 69 c5 be 0e 9c 25 3d bf 1d 32 be 4e 49 3a bc
       -0.38556677 0.04043203 -0.1739416 -0.011370016
0000a0 70 35 e6 bc 1c 1c 8e ba 66 f4 6a 3e 50 78 a9 be
       -0.028101653 -0.0010842117 0.22944793 -0.33099604
0000b0 ce 3d da 3c ac 28 06 be c0 aa b5 3c 19 4d 01 3e
       0.026640799 -0.13101453 0.022176147 0.12627067
0000c0 f2 46 c5 bd 7d 53 a0 3d b0 c9 1e 3d a8 bc c1 bd
       -0.09632672 0.07828424 0.038766563 -0.094598114
0000d0 98 56 9c bd 54 3c fc bc 12 17 3b bd 24 16 14 be
       -0.07633704 -0.030790485 -0.0456763 -0.14461571
0000e0 d4 32 87 3d ef 26 1e 3e 26 99 92 3d 1d 46 8d 3e
       0.066014916 0.1544454 0.07158117 0.27592555
0000f0 52 42 0f bd c6 c4 96 bd c2 7b c5 be a8 eb 46 bd
       -0.034975357 -0.0736175 -0.38570982 -0.048564583
000100 1c 42 71 bd 4f 3c 7c bd f5 79 0e 3e 37 a7 af 3e
       -0.058900937 -0.061580952 0.1391371 0.34307262
000110 c0 63 1a 3e 3a 77 f2 bc de 74 c5 3d 9b e4 8e be
       0.15077114 -0.029597867 0.09641431 -0.27908787
000120 bc b8 dc bd 8f 8c 21 3e f6 93 b9 bd 84 5e 50 be
       -0.10777423 0.15776275 -0.090614244 -0.20348555
000130 16 f1 37 3d 40 f7 e3 bd 0e 7e 9f bd 88 47 31 3d
       0.04490765 -0.111311436 -0.07787715 0.04328111
000140 3c 27 0e 3e e7 bd e1 be f7 cc c5 bd ff 4a ae bd
       0.13882154 -0.44090196 -0.096582346 -0.08510398
000150 54 dd 99 be da 1f ec bb 93 df c7 bd d3 ac 99 bd
       -0.30051672 -0.0072059454 -0.0975944 -0.07503667
000160 ad 16 2b 3c 8d 40 d8 bc 70 cf 95 3e 5d bf 1f be
       0.010442418 -0.026397968 0.29259825 -0.15600343
000170 8e 48 e7 bd 72 41 bf be 9f 70 02 3c c1 86 d5 3d
       -0.112931356 -0.37354618 0.007961421 0.10426093
000180 40 5e 26 3e 70 26 cf 3d 08 1a a0 3d b0 91 9c be
       0.16246891 0.10114753 0.07817465 -0.305799
000190 5d ae 34 3e 00 6a b7 3d df 33 3b be 12 f0 1f be
       0.1764464 0.08955765 -0.18281506 -0.15618923
0001a0 44 06 8a be c0 91 a2 bd 5e 7b 4a 3d 05 9e 8e 3d
       -0.26957905 -0.07937956 0.04943406 0.069637336
0001b0 69 1f 89 be c6 12 ad 3d 0e 9c 93 bd 35 71 f9 3c
       -0.26781777 0.084508464 -0.072074994 0.03044949
0001c0 16 30 73 bd 00 18 07 3e 3f d4 66 bd 8f 97 a7 3e
       -0.05937203 0.13192749 -0.056354757 0.32732818
0001d0 ae 68 d3 3d 29 dd 89 3d 03 98 a0 bd 29 3a dc 3c
       0.103227004 0.06731636 -0.07841494 0.026883202
0001e0 0b 67 a0 bd 47 2a a9 3d bb 2d a9 3c da dc 0e 3d
       -0.07832154 0.08260017 0.020651689 0.03487859
0001f0 f4 ea c2 be d1 3f 36 3e 4d 6d a1 bd 12 ad 0b bf
       -0.3806988 0.17797782 -0.078821756 -0.5456096
000200 e8 c5 ee bc 8e f8 bd 3d c6 36 95 3d 57 d3 1f 3d
       -0.029147103 0.09275924 0.07285838 0.03901991
000210 bc b9 54 bd 6c 57 53 3d 57 9c 47 be 36 65 1a 3e
       -0.051934943 0.051597044 -0.19493233 0.15077671
000220 ed 87 a8 be b6 3f dc 3c 80 57 4c be 9d 3c 87 be
       -0.32916203 0.026885848 -0.19955254 -0.26413432
000230 8f 32 27 be 75 c9 70 ba 60 ef f0 3e 47 3c df 3d
       -0.1632788 -0.0009185293 0.4705763 0.10900169
000240 73 9f e1 3b 65 b5 8f 3d 50 8d 5b 3e d5 d0 4c 3e
       0.006885463 0.0701702 0.21440625 0.20001538
000250 6a da 5d be e0 ed 8a bd 9a af ed 3d 9e 20 cf bc
       -0.2166535 -0.06783652 0.11605759 -0.025284108
000260 5c 17 29 be 58 f7 9f 3e 9e d9 13 be 69 b1 c7 be
       -0.16512817 0.31243396 -0.14438483 -0.3900254
000270 d8 03 56 bc f4 ed 30 3e d9 c3 05 bc bd 10 ea bc
       -0.01306244 0.17278272 -0.0081643695 -0.028572435
000280 90 5d ce 3b c8 24 e7 3d a7 8b a7 3e dd b5 97 bd
       0.0062977746 0.11286312 0.32723734 -0.074077345
000290 8e c6 83 bd 64 f2 26 3e 93 2e f9 bd 0a 93 4a 3e
       -0.06434356 0.16303402 -0.121670865 0.19782653
0002a0 38 6c 11 be 62 7c 8e bd d2 fc 40 3d d3 3b 0e be
       -0.14201438 -0.06957318 0.04711611 -0.13890009
0002b0 c1 09 a2 3d 4e 22 11 be 77 d8 e1 be 02 f6 c0 3e
       0.07912017 -0.14173242 -0.44110462 0.3768769
0002c0 8d ca fc 3d dd 5b 24 be e4 7f 50 3d c3 4b dd bc
       0.12343321 -0.16050668 0.050903216 -0.027013665
0002d0 1b ea 04 be c9 ee af 3d d3 23 d0 3c dd 2a 64 3c
       -0.12979929 0.085904665 0.025407707 0.013926235
0002e0 16 8b 46 3e c7 6f 29 3e c4 ec 55 be 09 20 b1 bc
       0.19388995 0.16546546 -0.208911 -0.02162172
0002f0 5d e0 d3 bd 56 40 ce bd 91 d3 58 be 45 7c 7c 3d
       -0.10345528 -0.10070865 -0.21174456 0.06164195
000300 28 45 3f 3e e3 a9 0a 3f 77 c2 5d be bc b2 ab 3c
       0.18678725 0.54165477 -0.21656214 0.02095925
000310 5e 82 8e be d3 4b b3 3d 1b 98 7a 3d 0d 61 32 be
       -0.27833837 0.08754697 0.061180215 -0.17419834
000320 b2 5c cf be cb 3e 34 bd 3a 81 fa 3c d9 e3 23 be
       -0.40500408 -0.044005197 0.030579198 -0.16004886
000330 08 cb 97 3c c2 6d 12 3e 9a bc ba be 2d f7 5a 3b
       0.01852943 0.14299682 -0.36472017 0.0033411488
000340 60 15 5d 3e 23 35 f5 be 79 12 08 bd 0b 4d c4 3c
       0.21590185 -0.47892103 -0.033220742 0.023962518
000350 e9 76 2a be 98 a5 0c 3e 53 05 47 3d b3 31 ee 3d
       -0.16646923 0.13735044 0.048589062 0.11630573
000360 d4 89 84 3d ea 86 c0 bd ff 3c 2c bd 46 fd 3c be
       0.06471601 -0.09400733 -0.042050358 -0.18455991
000370 44 cc 30 3e 4b dd df bd be db 88 bd 0d da ed 3d
       0.17265421 -0.1093088 -0.066825375 0.116138555
000380 8e ef a2 3c 4d a7 0c be ff 0b ec bc ad cf e9 bc
       0.01988962 -0.13735695 -0.028814314 -0.02854141
000390 33 10 a3 be c0 1f 45 3e a9 aa dc 3b 82 0f 19 3d
       -0.31848297 0.19250393 0.0067342115 0.037368305
0003a0 5f 88 d9 bd f7 63 5d 3d 73 bf 88 bc c5 f5 ca 3b
       -0.10621714 0.054050412 -0.016692853 0.006193849
0003b0 39 0b 8b bd 70 23 81 3d 27 1d 40 be 3a 72 dd 3b
       -0.0678925 0.06305587 -0.1876112 0.0067580016
0003c0 26 6d a4 3d 01 5f ac 3c 28 fd 08 be 35 76 90 bd
       0.08028631 0.021041395 -0.13377821 -0.07053796
0003d0 3a 8a 92 bc f9 2c 14 3c 71 02 ca 3d 2c 34 88 bc
       -0.017888177 0.009043925 0.09863747 -0.01662644
0003e0 6f 0f 25 3d 33 31 3f 3e 69 e7 34 3d a4 f5 1b be
       0.04029792 0.18671112 0.044166002 -0.15230423
0003f0 19 3a 8b be 80 f2 9b 3e d1 f9 c5 bd fe 09 e8 be
       -0.27192762 0.3045845 -0.09666789 -0.45320123

fc2.bias f4 [64]
000000 7f 4a 7a 3e d3 40 08 3e 77 ef a5 bd 52 b9 0f 3e
       0.2444248 0.13305978 -0.08102315 0.14035538
000010 fe d6 14 be 31 0f af 3d 1c d7 41 be 79 70 0f 3e
       -0.14535138 0.085478194 -0.18929714 0.14007749
000020 81 2e 18 bd d4 9e e4 3d 7d 6f ad 3d 80 ba 11 3e
       -0.037153725 0.111631066 0.0846853 0.142313
000030 57 a9 9b bc ee 5c 63 3d 4c 6f 90 3d 95 a6 4f 3e
       -0.019001646 0.055508547 0.07052478 0.2027839
000040 a7 9c 31 bd 33 4c c0 3c 93 aa 16 3d f4 f6 36 3e
       -0.043362286 0.023473835 0.036783766 0.17867643
000050 ab 53 d8 bd 8c 49 02 3e 1c f4 90 3e 99 e8 ee bc
       -0.105628334 0.12723368 0.2831124 -0.029163646
000060 d0 9e 00 be 96 d1 13 bd 8a cd df 3c e5 59 b5 3d
       -0.12560582 -0.03608855 0.027319688 0.08855037
000070 d0 d0 75 3c ad 73 a2 bd a5 f0 36 bc 46 94 af 3d
       0.015003398 -0.0793222 -0.011165773 0.08573203
000080 94 c4 3a 3e 90 57 1d bd 1f 02 95 3d 82 e3 c6 3c
       0.18239051 -0.038413584 0.07275795 0.024278406
000090 b4 8e 0b 3e 63 ad b9 3d 88 0e 5c 3c 0e 74 3f 3d
       0.13628656 0.09066274 0.013431199 0.046741538
0000a0 eb 96 94 3b 78 9f 08 3e a4 b8 1f 3e d0 da a5 bd
       0.0045345924 0.13342083 0.15597779 -0.08098376
0000b0 41 ad 24 bd b7 0c 87 bd 75 c5 84 3d d2 f8 60 3d
       -0.04020429 -0.06594222 0.064829744 0.054924794
0000c0 15 bc 9c 3d 92 fc 97 bd 5d 70 c0 bd 16 ed fa 3d
       0.07653061 -0.07421221 -0.093964316 0.12252252
0000d0 da 24 1b be 5f 48 18 3e 03 60 33 3e ab 82 2a 3e
       -0.15150777 0.14871357 0.17517094 0.16651408
0000e0 1e 33 83 3d 6b f1 d5 bc bb ca 92 3d 13 15 24 bc
       0.06406234 -0.026116094 0.07167574 -0.01001479
0000f0 64 1d a1 3c 0e 87 1a 3c 83 66 11 3d e9 70 02 bc
       0.019667335 0.009431614 0.035498153 -0.00796149

fc3.weight f4 [10, 64]
000000 14 56 5a 3e 1a b9 b3 be 7e 95 40 3e 1f 1d db bd
       0.21321899 -0.3510216 0.18807027 -0.10698914
000010 73 ea aa 3c 20 0a a8 be 64 c8 3d bd 87 eb 20 3e
       0.020863747 -0.32820225 -0.046333686 0.15714847
000020 ba 54 4a 3d 92 a7 a3 be 05 3d 49 be 76 81 93 be
       0.049397208 -0.31963784 -0.19652183 -0.28809708
000030 1a a3 e1 bd 6a bc 13 ba 7a 80 8b be 52 8e a2 be
       -0.11017437 -0.0005635681 -0.27246457 -0.31749207
000040 1b 1d dd be 13 96 0f bc 69 a6 ac be 1f 8f 26 3e
       -0.43186268 -0.008763808 -0.3372071 0.16265534
000050 5e ef 0d be e9 23 54 be 04 a8 9e be eb 28 d4 3e
       -0.13860843 -0.20716824 -0.3098756 0.41437468
000060 7b df 99 be 6a 77 70 be d6 c5 dd bd 41 34 4e 3e
       -0.30053315 -0.23483053 -0.1082875 0.20137121
000070 a4 08 87 be 97 a4 fe 3d 3d 25 7f 3e 20 f2 a0 3d
       -0.2637378 0.12433737 0.24916549 0.07858682
000080 86 da 5b 3e d6 20 00 3c ca 50 e3 be e3 fa 20 3e
       0.21470079 0.007820329 -0.44397575 0.15720706
000090 a9 a6 4f 3e b3 16 ef be 0f 2c 52 be 6f 6f ad ba
       0.2027842 -0.46697006 -0.2052462 -0.0013232062
0000a0 3e 67 a0 be 23 6a 30 3e d7 9a 9b be 97 17 f0 3d
       -0.31328768 0.17227988 -0.3039157 0.117232494
0000b0 a3 9a b2 be 88 f1 36 be ac 94 b6 3d bd 72 e3 3d
       -0.34883603 -0.17865574 0.08915076 0.11105869
0000c0 4c e8 76 be 68 46 70 be c9 65 99 be 91 a0 99 be
       -0.24112052 -0.23464358 -0.29960468 -0.30005315
0000d0 55 9d 6b 3e ff 74 bf 3d 4d 97 0d 3e ac ba 2c be
       0.23009236 0.09348487 0.13827248 -0.16868085
0000e0 12 98 e1 3d 3b 2c 01 3e ab 5f a7 be e8 1a 65 3e
       0.11015333 0.12614529 -0.32690176 0.22373545
0000f0 52 ca 61 be 77 3d d8 3d 23 ca 94 be 9a fa 35 3e
       -0.22049835 0.105585985 -0.29060468 0.17771378
000100 6e b2 19 bf bf f8 9d bc 48 bf b8 bd ed 0d 0c be
       -0.6003789 -0.01928365 -0.09020859 -0.13677187
000110 cf 31 b5 be 4c a3 9e be 62 d0 24 be 75 4f 4a be
       -0.35389563 -0.3098396 -0.16095117 -0.19756873
000120 fd d6 27 be 1e 07 ce bd 25 1c 0e be 8e 71 08 3e
       -0.16390605 -0.10059951 -0.13877924 0.13324568
000130 f8 24 87 bd f3 fd 35 3e 72 f3 51 bd 19 af 8f 3e
       -0.06598848 0.17772655 -0.05125756 0.28063276
000140 64 9a 5f 3e a1 f9 db 3d 8a 1a fb bd 3d 7a e5 be
       0.21836239 0.10740972 -0.12260921 -0.44819823
000150 70 53 0e be 93 83 80 bd bb 59 58 3e 18 a9 5f be
       -0.13899016 -0.06275096 0.2112798 -0.21841848
000160 36 47 2f 3e f3 eb a1 3d f6 dd 11 bc e8 8b d6 be
       0.17117009 0.07906332 -0.008903017 -0.41903615
000170 65 3b 16 3e b1 a4 9d be e9 ae 30 3e 7f d6 b5 bc
       0.14671095 -0.30789712 0.17254223 -0.022197006
000180 04 f7 00 bf c7 21 b3 bd ae 7b 67 3e e2 8e c2 be
       -0.50376916 -0.08746677 0.22605774 -0.37999636
000190 57 4e 62 be b0 c4 e0 3d 9a 5b fb bd 77 9b e1 3c
       -0.22100197 0.10975015 -0.12273331 0.027539952
0001a0 d1 b8 d4 3d f5 93 4f be bc 9e 39 3e 86 a9 10 3e
       0.103868134 -0.20271285 0.18126959 0.14127168
0001b0 bd 89 88 3e 22 7f f6 bd 67 5e bb be 7f ce bc be
       0.26667586 -0.120359674 -0.3659546 -0.36876294
0001c0 82 10 9f bd c4 75 66 3e 65 52 a7 be 29 5c eb be
       -0.077668205 0.22505862 -0.3268005 -0.4596875
0001d0 c4 3d 21 be f2 c8 3e be 7c e4 05 bd 64 1b 57 be
       -0.15746218 -0.18631342 -0.032688603 -0.21006542
0001e0 9b dd 5e be 3a 0e bc be 3d 8f 52 3e 84 85 b1 be
       -0.21764223 -0.36729604 0.20562454 -0.34672177
0001f0 7c bf 34 3e 7e 9b b6 3c 2e 60 8c be 4d a6 2b be
       0.1765117 0.022290941 -0.2741713 -0.16762657
000200 fc e6 cd bc b8 5d 01 bf e2 a1 1c 3d 5d 62 39 be
       -0.025134556 -0.5053363 0.03824032 -0.18103929
000210 bf df 8d 3e c7 77 0c be 35 34 26 3e cb d6 00 3e
       0.27709767 -0.13717566 0.16230853 0.12581937
000220 76 ce 2d 3e 33 77 ff be e2 7b 7a be 41 2b 07 bf
       0.1697329 -0.4989563 -0.2446132 -0.52800375
000230 41 59 d9 be 74 3b 84 3e 29 fc 58 3e 26 90 8b be
       -0.42450908 0.2582661 0.21189941 -0.27258414
000240 c2 9c fa 3d c8 1b e5 3d e5 b2 08 bc 6e 8a 60 be
       0.122369304 0.111869395 -0.008343433 -0.21927807
000250 66 3b b7 3c 01 dc 8a be df 00 0e bf d6 94 f5 bd
       0.02236719 -0.27120975 -0.5547008 -0.11991279
000260 19 ae 65 3e b6 2f 69 bd 24 09 43 3e 3f 08 a1 3c
       0.22429694 -0.056930266 0.19046456 0.019657252
000270 61 08 1d 3e d0 8c 82 bb e8 87 16 bd e7 ca 6b be
       0.15335228 -0.0039840713 -0.036750704 -0.2302662
000280 90 c8 07 bd 56 da a1 bd 6b 0a ac bd 76 c3 c6 bd
       -0.033150256 -0.079029724 -0.084004246 -0.0970525
000290 65 00 bc be 21 ba c0 be 6d 64 54 be 0c 44 da bd
       -0.3671905 -0.37642005 -0.20741434 -0.1065751
0002a0 9d 3d 79 3d 84 d2 6f 3c 5d c0 15 be f2 4d 93 bd
       0.060849775 0.014637593 -0.14624162 -0.07192601
0002b0 7f a1 5d 3d 1d c9 82 bb cd db 87 bd 74 4a 02 bd
       0.054109093 -0.0039912597 -0.066337205 -0.031809285
0002c0 f8 98 93 be bf c5 0b be 34 6c ac 3e 93 11 a5 bd
       -0.28827643 -0.13649653 0.33676302 -0.08059993
0002d0 ca bd 4e 3e 01 8d 01 3e 6c 7d 9b be 85 22 70 be
       0.20189586 0.12651445 -0.30369127 -0.23450668
0002e0 0a c5 9a 3d 83 a4 1c 3d 66 79 61 bd cd 54 4e 3e
       0.075571135 0.038242828 -0.055047415 0.20149536
0002f0 f9 08 0f 3e 91 6a 0b 3e 36 a0 a6 3e d4 cd 8b 3d
       0.13968267 0.1361487 0.32544106 0.06826368
000300 4f 43 5d 3c 0f 8d 18 3e 64 32 d7 3c 17 dc 9f be
       0.013504817 0.1489756 0.026269145 -0.31222603
000310 28 c0 5d 3e 2f da 7c be b2 53 ac 3d f1 7e d9 bd
       0.21655333 -0.24692605 0.08414401 -0.10619915
000320 d2 cd eb be 07 19 e5 3c cb 4b 8b bd 37 7a 44 3e
       -0.46055466 0.027966036 -0.06801566 0.19187246
000330 88 c2 82 3e 17 a6 54 3e ac 9a 22 3e 1b 14 83 be
       0.2553904 0.20766483 0.15879315 -0.25601277
000340 d0 b3 87 3e b6 79 8d be 47 24 83 be 8d 42 e5 be
       0.26504374 -0.2763192 -0.25613615 -0.44777337
000350 97 69 8a bd 55 30 d4 3c ec 00 ee bd a3 95 94 bd
       -0.06758421 0.025901953 -0.116212696 -0.072551034
000360 81 09 f9 3b 41 d2 9c 3c 26 12 67 be 2e 56 e7 3d
       0.00760001 0.019143226 -0.22565517 0.11295734
000370 cb 13 94 3b 8a 96 91 be 3d ca c5 be 6a 93 01 3e
       0.004518961 -0.28435165 -0.38630858 0.1265389
000380 03 ab ce be af c3 75 bc 7d 58 9b be c4 ee a1 be
       -0.40364847 -0.015000268 -0.3034095 -0.31627476
000390 d3 90 91 be e0 f4 5f 3d 42 ab f6 3c 55 b3 b6 3c
       -0.28430805 0.05467689 0.030110959 0.022302309
0003a0 f5 08 d8 3d b8 52 eb 3d ab 20 c8 be ec 08 43 3e
       0.105485834 0.11490387 -0.39087424 0.19046372
0003b0 5e 48 28 be db dd 11 3e 2f cc 3f 3e 56 89 4e 3e
       -0.16433856 0.14244787 0.18730234 0.20169577
0003c0 53 c8 7b 3e 63 b7 a7 3e b5 2f 7c 3e da a9 89 be
       0.24588136 0.327571 0.24627574 -0.268874
0003d0 15 7b 39 3e dd 36 bd 3d da 24 0a 3e 66 63 5d be
       0.18113358 0.0923898 0.1349062 -0.21619949
0003e0 e2 ff b0 bd d6 12 0e bb b3 28 58 3e 46 06 5d be
       -0.08642556 -0.0021678708 0.21109276 -0.21584424
0003f0 3b 59 c3 be fb 62 5e be 3b 59 f3 3d 3b 9b 28 3e
       -0.38154015 -0.21717446 0.11882254 0.16465466

fc3.bias f4 [10]
000000 4c 08 cb bc e8 43 4d 39 63 f1 cf bc ca e3 82 3d
       -0.02478423 0.0001957562 -0.025383657 0.063911036
000010 a0 5a e1 bd 13 08 de 3d f9 61 91 bd c0 18 11 bd
       -0.110036135 0.10841384 -0.07098765 -0.035423994
000020 a8 e9 9b bc b0 d7 da 3c
       -0.019032314 0.026714176
