s2_Organization_and_version_control/M6 - Code Structure/models/training_model.pt (torch, 439383 bytes, 6 tensors)

fc1.weight f4 [128, 784]
-0.017266594 0.029971298 0.019992825 0.017061748 -0.0026259013 0.032293443 0.004405983 0.003444083
0.030332822 -0.0017959252 -0.006562272 0.009977191 0.027209971 -0.0075592566 0.01171913 -0.03240335
-0.02584623 -0.03302039 -0.039021708 0.05465232 0.084523134 0.054404933 0.03390414 -0.028600946
-0.00036790222 0.005387474 -0.034680378 0.0043650195 -0.0018727146 -0.031369697 0.03347243 0.009402856
-0.0015355423 -0.0085311625 0.024027098 0.064931825 0.015426404 0.002310445 -0.011399331 0.03379996
0.00324644 0.07986146 0.014322729 0.06798811 0.12962678 0.079682805 0.06892283 0.2229495
0.11292469 0.05179835 0.031186683 0.009671185 0.012745235 0.013754837 -0.019246617 0.021220077
0.018154126 -0.023666153 -0.0196326 0.0050608516 0.01469617 -0.0043602576 -0.038332734 -0.019378789
-0.071207024 -0.067827165 0.026555285 -0.009828833 0.014693772 0.0060963035 0.0011418895 0.14512457
0.21519461 0.23325151 0.28564233 0.37644908 0.36037794 0.3464113 0.24646807 0.05475331
0.0590126 0.008186255 -0.03341773 -0.022347763 -0.02676265 -0.018940339 0.035665195 0.0007379763
0.06417216 -0.14055896 -0.016246652 -0.074375354 -0.061325803 -0.14610794 -0.032818843 0.015124459
0.016719611 0.011168519 0.10706889 0.20679007 0.23265353 0.123225935 0.10922677 0.19463897
0.26344398 0.22720109 0.23094314 0.09634144 0.08222509 0.02121277 -0.015335897 -0.03188016
-0.010712348 0.019714314 0.018302169 -0.10618947 0.06549057 -0.008767264 -0.1900416 -0.15967686
-0.19059035 -0.24997883 -0.14054298 -0.14826985 -0.049938597 0.09096765 0.22289172 0.22199996
0.14845945 0.046297178 -0.025365876 0.15878056 0.18130915 0.2964623 0.23050821 0.08103687
0.01982882 0.03534712 0.008257292 -0.02198314 -0.0343685 -0.011410147 -0.028539633 -0.037096635
0.027325243 -0.044006526 -0.10332685 -0.021419872 -0.17771865 -0.2823794 -0.13361427 -0.17073749
0.047177475 0.093071625 0.09065564 0.020120556 -0.09280382 -0.096017025 0.023110151 0.09173822
0.079774655 0.16981621 0.17247348 0.103521466 -0.053122006 0.055245012 -0.010268897 0.017997947
0.012837045 -0.015322737 0.07191139 0.1576742 0.121216565 -0.04216608 -0.07384527 -0.0596148
-0.15689276 -0.24714148 -0.19157998 -0.11949755 0.040353026 0.1294728 0.078242 0.09824851
-0.028747229 -0.020445209 0.09622774 0.020125858 0.011109777 0.09636463 0.1544558 0.2127653
0.11578733 0.02093577 0.0392247 0.01590421 -0.035335667 0.03720402 0.17095183 0.20792846
0.10094734 0.03362169 -0.046695232 -0.0768295 -0.17844926 -0.3368034 -0.4827389 -0.1508299
0.10024577 0.029194983 -0.03365749 -0.08200586 -0.17070733 -0.09129504 0.09184925 0.07622877
0.08113498 0.06104277 0.12230127 0.16480103 0.089375444 0.16715433 0.03275046 -0.048119385
0.0085857585 0.038941048 0.18849915 0.31770402 0.21426985 0.023605065 -0.0054650395 -0.07509816
-0.13128689 -0.31994346 -0.5338339 -0.24665806 0.06812272 0.15342702 0.12594669 -0.20222788
-0.34106076 -0.17850712 0.016772244 0.059709676 0.08930436 -0.04105585 -0.009105067 0.015600696
0.12215981 0.24703293 -0.07921031 -0.01326844 -0.008274946 0.05825144 0.22906694 0.23905699
00000000: ac72 8dbc 5e86 f53c fec7 a33c 14c5 8b3c
00000010: 5017 2cbb 2146 043d 1060 903b 20b6 613b
00000020: 8a7c f83c 4065 ebba 5408 d7bb 5f77 233c
00000030: 72e7 de3c a4b3 f7bb 9801 403c 60b9 04bd
00000040: 79bb d3bc 6340 07bd 3ad5 1fbd 1cdb 5f3d
00000050: 771a ad3d b5d7 5e3d 11df 0a3d 884c eabc
00000060: 00e3 c0b9 6889 b03b 030d 0ebd 7008 8f3b
00000070: e075 f5ba 837d 00bd 631a 093d 700e 1a3c
00000080: 4044 c9ba 4ac6 0bbc 7ad4 c43c fafa 843d
00000090: 07bf 7c3c d66a 173b 42c4 3abc d471 0a3d
000000a0: 3ac2 543b 688e a33d e1a9 6a3c 5a3d 8b3d
000000b0: e2bc 043e bd30 a33d 6a27 8d3d e04c 643e
000000c0: 0f45 e73d 822a 543d 377b ff3c e473 1e3c
000000d0: 64d1 503c f85b 613c 15ab 9dbc bad5 ad3c
000000e0: f6b7 943c 85df c1bc 8cd4 a0bc 80d5 a53b
000000f0: 34c8 703c 7ee0 8ebb c902 1dbd 44c0 9ebc
00000100: fdd4 91bd f8e8 8abd 788a d93c 1d09 21bc
00000110: 26be 703c 80c3 c73b 74ab 953a 899b 143e
00000120: fa5b 5c3e 7cd9 6e3e b63f 923e efbd c03e
00000130: 7583 b83e d25c b13e 2062 7c3e 0245 603d
00000140: 32b7 713d a41f 063c 08e1 08bd a812 b7bc
00000150: 583d dbbc c528 9bbc ab15 123d c074 413a
00000160: b26c 833d b0ee 0fbe b317 85bc 1b52 98bd
00000170: c430 7bbd 529d 15be 0d6d 06bd 94cc 773c
00000180: 91f7 883c 2afc 363c ef46 db3d c7c0 533e
00000190: ba3c 6e3e e15d fc3d 49b2 df3d 704f 473e
000001a0: 21e2 863e 67a7 683e 5c7c 6c3e a94e c53d
000001b0: a165 a83d 67c6 ad3c 6a43 7bbc c594 02bd
000001c0: d882 2fbc ea7f a13c 6eee 953c dd79 d9bd
000001d0: ec1f 863d 92a4 0fbc 449a 42be 5582 23be
000001e0: 1e2a 43be 73fa 7fbe 80ea 0fbe 0dd4 17be
000001f0: 6a8c 4cbd 3f4d ba3d ba3d 643e f553 633e
00000200: c105 183e 1ca2 3d3d 19cc cfbc 5f97 223e
00000210: 1ba9 393e e8c9 973e 580a 6c3e a9f6 a53d
00000220: 0d70 a23c 24c8 103d 9849 073c fc15 b4bc
00000230: fcc5 0cbd a0f1 3abc f3cb e9bc a4f2 17bd
00000240: 30d9 df3c 3040 34bd 079d d3bd ba78 afbc
00000250: e1fb 35be 0894 90be 2ed2 08be cfd5 2ebe
00000260: 2b3d 413d 569c be3d aaa9 b93d ddd3 a43c
00000270: ee0f bebd 93a4 c4bd 8051 bd3c 3fe1 bb3d
00000280: e560 a33d 4de4 2d3e e39c 303e 1003 d43d
00000290: 7696 59bd 9848 623d e03e 28bc 6e70 933c
000002a0: 7852 523c 380c 7bbc 4746 933d 5875 213e
000002b0: 6440 f83d 57b6 2cbd 303c 97bd a62e 74bd
000002c0: 7fa8 20be a812 7dbe 8b2d 44be 22bb f4bd
000002d0: 3749 253d 8594 043e 573d a03d 8436 c93d
000002e0: 4f7f ebbc b67c a7bc 0d13 c53d fcde a43c
000002f0: c805 363c d25a c53d a929 1e3e 26df 593e
00000300: e821 ed3d 7e81 ab3c 14aa 203d 8c49 823c
00000310: 22bc 10bd 3e63 183d ff0d 2f3e 33eb 543e
00000320: 7bbd ce3d e6b6 093d 8043 3fbd c958 9dbd
00000330: 67bb 36be 7f71 acbe 8e29 f7be 2773 1abe
00000340: a74d cd3d 512a ef3c 70dc 09bd b0f2 a7bd
00000350: e7cd 2ebe e5f8 babd 761b bc3d d41d 9c3d
00000360: 192a a63d fc07 7a3d 1779 fa3d 9ac1 283e
00000370: 790a b73d 812a 2b3e 5925 063d d518 45bd
00000380: 48ab 0c3c a680 1f3d ec05 413e 1aaa a23e
00000390: 8e69 5b3e 695f c13c 1314 b3bb 10cd 99bd
000003a0: 1270 06be a1cf a3be 57a9 08bf ee93 7cbe
000003b0: ed83 8b3d f91b 1d3e 2bf8 003e d314 4fbe
000003c0: 849f aebe 92ca 36be f265 893c 2292 743d
000003d0: 34e5 b63d 2e2a 28bd 6b2d 15bc 109a 7f3c
000003e0: ec2e fa3d 33f6 7c3e 0439 a2bd df63 59bc
000003f0: a493 07bc 1099 6e3d 8690 6a3e 5bcb 743e

fc1.bias f4 [128]
-0.084318124 -0.043461476 0.023782557 0.15030113 0.07387867 -0.032878537 -0.05052579 0.14577074
-0.01695803 0.19060111 0.064159915 0.028551674 -0.26836854 -0.321748 0.10953722 0.07632431
-0.06476246 -0.026588738 -0.035246454 -0.28936142 0.114723645 -0.11993287 0.027250478 -0.15934645
-0.04083629 -0.12716435 0.13894692 -0.23136413 0.038792092 0.1448602 0.0443205 0.056691594
-0.048240613 -0.051014166 -0.10221812 0.0010146281 0.08070931 -0.10742517 -0.021033214 -0.08330431
0.08085625 0.10697658 -0.18572815 0.064457774 -0.07992875 -0.23302965 -0.054785717 -0.06791597
0.19845356 0.077910244 0.06639517 -0.0033536365 0.002604087 -0.06024447 0.0075769015 0.06337281
-0.11819027 -0.015416368 0.17854616 -0.14725842 -0.04745823 -0.082032725 -0.120475255 -0.07562311
0.037620574 0.02473842 -0.005341945 -0.01357991 -0.17046946 0.0114032235 0.075406395 -0.15697052
0.17541535 0.070045516 0.061805043 -0.2320468 0.17293628 0.054103844 0.09925963 -0.027957894
-0.058619462 -0.10714909 0.05551519 0.015129105 0.122827806 -0.16644342 0.1176145 -0.043182433
-0.00621619 -0.07024013 0.065100186 0.014322632 -0.057698835 0.08543711 0.084396 -0.016331546
-0.050394777 0.07811447 0.1260086 -0.040687602 0.163482 -0.15502076 -0.02566874 -0.023098798
-0.055181883 0.008135561 0.06451362 -0.0011401506 -0.19315882 -0.2173717 -0.0021450433 -0.036215376
0.104448 -0.032011677 -0.33767337 -0.026824282 -0.03030779 -0.114368364 0.013065023 -0.09245291
0.049242593 0.13795415 0.119829245 0.095552154 0.1242458 0.18814148 -0.26807737 -0.0475249
00000000: fbae acbd a904 32bd a3d3 c23c 8ae8 193e
00000010: b34d 973d a5ab 06bd 21f4 4ebd ed44 153e
00000020: 91eb 8abc f02c 433e 4666 833d 33e5 e93c
00000030: 9a67 89be 27bc a4be 0d55 e03d eb4f 9c3d
00000040: 2ea2 84bd a0d0 d9bc 965e 10bd 2e27 94be
00000050: 3bf4 ea3d 5d9f f5bd 653c df3c b72b 23be
00000060: f443 27bd 5f37 02be 1a48 0e3e b8ea 6cbe
00000070: 75e4 1e3d 3b56 143e 6a89 353d 7235 683d
00000080: f397 45bd 3bf4 50bd bc57 d1bd 45fd 843a
00000090: ec4a a53d ba01 dcbd d94d acbc 739b aabd
000000a0: f697 a53d 8a16 db3d 852f 3ebe 7002 843d
000000b0: afb1 a3bd 539f 6ebe fd66 60bd 8717 8bbd
000000c0: 6937 4b3e 688f 9f3d 31fa 873d afc8 5bbb
000000d0: 55a9 2a3b e8c2 76bd a847 f83b 9bc9 813d
000000e0: be0d f2bd ef94 7cbc ced4 363e e9ca 16be
000000f0: 9063 42bd c600 a8bd bbbb f6bd 4ae0 9abd
00000100: 0818 1a3d 3aa8 ca3c 7c0b afbb 457e 5ebc
00000110: 8c8f 2ebe 96d4 3a3c ab6e 9a3d e1bc 20be
00000120: 15a0 333e 0674 8f3d 4927 7d3d ad9d 6dbe
00000130: 3516 313e fe9b 5d3d a248 cb3d f407 e5bc
00000140: f61a 70bd fb70 dbbd e563 633d 11e0 773c
00000150: 258d fb3d 2570 2abe dfdf f03d 10e0 30bd
00000160: 2eb1 cbbb 0fda 8fbd 3f53 853d 79a9 6a3c
00000170: 9d55 6cbd a7f9 ae3d cfd7 ac3d bcc9 85bc
00000180: c16a 4ebd 7bfa 9f3d 6608 013e 0ba8 26bd
00000190: d367 273e c3bd 1ebe 4047 d2bc b139 bdbc
000001a0: 6606 62bd 044b 053c b81f 843d 1b71 95ba
000001b0: 6dcb 45be b096 5ebe db93 0cbb 9356 14bd
000001c0: d5e8 d53d ad1e 03bd 86e3 acbe 99be dbbc
000001d0: 0b48 f8bc f639 eabd ae0e 563c f457 bdbd
000001e0: 9ab2 493d da43 0d3e 0969 f53d d9b0 c33d
000001f0: 9574 fe3d 29a8 403e 7041 89be 78a9 42bd

fc2.weight f4 [64, 128]
-0.20874614 -0.18651454 -0.179452 -0.39117143 -0.18863742 -0.039538704 0.2333298 -0.27587998
0.03473971 0.21194185 -0.25397155 -0.11252952 -0.0015567275 0.1448585 -0.23511097 -0.09938685
-0.20002942 -0.033816766 -0.019120622 0.13338315 -0.22767451 -0.023978084 0.1585531 0.07000098
-0.02595124 0.23020497 -0.08397141 0.03515824 0.26531288 -0.4181522 0.021522334 0.09785245
0.033287745 -0.033318404 -0.030499078 -0.06861917 0.006359806 -0.07886992 -0.034634914 -0.179984
-0.25921738 0.36626884 0.16232818 0.16397627 0.097026296 -0.11728419 -0.013943258 -0.10495528
-0.23051442 -0.1825907 0.053391084 0.09624965 0.055546705 0.07246438 0.2246667 -0.20009041
-0.008896009 -0.23622636 -0.20956376 0.049821757 0.20637228 0.09342808 -0.12954181 0.26781723
0.28683892 -0.28974217 -0.2336752 0.18212481 -0.101203725 0.01815249 0.20439783 0.17830431
-0.09763488 0.045312963 0.05345098 0.1676632 -0.12578543 0.4421979 -0.3660129 0.0056669796
0.07412432 0.13017587 -0.1476692 0.10401957 -0.24710049 -0.12669219 0.42424434 0.09062422
-0.0069086296 0.014024159 -0.2015309 0.123122364 -0.25061512 -0.095372505 -0.36289787 -0.027101312
0.27657786 -0.08472898 -0.24568126 -0.03582147 0.17188951 0.10767823 -0.07984862 0.05148942
-0.030117454 0.06409847 0.008596405 0.07794738 0.07991577 -0.034539793 0.42784843 -0.22200434
-0.14406152 0.21591426 0.046899483 0.3026457 0.030167555 -0.08645845 -0.16208583 -0.17220041
-0.1983618 0.14364935 0.041426238 0.16670465 0.14554672 0.32302034 0.15355104 0.04158966
0.23464291 0.07415939 -0.24462436 0.50439703 0.20954861 0.0155861825 -0.062450293 0.40416282
0.038606033 0.0029699106 -0.028109208 -0.05559624 -0.044763498 -0.095322855 0.13517655 0.19858657
-0.054515533 -0.0785247 -0.011583646 -0.044557832 0.12924348 0.15476638 0.13904108 0.016842116
6.789802e-05 -0.05643414 0.0330031 -0.1447033 -0.26428282 0.12046076 0.04480597 0.09186472
0.021676837 0.3795327 0.09961866 0.10219875 -0.084795706 -0.048009563 0.062469233 0.22612913
0.0712594 -0.3700708 0.030280484 0.44002804 -0.14274661 -0.21397166 -0.048202977 0.0049256356
-0.029023062 -0.04462349 0.022824816 -0.0042948513 -0.024830509 -0.095201366 -0.056271076 0.21959078
-0.22135007 0.11323737 0.28277764 -0.07554887 -0.23950593 -0.024651976 0.5226052 -0.06660381
-0.08646939 -0.1254721 -0.09214759 0.109920196 -0.13139045 0.022094352 -0.07712168 0.08590596
-0.109411575 -0.3089791 -0.28332207 -0.069649726 0.015114368 -0.012569027 -0.019429015 -0.019760918
-0.16025046 0.36656135 0.5922113 0.05354477 0.21908385 -0.24327418 -0.055110663 -0.13534288
-0.0116832815 -0.06610642 0.29342055 -0.07633735 -0.087213315 0.18612215 0.11401109 0.06327648
0.04268389 -0.09747159 0.01334934 0.07681269 0.12714404 0.046091437 -0.20513998 -0.00048334233
0.027347889 0.08322507 0.20289695 0.09934022 0.066913806 0.035601858 -0.1300291 -0.04108009
0.050211783 0.2028266 -0.20268981 -0.19095184 0.24878146 0.26590094 0.028987812 0.5694545
-0.013432955 0.059527777 -0.0073959976 -0.13560687 -0.3591315 -0.20981726 0.117685415 -0.045297563
00000000: 8cc1 55be abfd 3ebe 44c2 37be 9f47 c8be
00000010: 2b2a 41be 56f3 21bd 02ee 6e3e 2440 8dbe
00000020: 3a4b 0e3d 4907 593e 8f08 82be e175 e6bd
00000030: 1b0b ccba c955 143e eec0 70be 558b cbbd
00000040: 83d4 4cbe 7383 0abd daa2 9cbc 9895 083e
00000050: 8223 69be b06d c4bc be5b 223e ac5c 8f3d
00000060: b297 d4bc daba 6b3e 34f9 abbd 1602 103d
00000070: 17d7 873e 0c18 d6be 9b4f b03c de66 c83d
00000080: bb58 083d e178 08bd 34d9 f9bc 3588 8cbd
00000090: eb65 d03b 8d86 a1bd 57dd 0dbd ba4d 38be
000000a0: 24b8 84be 9787 bb3e 5c39 263e 65e9 273e
000000b0: b9b5 c63d b232 f0bd 4372 64bc cbf2 d6bd
000000c0: f90b 6cbe 0ef9 3abe 9cb0 5a3d 891e c53d
000000d0: f184 633d 3468 943d 070f 663e 80e4 4cbe
000000e0: 91c0 11bc 53e5 71be e297 56be e611 4c3d
000000f0: 4153 533e 3957 bf3d 9ca6 04be 571f 893e
00000100: 8ddc 923e 1659 94be 8d48 6fbe ed7e 3a3e
00000110: e643 cfbd 88b4 943c aa4d 513e 6895 363e
00000120: ccf4 c7bd 169a 393d 6aef 5a3d e7af 2b3e
00000130: e5cd 00be c367 e23e 0b66 bbbe 12b2 b93b
00000140: 7ece 973d d34c 053e 9836 17be 3608 d53d
00000150: e907 7dbe 99bb 01be 8e36 d93e 3199 b93d
00000160: c961 e2bb 96c5 653c 1e5e 4ebe 9427 fc3d
00000170: a050 80be a952 c3bd c0cd b9be 9203 debc
00000180: 9d9b 8d3e 6386 adbd de93 7bbe 89b9 12bd
00000190: ce03 303e 6786 dc3d ac87 a3bd 92e6 523d
000001a0: e1b8 f6bc 0f46 833d f0d7 0c3c e0a2 9f3d
000001b0: e1aa a33d 9979 0dbd f30e db3e 1b55 63be
000001c0: dd84 13be a118 5d3e ac19 403d 61f4 9a3e
000001d0: f321 f73c 2111 b1bd d4f9 25be 4e55 30be
000001e0: 5b1f 4bbe d118 133e 8fae 293d a0b4 2a3e
000001f0: 330a 153e ec62 a53e 7c3c 1d3e eb59 2a3d
00000200: 3b46 703e e1e0 973d cf7e 7abe 2a20 013f
00000210: e993 563e 305d 7f3c e1cb 7fbd 6eee ce3e
00000220: 5c21 1e3d d5a2 423b 4845 e6bc e2b8 63bd
00000230: ee59 37bd a138 c3bd b96b 0a3e 475a 4b3e
00000240: ae4b 5fbd 8fd1 a0bd 55c9 3dbc 4682 36bd
00000250: 6758 043e 147b 1e3e c960 0e3e 7af8 893c
00000260: 7964 8e38 7c27 67bd 422e 073d 1a2d 14be
00000270: 1450 87be 22b4 f63d 7786 373d 9223 bc3d
00000280: 9f93 b13c 1c52 c23e de04 cc3d 944d d13d
00000290: 5fa9 adbd ada5 44bd bddf 7f3d 658e 673e
000002a0: 73f0 913d eb79 bdbe c70e f83c 5b4b e13e
000002b0: 2b2c 12be 631b 5bbe 7c70 45bd 3a67 a13b
000002c0: c6c1 edbc 1fc7 36bd 1cfb ba3c d3bb 8cbb
000002d0: 5a69 cbbc eff8 c2bd 807c 66bd 68dc 603e
000002e0: 98a9 62be ffe8 e73d 3bc8 903e 5eb9 9abd
000002f0: 0b41 75be f1f2 c9bc 74c9 053f 9467 88bd
00000300: dd16 b1bd c27b 00be e0b7 bcbd d71d e13d
00000310: 388b 06be 37ff b43c f9f1 9dbd 77ef af3d
00000320: 2d13 e0bd 8232 9ebe 970f 91be 84a4 8ebd
00000330: 41a2 773c 52ee 4dbc 9929 9fbc a6e1 a1bc
00000340: b218 24be eead bb3e 299b 173f c351 5b3d
00000350: 8457 603e de1c 79be b8bb 61bd 5397 0abe
00000360: 3c6b 3fbc cd62 87bd 383b 963e c256 9cbd
00000370: e59c b2bd ce96 3e3e a57e e93d 1997 813d
00000380: 4dd5 2e3d 2f9f c7bd 31b7 5a3c f94f 9d3d
00000390: 0c32 023e 60ca 3c3d 3710 52be 1c69 fdb9
000003a0: ae08 e03c e871 aa3d 38c4 4f3e e372 cb3d
000003b0: 1b0a 893d 41d3 113d 5926 05be 9943 28bd
000003c0: dfaa 4d3d c7b1 4f3e eb8d 4fbe e188 43be
000003d0: 91c0 7e3e 2b24 883e d977 ed3c c5c7 113f
000003e0: e615 5cbc 66d3 733d 205a f2bb 87dc 0abe
000003f0: 15e0 b7be 56da 56be 0d05 f13d f089 39bd

fc2.bias f4 [64]
0.21360388 0.0116785215 0.3761583 0.10687991 0.16191494 -0.047385376 -0.09238312 -0.12818551
-0.07527407 -0.023105774 0.0033996687 0.09283801 -0.04117538 -0.07200367 0.081339546 0.12939756
0.03443176 -0.08686716 -0.05855766 0.09583629 -0.19862749 -0.13761109 0.08074925 0.09868469
0.05762082 -0.028128287 -0.16949041 0.20706749 -0.03934973 -0.07670182 -0.15698609 0.21419176
0.08673118 0.25754333 -0.085281916 -0.109083876 0.22633286 0.0657329 -0.26081622 -0.066986874
-0.08013518 0.13646798 -0.1306951 0.0043620835 0.23063347 0.04664333 -0.13359636 0.011430986
-0.06007456 -0.03096296 0.05598891 0.2890868 0.12221933 -0.0207573 -0.038655415 0.22688529
0.07478974 -0.106117375 0.16336527 0.123259336 0.01307535 0.24275288 -0.04053549 -0.07632348
00000000: faba 5a3e 4557 3f3c d297 c03e dbe3 da3d
00000010: 08cd 253e 2b17 42bd 5c33 bdbd 1043 03be
00000020: 4b29 9abd 5248 bdbc facc 5e3b db21 be3d
00000030: 84a7 28bd a976 93bd 5995 a63d cb80 043e
00000040: 5108 0d3d 69e7 b1bd 28da 6fbd d145 c43d
00000050: 0165 4bbe ece9 0cbe dd5f a53d 331b ca3d
00000060: cf03 6c3d 4b6d e6bc e58e 2dbe 8009 543e
00000070: 2f2d 21bd d815 9dbd f6c0 20be 1655 5b3e
00000080: 1ea0 b13d b8dc 833e 49a8 aebd 5e67 dfbd
00000090: cdc3 673e f89e 863d b489 85be 6a30 89bd
000000a0: ea1d a4bd 43be 0b3e f0d4 05be cfef 8e3b
000000b0: 2e2b 6c3e 140d 3f3d 7ccd 08be 0849 3b3c
000000c0: be10 76bd 09a6 fdbc a154 653d 2f03 943e
000000d0: 214e fa3d 370b aabc 2455 1ebd 9e54 683e
000000e0: 5d2b 993d 1154 d9bd 3a49 273e 646f fc3d
000000f0: fe39 563c 3694 783e 8b08 26bd 7c4f 9cbd

fc3.weight f4 [10, 64]
-0.10684543 -0.36522436 -0.5778336 -0.57919997 0.08961645 -0.22239217 -0.12010297 0.18476671
-0.07639672 -0.32694408 0.19003904 0.2115799 -0.0491652 -0.14986591 -0.24242483 -0.14931513
-0.15005423 0.016172072 0.16002432 0.16649927 -0.028384527 -0.051149458 0.1743194 -0.38660696
-0.19422354 -0.091742784 -0.16732942 -0.19394326 0.2116298 -0.13460289 -0.08214563 -0.31822804
-0.23924974 -0.33508027 0.23969607 -0.046104945 0.17016827 0.19994646 -0.075611725 -0.2773644
-0.04592388 -0.5609372 0.13710888 0.30850893 -0.10309923 -0.20233843 0.24474487 -0.06200828
0.16255787 -0.13929638 0.013794646 0.24153149 -0.30440953 0.122506104 -0.09318257 -0.4041339
-0.11850184 -0.36509627 -0.041098006 -0.2705125 -0.37606776 -0.36310574 -0.20592053 0.25721544
-0.2678109 0.10925615 0.09514046 0.16363089 0.09042171 0.07211389 0.016207462 0.011759944
-0.029216086 0.048005205 -0.45863172 -0.28274614 -0.37310567 -0.20461418 0.15675138 0.13915329
-0.066170596 0.07147111 -0.4235364 -0.3400319 -0.15360922 -0.28925225 -0.5581112 0.061762244
0.19303131 0.077288784 0.20467825 -0.16549042 -0.2794967 -0.22517769 -0.15635349 0.28239802
0.22667214 0.20307796 -0.4112376 0.07573068 -0.0024074723 -0.24588813 -0.12802897 0.18323152
0.13091958 0.14978759 -0.28265065 0.25492632 -0.14327373 0.13247274 -0.07744285 -0.26176596
0.1179634 -0.21359488 -0.11552257 -0.36128917 0.14682539 -0.19981363 -0.066484936 0.17810619
-0.061288323 0.107810214 0.124392204 0.078898855 0.14357649 0.17972383 0.16419415 -0.38000375
-0.34112337 -0.35000795 -0.49063352 -0.18309873 0.13464707 0.14046337 0.2104319 0.19624057
-0.07008598 -0.39669788 0.01914007 -0.13993505 0.24543263 0.299539 0.23001748 -0.086178854
-0.111666806 -0.2550025 0.0882152 -0.33640942 -0.06549851 -0.17116976 -0.05951795 -0.5467678
0.19574869 -0.039219514 -0.2867693 -0.20223024 -0.19232078 -0.17622635 -0.4715757 -0.10308286
0.2254915 -0.11763483 0.02644944 0.02328517 -0.3800739 0.058071196 0.2045882 -0.06682365
0.066925995 0.00087720726 0.11471859 -0.041611567 -0.33797684 0.17074354 0.10367456 -0.33045787
0.1596712 -0.41311848 0.18162622 -0.12743862 0.086149625 0.12238047 0.2042518 -0.51082057
0.15449974 0.04391883 0.094162405 0.16096868 0.1235917 -0.1250547 -0.09928799 0.17961442
-0.09755471 0.18430178 -0.14117737 -0.39915895 -0.26446724 0.17245933 0.10382872 0.16390342
-0.046929352 0.19254474 0.095190436 -0.3404082 -0.16454919 0.090211086 -0.24331588 -0.2720742
-0.097135454 0.24943465 0.078444526 -0.16421264 -0.027326286 0.2137311 -0.085654914 0.070829526
0.055126373 0.09738497 0.19114149 -0.3241808 -0.09637989 0.18922807 -0.07386577 -0.25699568
0.052641068 -0.039209943 0.15182787 -0.05450998 0.021515826 -0.100976035 0.22167382 0.1580392
-0.29701442 -0.02577057 0.16356209 -0.20831665 -0.2704108 -0.02800631 0.14805682 0.16898133
-0.002019288 0.14051425 0.10915314 -0.45400146 -0.1090588 0.0995193 0.16029693 0.1472332
-0.24218276 0.24059689 0.059179936 -0.5048628 -0.058553718 -0.37123522 0.16961412 0.03828176
00000000: c7d1 dabd b0fe babe e7ec 13bf 7346 14bf
00000010: d488 b73d c6ba 63be 8cf8 f5bd 7c33 3d3e
00000020: e275 9cbd 3765 a7be 9899 423e 67a8 583e
00000030: 7361 49bd 7376 19be 373e 78be 11e6 18be
00000040: d1a7 19be 4b7b 843c 6add 233e c97e 2a3e
00000050: ab86 e8bc 1882 51bd c980 323e 59f1 c5be
00000060: 89e2 46be a4e3 bbbd 6758 2bbe 1099 46be
00000070: 7bb5 583e 57d5 09be f83b a8bd c9ee a2be
00000080: e2fd 74be a48f abbe e372 753e 8ad8 3cbd
00000090: 9740 2e3e c4be 4c3e 52da 9abd b502 8ebe
000000a0: ae1a 3cbd 9599 0fbf 4566 0c3e e2f4 9d3e
000000b0: b025 d3bd ce31 4fbe 669e 7a3e 65fc 7dbd
000000c0: 9275 263e b6a3 0ebe f002 623c 0854 773e
000000d0: 91db 9bbe 7be4 fa3d 81d6 bebd a3ea cebe
000000e0: 18b1 f2bd e6ed babe 6256 28bd 9d80 8abe
000000f0: f48b c0be ffe8 b9be d5dc 52be beb1 833e
00000100: 831e 89be b0c1 df3d 00d9 c23d db8e 273e
00000110: 042f b93d 72b0 933d 83c5 843c c8ac 403c
00000120: 9356 efbc 1ba1 443d c7d1 eabe 1ac4 90be
00000130: b507 bfbe 6186 51be 6f83 203e 337e 0e3e
00000140: 7384 87bd 725f 923d c3d9 d8be a918 aebe
00000150: bc4b 1dbe df18 94be 60e0 0ebf 68fa 7c3d
00000160: 00aa 453e 9549 9e3d 2d97 513e 5276 29be
00000170: 311a 8fbe fb94 66be 211b 20be 7996 903e
00000180: be1c 683e abf3 4f3e bc8d d2be b018 9b3d
00000190: afc6 1dbb 19ca 7bbe 071a 03be 0ba1 3b3e
000001a0: c80f 063e eb61 193e 96b7 90be b485 823e
000001b0: 59b6 12be efa6 073e 5b9a 9ebd 3006 86be
000001c0: cc96 f13d 9eb8 5abe 1997 ecbd e5fa b8be
000001d0: 6559 163e f29b 4cbe 4129 88bd 7861 363e
000001e0: 7709 7bbd 9acb dc3d 57c1 fe3d b995 a13d
000001f0: b705 133e 8609 383e 8322 283e da8f c2be
00000200: b9a7 aebe 3e34 b3be 5134 fbbe 3c7e 3bbe
00000210: ece0 093e a1d5 0f3e 767b 573e 4af3 483e
00000220: 3d89 8fbd fc1b cbbe a3cb 9c3c 224b 0fbe
00000230: b152 7b3e 2d5d 993e b489 6b3e 8a7e b0bd
00000240: 91b1 e4bd b08f 82be 2caa b43d db3d acbe
00000250: 1524 86bd 2047 2fbe 18c9 73bd f9f8 0bbf
00000260: 5872 483e a4a4 20bd 6dd3 92be 7215 4fbe
00000270: bdef 44be ae74 34be 5f72 f1be 1b1d d3bd
00000280: 3ee7 663e 88ea f0bd 7fac d83c 8ac0 be3c
00000290: 0c99 c2be 10dc 6d3d 927f 513e d6da 88bd
000002a0: 7f10 893d 62f4 653a 95f1 ea3d e470 2abd
000002b0: 4d0b adbe 65d7 2e3e 5453 d43d c631 a9be
000002c0: d980 233e 4484 d3be 39fc 393e 457f 02be
000002d0: 376f b03d 9da2 fa3d 6227 513e 23c5 02bf
000002e0: 2e35 1e3e 3be4 333d 38d8 c03d f9d4 243e
000002f0: a51d fd3d 570e 00be 8057 cbbd d8ec 373e
00000300: c4ca c7bd 9bb9 3c3e cd90 10be 905e ccbe
00000310: 4068 87be 2e99 303e 27a4 d43d 4cd6 273e
00000320: fe38 40bd 732a 453e 34f3 c23d fc49 aebe
00000330: 957f 28be 97c0 b83d cc27 79be 4f4d 8bbe
00000340: f4ee c6bd cc6b 7f3e 86a7 a03d 5c27 28be
00000350: 60db dfbc 53dc 5a3e d86b afbd 120f 913d
00000360: 31cc 613d c571 c73d 98ba 433e 07fb a5be
00000370: d262 c5bd 01c5 413e f046 97bd f094 83be
00000380: 299e 573d 9b9a 20bd c478 1b3e db45 5fbd
00000390: f541 b03c 86cc cebd 76fe 623e 07d5 213e
000003a0: 4612 98be cd1c d3bc d27c 273e f650 55be
000003b0: 4973 8abe 7d6d e5bc 359c 173e 7109 2d3e
000003c0: 0856 04bb f8e2 0f3e ae8b df3d e172 e8be
000003d0: 385a dfbd c6d0 cb3d e124 243e 4dc4 163e
000003e0: c2fe 77be 085f 763e a966 723d b03e 01bf
000003f0: 06d6 6fbd 8b12 bebe 53af 2d3e 56cd 1c3d

fc3.bias f4 [10]
0.026365569 0.08088606 -0.037289526 -0.226458 0.17606896 0.12756956 0.046073806 -0.14769906
0.1168159 0.17624386
00000000: 9bfc d73c 97a7 a53d e7bc 18bd 9be4 67be
00000010: 6c4b 343e 98a1 023e e3b7 3c3d 6c3e 17be
00000020: 2d3d ef3d 4579 343e
