s2_Organization_and_version_control/M6 - Code Structure/models/training_model.pt (torch, 439839 bytes, 6 tensors)

fc1.weight f4 [128, 784]
0	0xbc2fb23c	-0.010723647
1	0x3c056be0	0.008143395
2	0xbc8379ba	-0.016049255
3	0xbcb4a500	-0.022051334
4	0x3bab8ce8	0.005235303
5	0x3c573594	0.013135333
6	0xbc30a08a	-0.010780463
7	0x3c80a79e	0.015704926
8	0x3cb6aa76	0.022298079
9	0x3c9d1d0c	0.01917889
10	0x3c2a2680	0.010385156
11	0xbcb6de63	-0.02232284
12	0x3cbed496	0.023294728
13	0xbcfe49ea	-0.031041104
14	0xbad53ea0	-0.0016269274
15	0xbce6dbea	-0.028181035
16	0xbbd845dc	-0.0066001248
17	0x3c584778	0.013200633
18	0x3cb9362e	0.022608843
19	0xbd08e38b	-0.033420127
20	0xbc8c4b5e	-0.017125782
21	0xbb0c5410	-0.002141241
22	0xbd0e64da	-0.03476415
23	0x3c7361fc	0.014854904
24	0xbbbaba14	-0.005698452
25	0x3c95e506	0.018297683
26	0x3cc244b8	0.023714408
27	0x3d01b391	0.03166539
28	0x3ad23100	0.0016036332
29	0x3cbde22c	0.023179136
30	0xbc9221f3	-0.017838454
31	0x3c27d1e8	0.010242917
32	0xbcc093d5	-0.023507992
33	0xbca903b8	-0.020631656
34	0x3cdbdc5a	0.02683847
35	0x3c18c188	0.009323485
36	0x3cefb8c2	0.029262904
37	0xbcdc28c3	-0.026874905
38	0xbbbaf85c	-0.0057058763
39	0x3ce38e26	0.027777743
40	0xbccea6fc	-0.025226109
41	0x3d02ddfb	0.03194998
42	0x3ce39ba6	0.02778418
43	0x3a81b040	0.0009894446
44	0xbc056092	-0.0081407
45	0xbc5a0b6a	-0.013308385
46	0xbc91031c	-0.017701678
47	0xbc6d5720	-0.014486104
48	0x3c7261dc	0.014793839
49	0x3cd3d67a	0.025859106
50	0xbca70033	-0.020385837
51	0xbcd96a88	-0.026540056
52	0xbc1f28d2	-0.009714322
53	0xbd0afcde	-0.03393256
54	0xbc211098	-0.009830616
55	0x3c800ec0	0.015632033
56	0xbcd04ca0	-0.025427163
57	0x3a9db100	0.00120309
58	0xbcf2b078	-0.029625162
59	0x3cde2bea	0.02712055
60	0xbc976d1c	-0.018484645
61	0xbd050fff	-0.03248596
62	0xbaece3e0	-0.0018073283
63	0xbade42e0	-0.0016957186
64	0x3c1cb2f0	0.009564146
65	0xbc0a30ca	-0.008434484
66	0xbcfa35da	-0.030543257
67	0x3caedda0	0.021345913
68	0x3ccdf2c8	0.025140181
69	0x3cb9d4fc	0.022684567
70	0x3b9072d0	0.004408218
71	0xbcac788a	-0.021053571
72	0x3c7eeb54	0.015559036
73	0xbc455e52	-0.0120464135
74	0x3d1191f9	0.0355396
75	0xbc5b0b0a	-0.013369331
76	0x3c95d760	0.018291175
77	0xba859ac0	-0.0010193214
78	0xbd06b925	-0.03289141
79	0xbcde7223	-0.027154034
80	0xbb061f80	-0.0020465553
81	0xbc5dbbf8	-0.013533585
82	0x3ca91a6a	0.020642478
83	0xba303940	-0.0006722398
84	0x3c6e5330	0.014546201
85	0x3bc4b230	0.006002687
86	0x3b5a78a0	0.0033336058
87	0xbc963d0c	-0.018339656
88	0xbd016425	-0.031589646
89	0xbca76b6c	-0.020436965
90	0xbc6d107c	-0.014469262
91	0xbc43e5f2	-0.011956679
92	0x3ce91dce	0.028456595
93	0xbc755b4e	-0.014975382
94	0xbc957dc5	-0.018248448
95	0xbcab37e5	-0.020900676
96	0x3c1a65c5	0.009423678
97	0xbd0afadc	-0.033930644
98	0xbd59c9f0	-0.0531711
99	0x3cafe760	0.021472633
100	0x3cb64e8e	0.022254255
101	0x3cec078e	0.028812196
102	0x3ba33cb8	0.0049816035
103	0xbd037168	-0.032090575
104	0xbc9eb7ec	-0.01937481
105	0x3d0ea877	0.03482863
106	0xbb6c6f60	-0.0036077127
107	0xbc52d832	-0.012868928
108	0xbcd7395c	-0.026272468
109	0x3b03faf0	0.0020138584
110	0xbc72182e	-0.014776273
111	0x3c7b2a74	0.015329946
112	0xbc6087d2	-0.013704257
113	0x3ca4caca	0.020116229
114	0x3c8d658a	0.017260332
115	0xbcf3e87c	-0.029773943
116	0xbc798fc0	-0.015232027
117	0xbce7d391	-0.028299125
118	0x3c759994	0.014990229
119	0x3c96add2	0.01839343
120	0x3c890f54	0.016730942
121	0xbcfc74b6	-0.03081737
122	0xbd23a437	-0.03995153
123	0xbd46345c	-0.048389778
124	0xbd2a4286	-0.041567348
125	0xbccebf0e	-0.025237586
126	0xbb3d5a7c	-0.0028893044
127	0xbceeacea	-0.029135186
128	0x3c0078b2	0.007841276
129	0x3c2a8425	0.010407482
130	0x3b78b0d0	0.0037947185
131	0xbd50ee6f	-0.051008638
132	0xbce031f5	-0.027367571
133	0x3cc33760	0.023830116
134	0x3d0d5461	0.034504298
135	0xbc848983	-0.016178852
136	0xbb58a1b0	-0.0033055358
137	0x3c903adc	0.017606191
138	0xbc24a2c6	-0.010048574
139	0xbcaa2a45	-0.020772109
140	0x3cca8220	0.024720252
141	0xbc9f789c	-0.01946669
142	0x3cd7cc6a	0.02634259
143	0xbbbed240	-0.0058234036
144	0xbce7a4fe	-0.028276917
145	0xbd072498	-0.032993883
146	0x3c16a723	0.009195122
147	0x3cb4d957	0.022076292
148	0x3c9f927c	0.019479029
149	0xbd456895	-0.04819544
150	0x3c67ad0a	0.014140377
151	0xbcb8caa3	-0.022557562
152	0xbcd0a785	-0.025470505
153	0xbce2243f	-0.027605174
154	0x3ba105fe	0.0049140444
155	0xbcc3b90d	-0.02389195
156	0xbd1a9162	-0.037736304
157	0xbcfaa108	-0.030594364
158	0xbc376a23	-0.011194739
159	0xbc036eb5	-0.008022
160	0xbc82345e	-0.015894111
161	0xbca1177a	-0.019664515
162	0xbd06b1d0	-0.03288442
163	0x3bca4a48	0.006173406
164	0x3b610710	0.0034336485
165	0x3bfd08b0	0.007721983
166	0x3cce790e	0.025204208
167	0x3bc57a78	0.0060265623
168	0xbc5b70fc	-0.013393637
169	0x3cc46126	0.023972105
170	0x3bf10908	0.007355813
171	0xba463d80	-0.0007562265
172	0x3ca781fe	0.020447727
173	0x3d3c47cb	0.045966905
174	0x3d025abf	0.031824823
175	0x3ca4981b	0.02009206
176	0x3a8cd65f	0.001074504
177	0x3c2e53f2	0.010640131
178	0xbd546675	-0.051855523
179	0xbd3aafef	-0.04557794
180	0xbcc1bfa0	-0.023650944
181	0xbd0542eb	-0.03253452
182	0xbc7bd23c	-0.015369948
183	0xbcfb6c87	-0.030691398
184	0x3c0eaeab	0.008708636
185	0xbcd3719d	-0.025811011
186	0xbca9556e	-0.020670619
187	0x3c51d3d1	0.012806849
188	0xbb0621d5	-0.0020466943
189	0x3cab091e	0.02087837
190	0xbcdb0735	-0.026736835
191	0x3b803a90	0.003913231
192	0x3c9cc622	0.019137446
193	0xbcc640c5	-0.024200806
194	0xbca007e0	-0.019535005
195	0xbcc4e843	-0.024036532
196	0x3b565700	0.0032705665
197	0x3bcbd0a8	0.006219942
198	0x3c6bcb04	0.014391664
199	0x3cd0a266	0.025468063
200	0x3c851104	0.016243465
201	0x3c80428f	0.015656738
202	0x3cec7f6c	0.028869353
203	0x3c90693e	0.017628308
204	0x3ce18938	0.027531251
205	0xbc8a1d1b	-0.016859582
206	0xbce391f3	-0.027779555
207	0xbccea8a8	-0.025226906
208	0xbc8d45db	-0.017245224
209	0xbd4c7dfa	-0.049924828
210	0xbd7a48a7	-0.061104443
211	0xbc734d46	-0.014849966
212	0xbd258f36	-0.04041978
213	0xb9e632ff	-0.00043907014
214	0x3bde85df	0.006790861
215	0xbb03a0bd	-0.002008482
216	0x3bc02a81	0.005864442
217	0xbc6fa99e	-0.014627842
218	0x3d0f8a6f	0.03504413
219	0xbab105e0	-0.0013505779
220	0x3c680530	0.014161393
221	0xbcffb6e5	-0.03121514
222	0xbab8a600	-0.0014087558
223	0x3c405df0	0.011741146
224	0x3d080b79	0.033214066
225	0x3c33c340	0.010971844
226	0xbcba6cfc	-0.022757046
227	0xbb8d3510	-0.004309304
228	0x3cd85316	0.026406806
229	0x3b6dcebf	0.003628656
230	0xbc2dcfa7	-0.01060859
231	0xbc650d6e	-0.013980253
232	0xbd2a4c63	-0.041576754
233	0xbd4371c9	-0.047715936
234	0xbc253a64	-0.010084722
235	0xbd01f7a7	-0.03173032
236	0xbc5ab9d7	-0.013349972
237	0x3c71cbd3	0.014758068
238	0x3cc5ec6f	0.024160592
239	0xbc61015d	-0.013733235
240	0xbcf526db	-0.029925754
241	0xbd611464	-0.054951087
242	0x3bfe302e	0.0077572083
243	0x3c6ee084	0.014579896
244	0x3c2b2eae	0.010448141
245	0x3b0d74d2	0.0021584523
246	0xbc6483ae	-0.0139474105
247	0xbb4952f0	-0.00307196
248	0xbcc0759e	-0.023493584
249	0x3ceb7486	0.028742086
250	0xbcdd1ff0	-0.026992768
251	0xbba978d4	-0.0051718745
252	0x3d0e02e3	0.03467072
253	0x3c1b99e0	0.009497136
254	0x3d035eff	0.032073017
255	0x3c7b4070	0.015335187

fc1.bias f4 [128]
0	0xbd106a59	-0.03525767
1	0xbde11cc8	-0.10991818
2	0x3db422cb	0.08795699
3	0x3e7b7e5d	0.24559923
4	0xbdb1dd8c	-0.08684835
5	0xbe619f68	-0.22033465
6	0xbcd9f515	-0.026606122
7	0xbedb178c	-0.42791402
8	0xbd747b8f	-0.059688147
9	0xbc8f2756	-0.017474812
10	0xbe23576d	-0.15951319
11	0xbe4d368e	-0.20040342
12	0x3e86dbb4	0.26339495
13	0x3e533d4f	0.20628856
14	0xbe5773cc	-0.21040267
15	0xbd145701	-0.036215786
16	0xbd66b517	-0.056325044
17	0xbe87ecf9	-0.26547983
18	0xbd884618	-0.06653994
19	0xbde4f3d0	-0.11179316
20	0xbef8e4ac	-0.48611963
21	0xbe1550fe	-0.14581677
22	0xbe45c053	-0.19311647
23	0xbbeb8684	-0.0071876664
24	0xbcaea4d7	-0.021318836
25	0xbece2723	-0.40264234
26	0xbd4fee5e	-0.050764434
27	0x3e24ac0d	0.16081257
28	0xbc9f4c90	-0.019445688
29	0xbe251bc5	-0.16123874
30	0xbc39ad58	-0.011332832
31	0x3e5cc9c6	0.21561345
32	0xbd95545a	-0.072914794
33	0xbca8bc32	-0.020597551
34	0xbb3176b3	-0.0027078807
35	0x3e08ae51	0.13347746
36	0x3e9eace7	0.3099129
37	0xbdb7d75d	-0.08976624
38	0xbbb875cc	-0.005629277
39	0xbe0bed35	-0.13664706
40	0x3e9825b2	0.2971626
41	0xbaa049a0	-0.0012228973
42	0x3c87e6a3	0.016589468
43	0x3ee2ecc1	0.44321254
44	0x3e652f7a	0.22381392
45	0xbc760ac7	-0.015017218
46	0xbe82a238	-0.25514388
47	0xbe4d4400	-0.20045471
48	0xbea6be20	-0.3256693
49	0xbd2bbbf6	-0.0419273
50	0xbd0e7581	-0.03478003
51	0xbe7664c3	-0.24061875
52	0x3baded82	0.005307854
53	0xbc0b5bc7	-0.008505768
54	0xbf449944	-0.76796365
55	0xbba7909a	-0.0051136734
56	0xbc45b713	-0.012067574
57	0xbeba57f3	-0.36395225
58	0xbe0339c1	-0.12815
59	0xbf0e6a15	-0.5563062
60	0x3e079841	0.13241674
61	0xbd3c9434	-0.046039775
62	0xbb3af7e2	-0.0028529097
63	0xbe0b1425	-0.13581903
64	0xbd0c38bd	-0.034233797
65	0x3da4ff7a	0.08056541
66	0x3c5ec1ed	0.01359604
67	0xbea2e611	-0.31816152
68	0x3dd9cc82	0.1063471
69	0xbcf68d0c	-0.030096553
70	0x3e6c5524	0.23079354
71	0xbed004ed	-0.40628758
72	0x3d64a125	0.055817742
73	0x3d2653b3	0.040607166
74	0xbba90c69	-0.00515895
75	0xbe0d7f70	-0.13818145
76	0xbd87feaa	-0.0664037
77	0xbd260dae	-0.04054039
78	0xbb56ae86	-0.0032757833
79	0x3dbf067a	0.09327407
80	0xbe781e6a	-0.24230352
81	0xbe51ae4e	-0.20476648
82	0xbe8c4137	-0.27393505
83	0x3da53c61	0.08068157
84	0x3d122954	0.035683945
85	0xbca88ad4	-0.02057401
86	0xbceba6ae	-0.028766003
87	0xbe286ea5	-0.16448458
88	0x3de9d465	0.11417464
89	0x3e1dcb62	0.15409616
90	0xbcabba4d	-0.020962859
91	0x3e2e5c57	0.17027412
92	0x3e865b9b	0.26241764
93	0x3d335c6a	0.043789305
94	0x3c874b94	0.01651553
95	0x3eb3e045	0.35132042
96	0x3e479f21	0.19494297
97	0xbdb32b43	-0.08748486
98	0xbe34cee7	-0.17657052
99	0xbdfc37c2	-0.123153225
100	0xbe9bcf65	-0.30431667
101	0x3df854fb	0.12125584
102	0x3e5ac600	0.21364594
103	0x3bc3ae96	0.00597174
104	0xbd3aa89e	-0.045570962
105	0x3e140eba	0.14458743
106	0x3e4e250e	0.20131323
107	0xbebb449d	-0.36575785
108	0x3c0b16b5	0.0084893005
109	0xbe364099	-0.1779808
110	0x3e1cfda3	0.1533113
111	0xbee23799	-0.44183043
112	0xbcc66933	-0.024220085
113	0x3e646e0d	0.22307606
114	0x3c1c90b7	0.009555987
115	0xbd049088	-0.0323644
116	0xbde7a711	-0.11311162
117	0x3dbf477c	0.093398064
118	0xbe837451	-0.2567468
119	0xbc52e17c	-0.0128711425
120	0xbc9f7766	-0.019466113
121	0xba9ba0c4	-0.0011873473
122	0xbe5011bc	-0.20319265
123	0xbd47c0f8	-0.048768014
124	0xbd02db82	-0.03194762
125	0x3e9faff7	0.31188938
126	0x3de67a74	0.11253825
127	0x3e0d67d1	0.13809134

fc2.weight f4 [64, 128]
0	0x3cee7310	0.0291076
1	0x3bbb1157	0.005708854
2	0xbd923f96	-0.07141034
3	0xbda5cc99	-0.080956645
4	0xbdd62adf	-0.10457396
5	0x3e42b60d	0.1901476
6	0xbce5f5bf	-0.028071282
7	0x3ef2beca	0.47411186
8	0x3d9263b6	0.071479246
9	0xbcda3078	-0.02663444
10	0x3e69dfa4	0.22839218
11	0xbcce6c71	-0.025198193
12	0xbc87de36	-0.01658545
13	0xbe5e267d	-0.2169437
14	0x3ede4952	0.43415314
15	0x3d8161a9	0.06317455
16	0xbdc8e8db	-0.09810039
17	0xbe9659ad	-0.29365292
18	0xbe990e86	-0.29893893
19	0x3d36f25b	0.044664722
20	0xbd113d37	-0.03545877
21	0xbb599ad4	-0.0033203857
22	0xbe6e7793	-0.23287801
23	0x3df8cbdd	0.12148259
24	0xbbfc418a	-0.0076982426
25	0xbe02188c	-0.12704676
26	0xbd1875b4	-0.037221625
27	0xbeac7d76	-0.3368947
28	0xbcb15e91	-0.021651538
29	0x3e08eb64	0.13371044
30	0x3d0cd6bc	0.034384474
31	0x3e0cc031	0.1374519
32	0x3f464f75	0.7746499
33	0xbcac736c	-0.021051131
34	0x3d737a7a	0.059442975
35	0x3f2108df	0.6290416
36	0xbe627ce0	-0.22117949
37	0x3e56a803	0.20962529
38	0x3b10b5bf	0.0022080985
39	0xbebbc786	-0.36675662
40	0x3e0b0977	0.1357783
41	0x3d52f63a	0.05150435
42	0x3ca6fdd6	0.02038471
43	0xbe203aa6	-0.15647373
44	0xbc619339	-0.013768011
45	0xbd9a580d	-0.075363256
46	0x3eb463ca	0.35232383
47	0xbe093561	-0.13399269
48	0xbe000aa9	-0.12504067
49	0x3cda3f5f	0.026641546
50	0xbdb21231	-0.08694876
51	0x3de8be4e	0.11364423
52	0xbb836068	-0.0040092953
53	0xbd8c7e97	-0.068600826
54	0x3d8fa194	0.070132405
55	0xbba8938e	-0.005144543
56	0x3ceb0b31	0.02869186
57	0x3e4ea2e8	0.20179331
58	0xbd160cb7	-0.03663322
59	0x3e9b0fc9	0.3028548
60	0xbda78965	-0.08180503
61	0xbdb623c7	-0.08893543
62	0xbdac6fc9	-0.08419759
63	0xbec77ec5	-0.38963905
64	0x3eb6957f	0.3566093
65	0xbd1600e2	-0.036621936
66	0xbd42a96d	-0.04752486
67	0xbd890d3d	-0.06691978
68	0xbf1c42c3	-0.6103937
69	0x3d645369	0.05574361
70	0xbe3501b5	-0.17676432
71	0x3f02ed59	0.51143414
72	0xbdfabe3d	-0.12243316
73	0x3e951c31	0.2912307
74	0xbc2df83e	-0.010618268
75	0x3e91971c	0.284356
76	0x3ce990a4	0.028511353
77	0xbd8aca99	-0.06776924
78	0xbd2efd86	-0.042722248
79	0xbd07379a	-0.03301201
80	0x3d105e7c	0.035246357
81	0x3ee3c4bc	0.44486034
82	0x3e0349a1	0.12821056
83	0xbbd9bb1e	-0.0066446206
84	0x3e19dc87	0.15025531
85	0xbd0ab462	-0.033863433
86	0x3e311955	0.1729482
87	0xbda7e448	-0.08197838
88	0xbd90c259	-0.07068319
89	0x3eb695d0	0.35661173
90	0xbd111ea0	-0.035429597
91	0x3ee2952f	0.44254443
92	0x3d10105a	0.035171844
93	0x3f02d8ec	0.51112247
94	0xbd0d6435	-0.034519393
95	0x3db469f7	0.08809274
96	0xbd2874c7	-0.041126993
97	0x3df4555f	0.11930346
98	0xbec19216	-0.37806767
99	0x3cdc9826	0.026928019
100	0x3e38263b	0.17983334
101	0xbdcd4f3f	-0.100248806
102	0xbe1ce5c4	-0.15322024
103	0xbd8e7e94	-0.069577366
104	0x3dc7c4cc	0.09754333
105	0xbefd1028	-0.4942639
106	0xbe890f58	-0.2676952
107	0x3ecc5887	0.3991129
108	0x3e64cf8f	0.22344802
109	0x3f4ed967	0.8080048
110	0xbe3705c0	-0.17873287
111	0x3ef45b0e	0.4772572
112	0x3db2fc7d	0.087395646
113	0xbf162bf3	-0.5866081
114	0xbc731f8f	-0.014839067
115	0x3d8441ec	0.06457886
116	0xbdf89c8a	-0.121392325
117	0x3f218b38	0.63103056
118	0x3f494ea5	0.7863563
119	0xbc9274a2	-0.01787788
120	0xba90164b	-0.0010992972
121	0x3d0a01a8	0.033692986
122	0xbe4d2391	-0.20033099
123	0xbe895aa8	-0.26826978
124	0x3aa5ee04	0.0012659435
125	0xbe2eb3d7	-0.17060791
126	0x3f0dd9cd	0.5541046
127	0xbe47a436	-0.19496235
128	0xbd1f639a	-0.038913347
129	0x3d9a02e3	0.07520082
130	0x3eb7b4d9	0.35880163
131	0x3ea21718	0.31658244
132	0x3c527f3b	0.012847717
133	0xbd68708a	-0.05674795
134	0xbd081fc5	-0.033233423
135	0xbe7ddedb	-0.24792044
136	0xbd20605b	-0.03915439
137	0xbda42bc8	-0.08016163
138	0xbec89d4b	-0.39182505
139	0xbbb36b36	-0.005475427
140	0x3ebd9228	0.3702557
141	0x3dcc1565	0.09965018
142	0xbe4a21db	-0.19739477
143	0x3cad44e4	0.021151014
144	0x3e9de657	0.30839798
145	0x3de1d6a9	0.11027271
146	0xbde87289	-0.11349971
147	0x3b81abae	0.0039572334
148	0x3dfcb3da	0.123389915
149	0x3db540b9	0.088502355
150	0x3caac610	0.020846397
151	0xbe0250c9	-0.1272613
152	0xbdb2564e	-0.087078676
153	0xbdeae255	-0.11468951
154	0x3c6a6090	0.014305249
155	0xbdb10c3c	-0.08644912
156	0xbc85dd24	-0.0163408
157	0xbd6d7f01	-0.05798245
158	0x3c38f7f8	0.011289589
159	0xbe02c946	-0.12772092
160	0xbf190ef2	-0.5978843
161	0x3d3a19da	0.04543481
162	0xbc1cdea8	-0.00957457
163	0x3c91c029	0.017791824
164	0x3f1be3e7	0.60894626
165	0xbebdb50e	-0.37052196
166	0xbc85ed64	-0.016348548
167	0xbdff3b35	-0.12462465
168	0x3e7794bc	0.24177831
169	0x3daf845f	0.0857017
170	0x3a462680	0.00075588375
171	0x3bdf89d9	0.0068218526
172	0x3d9fdb03	0.07805445
173	0x3c76c978	0.015062682
174	0xbea2f7ad	-0.31829587
175	0x3e828d7d	0.25498572
176	0xbe9b1eb2	-0.30296856
177	0xbd277f52	-0.040892906
178	0x3daac6f5	0.08338729
179	0x3da0d9bb	0.07854029
180	0x3d934fc5	0.07192949
181	0xbeb270e9	-0.3485177
182	0xbeb07946	-0.34467524
183	0xbda357a0	-0.079756975
184	0xbcd1b5bc	-0.025599353
185	0xbecd71fa	-0.4012602
186	0x3daad51c	0.08341429
187	0xbebe7930	-0.37201834
188	0x3ea600d1	0.32422498
189	0x3d20675a	0.039161064
190	0xbd1047fd	-0.035224903
191	0x3e229963	0.15878825
192	0xbf08db6a	-0.534598
193	0x3e6beb0a	0.23038879
194	0xbcfff796	-0.031245988
195	0xbdf76adf	-0.12080931
196	0x3f225429	0.6340967
197	0xbd28f2bd	-0.04124712
198	0x3e928241	0.28615
199	0xbed56b3b	-0.41683373
200	0x3eae9d07	0.34104177
201	0xbda8de11	-0.08245481
202	0x3ce392d0	0.027779967
203	0x3e377758	0.1791662
204	0x3db08795	0.0861961
205	0x3daf3777	0.08555501
206	0x3e97a414	0.2961737
207	0x3dff973e	0.12480019
208	0x3d19d279	0.037554238
209	0xbe70a45a	-0.23500195
210	0xbe93e943	-0.28888902
211	0xbe2ee830	-0.1708076
212	0x3e210465	0.15724333
213	0x3eadf03b	0.33972344
214	0x3d4dc424	0.050235882
215	0xbec89eb8	-0.39183593
216	0xbe4151bc	-0.18878835
217	0x3d60fd5b	0.05492912
218	0x3c78b708	0.015180357
219	0xbf482db3	-0.7819473
220	0xbe29e003	-0.1658936
221	0xbeaf2564	-0.34208214
222	0xbcc049a8	-0.023472622
223	0x3e4563eb	0.19276397
224	0x3ef30e85	0.47472015
225	0x3e9ac75d	0.30230227
226	0xbd9d5aa6	-0.076833054
227	0xbdf43d22	-0.11925723
228	0xbe4e19d9	-0.20127048
229	0x3eba3728	0.36370206
230	0x3e3effa0	0.186522
231	0xbd9f66e5	-0.077832974
232	0x3b91f360	0.0044540614
233	0x3ea07384	0.3133813
234	0x3e8666ab	0.26250204
235	0xbea3c331	-0.31984857
236	0x3e49867b	0.19680206
237	0xbe790448	-0.2431804
238	0x3dfef33b	0.12448736
239	0xbe916e24	-0.28404343
240	0x3d67a05a	0.056549408
241	0x3f0f8185	0.56057006
242	0x3d739fce	0.059478574
243	0xbd960425	-0.07325009
244	0x3e6b46c8	0.2297622
245	0xbc6dc7eb	-0.014512996
246	0xbeb9af23	-0.3626643
247	0x3d9d4c1f	0.076805346
248	0x3db4ab39	0.08821721
249	0xbd691bd8	-0.05691132
250	0xbd44295d	-0.04789101
251	0x3da4abbc	0.08040568
252	0xbb5fe620	-0.0034164265
253	0x3e7fe866	0.24990997
254	0xbf04294d	-0.5162552
255	0x3e05f450	0.13081479

fc2.bias f4 [64]
0	0xbe431517	-0.19051014
1	0xbd5d3870	-0.0540089
2	0x3c8c3f1c	0.017119937
3	0xbcac5f6d	-0.021041596
4	0xbe3977d1	-0.18112113
5	0x3e4c5a88	0.1995641
6	0xbe4abbc3	-0.19798188
7	0x3e8005a4	0.25004303
8	0xbe43d249	-0.19123186
9	0x3c94e43e	0.01817524
10	0x3e9fc78e	0.31206936
11	0x3e74d38e	0.23908827
12	0xbcbe2402	-0.02321053
13	0xbe8e98ca	-0.27850944
14	0x3ec9ce85	0.39415374
15	0x3ec6a71f	0.38799378
16	0xbc154a62	-0.0091119725
17	0xbcdd7221	-0.02703196
18	0xbdfb08db	-0.122575484
19	0xbe15219f	-0.14563607
20	0xbec86b80	-0.39144516
21	0x3d87dd17	0.066339664
22	0x3df40078	0.11914152
23	0xbe4518c7	-0.19247733
24	0xbe43acd1	-0.19108893
25	0x3e3b52a6	0.18293247
26	0x3e0ed68c	0.1394903
27	0xbe5e8782	-0.2173138
28	0x3ea9a522	0.331338
29	0x3d931bb7	0.071830206
30	0x3d03a595	0.032140333
31	0x3e8f7cc5	0.2802488
32	0xbe5e3909	-0.21701445
33	0x3e048b03	0.12943654
34	0xbe043e81	-0.12914468
35	0x3ed003d2	0.40627915
36	0x3dc0f1f1	0.09421147
37	0xbb2a4c0c	-0.002598527
38	0xbd911ecf	-0.070859544
39	0x3e1d69f6	0.15372452
40	0xbd3972f5	-0.045275647
41	0x3c42bfa0	0.011886507
42	0xbd3f72b5	-0.046740253
43	0xbe940c6e	-0.28915733
44	0x3e38d5d1	0.18050314
45	0x3ebd6973	0.36994514
46	0x3bc98d15	0.0061508515
47	0xbd0e1854	-0.03469117
48	0xbe680aa1	-0.22660305
49	0xbe29bbc5	-0.16575535
50	0xbcaeb396	-0.021325868
51	0x3e5ccd48	0.21562684
52	0x3e818381	0.25295642
53	0xbddd2a81	-0.107991226
54	0xbe1d7602	-0.15377048
55	0xbd199f9c	-0.03750573
56	0xbe4b475c	-0.1985144
57	0xbc6e964f	-0.014562204
58	0xbe3011b4	-0.17194253
59	0xbe109baf	-0.14121889
60	0x3edd90ec	0.4327463
61	0x3ed26ab4	0.41097033
62	0x3d777746	0.060416482
63	0x3e424f13	0.18975477

fc3.weight f4 [10, 64]
0	0xbecc57c7	-0.3991072
1	0xbde12bc7	-0.10994678
2	0xbddb793f	-0.10716485
3	0x3ebc9842	0.36834913
4	0xbee93037	-0.45544598
5	0x3e08625e	0.13318774
6	0x3b895105	0.0041905665
7	0xbee63d08	-0.44968438
8	0xbd46896f	-0.04847091
9	0x3e9abeda	0.30223733
10	0xbef72099	-0.48267058
11	0xbe92997b	-0.2863272
12	0x3e89720d	0.26844826
13	0x3d5b9eb4	0.053618148
14	0xbf02c170	-0.5107641
15	0xbede002b	-0.43359503
16	0xbf0131b8	-0.5046649
17	0xbecaa686	-0.39580172
18	0xbdbb234d	-0.091375925
19	0x3eb5dbbb	0.35519204
20	0xbdebde3f	-0.115169995
21	0x3e32f49c	0.17476124
22	0xbeaebd88	-0.34128976
23	0x3e35e199	0.1776184
24	0x3cb8ce91	0.022559436
25	0x3e587875	0.211397
26	0xbec25e94	-0.37962782
27	0x3c82e5c7	0.015978707
28	0xbead073f	-0.3379459
29	0xbec4b2dd	-0.38417712
30	0xbec95534	-0.39322817
31	0xbdfd028a	-0.12354
32	0x3d96d364	0.07364538
33	0x3e018182	0.1264706
34	0x3e1ce04a	0.15319934
35	0x3e8288d9	0.2549503
36	0x3db2249b	0.08698388
37	0xbcfaa932	-0.030598257
38	0xbe87341b	-0.2640694
39	0x3ea27a3e	0.31733888
40	0xbdefd941	-0.1171136
41	0x3e3ee9ee	0.18643925
42	0xbec548a3	-0.3853198
43	0xbeed3141	-0.4632664
44	0xbe06d116	-0.13165697
45	0xbf16b656	-0.5887197
46	0x3ef628f4	0.4807812
47	0xbef175b6	-0.4716012
48	0x3eb8cd43	0.36094102
49	0x3ca186df	0.019717632
50	0xbe43800f	-0.19091819
51	0xbf05be3d	-0.52243406
52	0xbe4017fe	-0.18759152
53	0x3e000b42	0.12504295
54	0xbdd7bc16	-0.105339214
55	0x3efd51f4	0.49476588
56	0x3d9439ab	0.07237562
57	0x3eb463fd	0.35232535
58	0xbe863c62	-0.26217943
59	0x3eae72cd	0.3407196
60	0x3d9510aa	0.07278569
61	0xbf00e42d	-0.5034817
62	0xbf36a215	-0.7134107
63	0xbed0c0d2	-0.4077211
64	0x3e716741	0.23574544
65	0xbe96f1a8	-0.29481244
66	0x3db13b34	0.0865387
67	0x3d75fc95	0.060055334
68	0x3e101f65	0.14074476
69	0xbee4f374	-0.4471699
70	0xbe1695f6	-0.14705643
71	0x3d2d290d	0.042275477
72	0x3d65536e	0.055987768
73	0xbf1d1721	-0.61363417
74	0xbe9baa40	-0.30403328
75	0x3dab290b	0.08357438
76	0xbed6da8e	-0.4196362
77	0xbc0f0de8	-0.008731343
78	0x3e73e00d	0.23815937
79	0xbd35a57c	-0.04434727
80	0x3ec2e71f	0.38066956
81	0x3e9d16db	0.306815
82	0x3d080c12	0.033214636
83	0xbede953e	-0.43473238
84	0x3d5c4475	0.053776223
85	0xbe81d4d1	-0.2535768
86	0x3e884e6e	0.26622337
87	0xbf003fd8	-0.5009742
88	0x3e1ea28d	0.15491696
89	0xbeb4f4d1	-0.3534303
90	0x3e3aaad2	0.18229225
91	0xbf044964	-0.51674485
92	0xbf55580e	-0.83337486
93	0x3f1f6d13	0.6227581
94	0xbea1c81b	-0.3159798
95	0xbea8946f	-0.32925746
96	0xbe259a73	-0.16172199
97	0xbf3de958	-0.7418418
98	0xbf494282	-0.7861711
99	0xbeb616a6	-0.35564154
100	0xbec19916	-0.37812108
101	0x3ea9e843	0.33185014
102	0xbeb4bb6c	-0.35299242
103	0xbf15d93e	-0.5853461
104	0x3e5d0a49	0.21585955
105	0xbe392f1d	-0.18084379
106	0x3ddeb545	0.10874418
107	0x3d86e7c0	0.065871716
108	0x3e98e8fc	0.29865253
109	0x3e67cb40	0.22636127
110	0x3d77c46c	0.060490057
111	0x3e885ece	0.2663483
112	0xbf12930c	-0.57255626
113	0xbdbf75b6	-0.093486235
114	0xbf290053	-0.6601612
115	0x3e44ef24	0.1923185
116	0x3e3f0532	0.18654326
117	0xbf257b4e	-0.64641273
118	0x3d6271be	0.055284254
119	0xbea46cf5	-0.32114378
120	0xbd8e3af6	-0.0694484
121	0xbe82013f	-0.25391576
122	0x3e756750	0.23965192
123	0xbebd41ee	-0.36964363
124	0xbf57297a	-0.84047663
125	0x3e9ae538	0.30253005
126	0x3eaba230	0.33522177
127	0x3e5ad323	0.21369605
128	0x3e5c1652	0.2149289
129	0xbec4cc05	-0.38436905
130	0x3e3dd997	0.18540035
131	0xbdae3236	-0.08505671
132	0x3ea53d2a	0.32273227
133	0xbd3d6f85	-0.04624893
134	0x3d090045	0.033447523
135	0xbe886c08	-0.2664492
136	0xbb64c860	-0.0034909472
137	0x3e28a1b2	0.16467932
138	0xbf412280	-0.7544327
139	0x3e52d324	0.20588356
140	0xbf38da51	-0.72208124
141	0x3ca340e1	0.019928398
142	0xbebd688e	-0.3699383
143	0xbedfb572	-0.4369312
144	0x3e2fa4e5	0.17152746
145	0x3e9121fa	0.28346235
146	0x3d9f38a7	0.077744775
147	0x3cf9e77a	0.030505884
148	0xbe5c8643	-0.21535592
149	0xbeb628ea	-0.3557809
150	0xbe8879a6	-0.2665531
151	0x3ea786dc	0.32720077
152	0x3e7be2f1	0.2459829
153	0xbeb02817	-0.34405586
154	0xbe798e60	-0.24370718
155	0xbe2c4cc9	-0.16826166
156	0xbe5ef817	-0.21774326
157	0xbea2a341	-0.31765178
158	0xbf0a0622	-0.5391561
159	0xbf084327	-0.53227466
160	0x3e8294ba	0.25504094
161	0xbee0ec76	-0.43930405
162	0x3eb1e472	0.34744602
163	0xbe596c35	-0.21232684
164	0xbe2cfc34	-0.16893083
165	0x3cfb0783	0.03064323
166	0x3ece8169	0.40333107
167	0xbe6a393a	-0.22873393
168	0xbe38b716	-0.18038592
169	0x3ed37c68	0.41305852
170	0xba615ae0	-0.000859661
171	0x3e73e624	0.2381826
172	0xbe0ac884	-0.13553053
173	0xbf4566ba	-0.77109873
174	0xbe958f8a	-0.29211074
175	0x3d5f62e7	0.05453768
176	0x3eba8e77	0.36436817
177	0xbc6177ce	-0.013761474
178	0x3e16a12e	0.14709923
179	0xbf465f60	-0.7748928
180	0xbe7fee52	-0.24993256
181	0x3e35b4d3	0.1774476
182	0xbd2081cc	-0.039186284
183	0x3e2a02e7	0.1660267
184	0x3c34bdf6	0.011031618
185	0xbe0e0909	-0.13870634
186	0x3e89a57b	0.26884064
187	0x3ea9e94d	0.33185807
188	0xbec9753b	-0.39347252
189	0xbf03aa66	-0.5143188
190	0x3e32e0b9	0.17468537
191	0xbe9692c5	-0.2940885
192	0x3e8de8d7	0.27716705
193	0xbe86ec74	-0.26352274
194	0xbe516c7c	-0.2045154
195	0xbf092385	-0.53569824
196	0x3d6f92f9	0.058489773
197	0x3e5ce00a	0.21569839
198	0xbde8334d	-0.1133791
199	0xbe078d4a	-0.13237491
200	0x3b6061b7	0.003423793
201	0xbe283f1d	-0.16430326
202	0x3d2db936	0.04241296
203	0xbf0412a5	-0.5159095
204	0x3e5fddbb	0.21861927
205	0x3a66787c	0.0008791757
206	0xbf12c32c	-0.5732906
207	0x3d571980	0.052514553
208	0xbee7ccee	-0.45273536
209	0x3e2327ee	0.159332
210	0xbda39f8f	-0.07989418
211	0xbe683492	-0.22676304
212	0xbddd7f1e	-0.10815261
213	0x3e63a62c	0.22231358
214	0x3ea18d8a	0.31553298
215	0x3c7485b2	0.014924454
216	0x3ea5c9dc	0.3238057
217	0xbe0e8365	-0.1391731
218	0xbcfac80e	-0.030612972
219	0xbed26545	-0.41092888
220	0xbf324c52	-0.69647706
221	0xbe5f5742	-0.2181063
222	0xbeb68c0c	-0.35653722
223	0xbf3dff48	-0.74217653
224	0x3df338ca	0.11876066
225	0x3e5020d8	0.20325029
226	0xbee01e26	-0.43773
227	0xbf3b969d	-0.7327669
228	0x3e0f354a	0.13985172
229	0xbe69669c	-0.22793049
230	0x3dfe336a	0.1241215
231	0xbee73f84	-0.45165646
232	0xbee2babf	-0.442831
233	0xbdd4ecce	-0.103967294
234	0xbe39a425	-0.18129022
235	0x3dd5ee3a	0.10445829
236	0x3eafadec	0.3431238
237	0xbe22e9ec	-0.15909547
238	0x3ea9ac45	0.33139244
239	0x3d27f60d	0.041006137
240	0xbcabfe1b	-0.02099519
241	0xbdb85408	-0.09000403
242	0xbe91a421	-0.28445533
243	0x3e699e58	0.2281431
244	0x3e7fb87d	0.2497272
245	0x3ea11fbd	0.31469527
246	0x3db81c4a	0.08989771
247	0xbe9765ef	-0.29569957
248	0x3c2eac28	0.010661162
249	0x3db42ee9	0.0879801
250	0x3d580f43	0.05274893
251	0xbea60a6b	-0.32429823
252	0xbec6845f	-0.38772866
253	0xbe4c49be	-0.19950005
254	0xbed0dc92	-0.40793282
255	0x3e09290e	0.13394567

fc3.bias f4 [10]
0	0xbe8e2b19	-0.27767256
1	0x3df91298	0.121617496
2	0xbf09e4d3	-0.53864783
3	0xbdb7d6a0	-0.08976483
4	0x3e2a3be4	0.16624409
5	0xbc0742b9	-0.008255654
6	0x3ddfe583	0.10932448
7	0xbdc9c9ef	-0.09852969
8	0x3eb9cee9	0.36290672
9	0x3ebb9c62	0.36642748
