s2_Organization_and_version_control/M6 - Code Structure/models/training_model.pt (torch, 439383 bytes, 6 tensors)

fc1.weight f4 [128, 784]
0.017362464 -0.016389426 0.00058502704 -0.017666548 -0.003428571 -0.0049535334 -0.0034796298 -0.020863432
0.030629154 -0.018550267 0.011140962 -0.002518979 0.0012256689 0.006756969 -0.01554846 0.021935787
-0.02413379 0.002813484 -0.0111216195 -0.0366831 -0.016377058 -0.007999502 0.0045422376 0.0310718
0.008335773 -0.008307338 0.0014554746 0.002585031 -0.021128178 -0.034086056 0.0037302338 0.007770501
-0.0008811988 -0.013688901 0.033661116 -0.029491082 -0.023654878 -0.004428134 -0.03595096 -0.024670163
-0.030258412 0.17304222 0.13109866 0.12329176 -0.11595136 -0.07723793 -0.057568673 -0.015129866
-0.093913816 -0.003925919 -0.042688813 0.010700233 -0.010752078 0.01890077 0.032432523 0.03436507
0.018360704 0.020518772 -0.010087162 0.034591552 0.0027036592 0.0030484824 -0.011190119 -0.1067852
-0.06359135 -0.12533298 -0.13870633 -0.04304591 -0.08823926 0.05977994 -0.061290707 0.025401331
-0.21289489 -0.21924 -0.23836409 -0.085960805 -0.1601358 0.078924224 0.060018014 0.043451883
-0.013529366 -0.0012457035 -0.023615528 -0.0030526705 0.025759727 -0.0036554858 -0.019237213 0.04166231
0.04332487 -0.06507363 -0.029915413 -0.21215612 -0.25536567 -0.2513825 -0.29077607 -0.16522236
-0.25401422 -0.16039978 -0.06031275 -0.20105316 -0.27025288 -0.32216668 -0.2631248 -0.2512045
0.15554188 0.2563126 0.18967818 -0.060937166 0.008710597 0.030951444 -0.013254715 -0.03535486
0.007131435 -0.01788426 -0.025681522 0.016781019 -0.048680775 -0.019931221 -0.058607783 -0.20411716
-0.17126882 -0.2679903 -0.10412791 -0.3050554 -0.31018868 -0.21271767 -0.23738505 -0.21987033
-0.23471145 -0.23583683 -0.07384656 0.039619803 0.04861875 -0.041487854 0.026992494 -0.1043807
-0.07586947 -0.05722042 -0.048273508 -0.011115968 -0.021396447 0.015411168 -0.05534679 -0.03623396
-0.0037575432 -0.029466802 -0.008117631 0.009532818 -0.11874896 -0.11958372 -0.17316405 -0.0769793
-0.15883411 -0.04180379 -0.15762855 -0.30349016 -0.36788562 -0.018446712 0.030869111 -0.0784199
-0.089116886 -0.0696955 -0.1427113 -0.098133884 -0.17639627 -0.053587895 -0.05514253 0.026817981
-0.013777683 -0.055714626 0.015899187 -0.06778862 -0.028968235 -0.14635746 -0.030702323 -0.04921295
-0.07896757 -0.0702708 -0.115812734 0.028966371 0.11990905 0.1177504 0.06750663 0.048369642
0.037482757 0.1299984 0.061921492 -0.026150826 -0.0017134709 -0.07445378 -0.1039213 0.17953284
0.089313604 -0.053029392 0.06609889 0.010337061 0.017018173 -0.021714967 0.025997713 0.014555695
-0.011173102 -0.13329285 -0.044828743 -0.0742579 -0.035195626 -0.17700921 -0.0543187 0.07017706
0.15738966 0.12873594 0.1895942 0.18984963 0.2690608 0.12379212 0.13061452 0.091315486
0.0775038 0.03139149 0.09048666 0.20825584 0.37982738 0.20166217 0.04977405 -0.07445479
0.025276784 0.07959233 0.054886177 0.046016723 0.09545031 0.014170351 -0.055476524 -0.13851093
-0.12392712 -0.15053393 0.14493456 0.20746957 0.12580968 0.261483 0.27019432 0.28330803
0.15883636 0.17403083 0.22004484 0.06900191 0.05615569 0.05972738 0.057284735 0.06634308
0.09035419 0.21288691 0.16688283 0.04967476 -0.020012584 0.073374934 -0.08316385 -0.04266207
00000000: ba3b 8e3c 1e43 86bc 805c 193a 70b9 90bc
00000010: e0b1 60bb 4051 a2bb 800a 64bb cae9 aabc
00000020: fee9 fa3c bbf6 97bc 9588 363c 7415 25bb
00000030: a0a6 a03a 9069 dd3b f8be 7ebc aeb2 b33c
00000040: 3ab4 c5bc 6e62 383b 7437 36bc 0541 16bd
00000050: 2e29 86bc 5810 03bc 0dd7 943b 4a8a fe3c
00000060: c492 083c 801b 08bc a0c5 be3a a069 293b
00000070: 0015 adbc d29d 0bbd f076 743b b09f fe3b
00000080: 4000 67ba 6a47 60bc 3de0 093d 4897 f1bc
00000090: e0c7 c1bc e119 91bb 5041 13bd 1519 cabc
000000a0: 7de0 f7bc fb31 313e ba3e 063e 6480 fc3d
000000b0: e877 edbd eb2e 9ebd 21cd 6bbd 42e3 77bc
000000c0: e355 c0bd ffa4 80bb 77da 2ebd 0850 2f3c
000000d0: 7c29 30bc cad5 9a3c f7d7 043d 63c2 0c3d
000000e0: 3069 963c fc16 a83c a044 25bc dfaf 0d3d
000000f0: e02f 313b 0cc9 473b c356 37bc 33b2 dabd
00000100: 2f3c 82bd 4a57 00be 0809 0ebe e850 30bd
00000110: c9b6 b4bd cfdb 743d f70b 7bbd 7416 d03c
00000120: 1e01 5abe 7380 60be b715 74be 380c b0bd
00000130: a4fa 23be 06a3 a13d 73d5 753d 9afa 313d
00000140: 46aa 5dbc e046 a3ba 5a75 c1bc 500f 48bb
00000150: 1006 d33c e090 6fbb 5c97 9dbc 19a6 2a3d
00000160: 6b75 313d 5345 85bd 2b11 f5bc 743f 59be
00000170: 4abf 82be 35b5 80be 9ae0 94be 0d30 29be
00000180: 270e 82be d73f 24be 810a 77bd e1e0 4dbe
00000190: 965e 8abe 08f3 a4be 4bb8 86be e09d 80be
000001a0: 5f46 1f3e 683b 833e ff3a 423e 4099 79bd
000001b0: e4b6 0e3c e28d fd3c 4e2a 59bc 42d0 10bd
000001c0: d0ae e93b 0382 92bc 0e62 d2bc 5978 893c
000001d0: 7e65 47bd cd46 a3bc b70e 70bd 1704 51be
000001e0: 1861 2fbe 0636 89be 0441 d5bd 3930 9cbe
000001f0: 0dd1 9ebe a9d2 59be 1115 73be b025 61be
00000200: 3358 70be 367f 71be de3c 97bd 6048 223d
00000210: 7424 473d 2bef 29bd 5d1f dd3c 8cc5 d5bd
00000220: 7461 9bbd f65f 6abd 71ba 45bd c01f 36bc
00000230: 9a47 afbc 207f 7c3c 51b3 62bd 106a 14bd
00000240: 1d41 76bb 5d64 f1bc d0ff 04bc 892f 1c3c
00000250: a832 f3bd 4fe8 f4bd eb51 31be 53a7 9dbd
00000260: 69a5 22be 733a 2bbd 6169 21be 1063 9bbe
00000270: 815b bcbe 8f1d 97bc 38e1 fc3c 9d9a a0bd
00000280: ea82 b6bd 84bc 8ebd e922 12be 6bfa c8bd
00000290: 39a1 34be fb7e 5bbd 22dd 61bd 62b1 db3c
000002a0: cabb 61bc 0535 64bd 033f 823c c3d4 8abd
000002b0: cb4e edbc bbde 15be 7083 fbbc 8593 49bd
000002c0: c0b9 a1bd 23ea 8fbd 3a2f edbd e24a ed3c
000002d0: e092 f53d 1f27 f13d eb40 8a3d 3f1f 463d
000002e0: 8587 193d 4d1e 053e 64a1 7d3d 423a d6bc
000002f0: 8b96 e0ba 397b 98bd b1d4 d4bd 75d7 373e
00000300: 0dea b63d 5935 59bd db5e 873d c75c 293c
00000310: b269 8b3c 96e3 b1bc 28f9 d43c 027b 6e3c
00000320: 630f 37bc ec7d 08be 589e 37bd 8714 98bd
00000330: 4a29 10bd e741 35be 497d 5ebd feb8 8f3d
00000340: c12a 213e 5bd3 033e fb24 423e f167 423e
00000350: 56c2 893e b986 fd3d d0bf 053e 9d03 bb3d
00000360: 50ba 9e3d 5d94 003d 1251 b93d 0541 553e
00000370: bc78 c23e 8780 4e3e e0df 4b3d c17b 98bd
00000380: 4211 cf3c 4e01 a33d 54d0 603d 087c 3c3d
00000390: 747b c33d c32a 683c 5a3b 63bd cfd5 0dbe
000003a0: 80cd fdbd 9125 1abe ba69 143e e772 543e
000003b0: 41d4 003e 1ae1 853e e956 8a3e c00d 913e
000003c0: 00a6 223e 2335 323e 6f53 613e e050 8d3d
000003d0: 8203 663d b2a4 743d 66a3 6a3d e1de 873d
000003e0: 9e0b b93d 07ff 593e 55e3 2a3e c377 4b3d
000003f0: 6ef1 a3bc 9945 963d cf51 aabd 6cbe 2ebd

fc1.bias f4 [128]
-0.061206736 0.004293153 -0.062560454 -0.13469024 0.07555434 0.07316747 0.038123805 -0.13265853
-0.070954494 0.014938633 -0.2155962 -0.05558735 -0.062007792 -0.10304036 -0.04773404 0.07593468
-0.1313876 -0.040578622 0.016208835 -0.045273717 0.17122704 -0.04884437 -0.10620104 -0.05493671
-0.04554301 -0.113672115 0.09629049 0.06365181 -0.060734916 0.080139846 -0.05228084 -0.02089147
0.034137834 -0.01885472 0.14389779 0.13325928 -0.022075193 -0.18559112 -0.050190847 0.05788794
-0.12692435 0.013911154 -0.052246194 -0.04348065 0.10309197 0.19329304 0.004237992 0.13624166
0.14089045 0.106132165 0.0038652227 -0.16986197 -0.13664755 -0.05081982 -0.04476643 0.23916203
-0.1303907 -0.16131416 0.116420515 -0.26102105 -0.001489217 -0.085594244 -0.035440765 -0.019499524
0.0091292 -0.041599523 0.25663885 -0.13512456 -0.12071117 0.036388602 0.1266128 -0.055795275
0.005322212 0.15778871 -0.073765434 0.036344964 -0.03614094 0.004662978 -0.034235526 -0.046868756
-0.15934476 0.08980752 -0.30970564 -0.001708549 -0.03974391 -0.21444649 0.16283351 0.07274269
-0.10228808 0.11554839 0.16736533 0.024816405 -0.047075644 0.007944682 0.28693345 -0.015038104
0.025207054 0.17464 0.07223762 -0.07762289 -0.014637376 -0.026408244 0.2698506 0.14073169
0.13144614 -0.27369025 -0.013503921 -0.041176815 -0.15231067 -0.07582393 -0.0354087 0.022711536
0.01646676 0.121087104 -0.12945026 -0.010968453 -0.10731962 0.15480287 -0.045415014 -0.29952985
-0.031795114 0.018330216 -0.05821781 -0.03239578 0.0014797158 0.028563425 0.20715408 0.014691375
00000000: eab3 7abd 94ad 8c3b b21f 80bd 3dec 09be
00000010: 3cbc 9a3d d4d8 953d b527 1c3d a3d7 07be
00000020: 9750 91bd 2bc1 743c 40c5 5cbe 90af 63bd
00000030: e2fb 7dbd d306 d3bd c584 43bd a483 9b3d
00000040: 798a 06be c535 26bd 64c8 843c ef70 39bd
00000050: 2456 2f3e 0911 48bd ee7f d9bd 5105 61bd
00000060: 4f8b 3abd edcc e8bd f333 c53d e15b 823d
00000070: 2dc5 78bd 5c20 a43d 6f24 56bd 9724 abbc
00000080: 1dd4 0b3d 3775 9abc f159 133e 1f75 083e
00000090: 09d7 b4bc 990b 3ebe eb94 4dbd e81b 6d3d
000000a0: 75f8 01be 9ceb 633c 1b00 56bd c418 32bd
000000b0: e221 d33d 9cee 453e dbde 8a3b ef82 0b3e
000000c0: 9645 103e d25b d93d ad4f 7d3b 4cf0 2dbe
000000d0: 56ed 0bbe 7228 50bd 015d 37bd e4e6 743e
000000e0: 2485 05be 8a2f 25be e16d ee3d 8da4 85be
000000f0: d531 c3ba 094c afbd 562a 11bd 77bd 9fbc
00000100: a492 153c 4364 2abd 2b66 833e 185e 0abe
00000110: 6b37 f7bd 370c 153d c9a6 013e 9689 64bd
00000120: f365 ae3b 5d93 213e 5512 97bd 75de 143d
00000130: 8608 14bd e5cb 983b 8d3a 0cbd 74f9 3fbd
00000140: 462b 23be 01ed b73d bd91 9ebe 64f1 dfba
00000150: 83ca 22bd dc97 5bbe d4bd 263e 1ffa 943d
00000160: 6a7c d1bd a2a4 ec3d d161 2b3e c64b cb3c
00000170: 64d2 40bd 692a 023c f1e8 923e 6162 76bc
00000180: 067f ce3c d4d4 323e 51f1 933d c0f8 9ebd
00000190: 9bd1 6fbc 1a56 d8bc dc29 8a3e f81b 103e
000001a0: d199 063e 2121 8cbe 8d3f 5dbc 05a9 28bd
000001b0: 54f7 1bbe 9449 9bbd b708 11bd 8b0d ba3c
000001c0: 4ce5 863c 84fc f73d 9c8e 04be 07b5 33bc
000001d0: 64ca dbbd a584 1e3e 1805 3abd fa5b 99be
000001e0: 983b 02bd 4029 963c cc75 6ebd 70b1 04bd
000001f0: 06f3 c13a d8fd e93c 3320 543e 18b4 703c

fc2.weight f4 [64, 128]
-0.3104175 -0.20163558 0.33262688 0.027293753 0.17443973 0.19952413 0.124683484 0.13723691
0.14269635 -0.41448316 -0.08539205 -0.057353355 -0.027954454 0.010859612 -0.0333967 0.24545099
0.38203433 0.040216304 -0.07992753 -0.24524719 -0.43528056 0.27893588 -0.206375 0.08434386
0.4106339 -0.0086031305 0.13831443 0.24296547 0.1895692 -0.0150003815 0.025937984 0.026971854
0.16589703 -0.17471154 0.055457298 0.18704836 0.02761332 0.054915544 -0.08099681 -0.25853825
-0.07015379 -0.03027503 -0.048711807 0.032410905 -0.276682 0.1777362 -0.007475771 0.09213164
0.062159892 -0.05004894 -0.21485886 0.026403997 -0.34104306 -0.09439571 0.020761559 -0.28224447
0.041299168 -0.059828848 0.12693606 -0.16975798 -0.04089772 -0.0221511 -0.0042695506 0.28270078
0.25992262 -0.10463239 0.06171562 0.11036546 0.08295318 0.0763621 -0.061779253 0.06909725
-0.16823623 -0.08738392 -0.13393566 0.20757885 -0.05215745 0.035735153 0.13922526 -0.17749776
0.26393905 0.011697419 -0.066733524 -0.035719927 -0.01141803 0.14231728 -0.0849228 -0.3666957
-0.17799316 0.20990157 -0.04794726 0.47997773 -0.06331836 0.12673415 0.1090993 -0.08169582
0.12276579 -0.07677148 0.15680386 0.020693613 0.1194841 0.08764483 0.026096849 0.31383905
-0.08374591 0.029386224 -0.06634487 0.020235451 -0.046651628 0.088615306 0.00610741 -0.18493357
0.31191856 0.04305867 -0.12586434 0.06936494 0.12668249 0.29950085 0.16474809 0.06586303
-0.40603638 -0.027040675 0.077448875 0.039015003 -0.22740704 -0.01898889 -0.2756481 -0.12958805
0.063140884 -0.03280187 -0.23801538 0.045697745 -0.3196841 -0.20146924 -0.03996051 0.04391206
-0.049934495 0.17558394 0.024311205 0.13239582 0.1872302 0.011327189 -0.03376847 0.15278347
-0.13121302 0.0097416295 0.15648748 0.022809181 -0.06546733 -0.31488878 0.1840637 0.043564387
-0.33700955 0.32936388 -0.3649053 -0.26109445 -0.055840474 -0.009752215 0.050520472 0.09251517
-0.07694733 0.18816172 -0.3563283 -0.14640431 -0.09065109 -0.026905997 -0.26410016 0.034350447
0.46302474 -0.066853285 0.040052928 -0.03255156 -0.04477888 -0.17789061 0.05155697 -0.22240132
0.05394424 -0.07002705 0.34696832 0.11842343 0.17482078 0.088182636 -0.010885006 0.03173916
0.06686486 0.02625531 -0.33145902 0.13763939 0.036678825 0.31879705 0.083288275 -0.32146087
-0.19100201 0.0854416 -0.1522176 0.13616894 -0.08673375 -0.04078038 -0.48268655 -0.12638074
0.34721136 -0.114457645 -0.09932008 -0.2905462 0.04169883 0.019617707 0.05448344 0.08141399
-0.110704996 -0.10130118 0.070971444 0.038724348 0.058580644 -0.03083204 -0.058215223 0.08593575
0.036415398 -0.049944982 -0.011277356 -0.19934902 -0.044200167 -0.33057824 -0.18531872 0.022498742
0.15845524 0.101849735 -0.1266774 0.30686495 -0.018057242 -0.0715267 -0.1713838 -0.18526748
-0.13436376 0.16301715 0.16353285 0.0063255564 0.24606432 0.022757791 -0.013803621 0.03683476
-0.43888298 -0.13524632 0.20788155 0.017867424 0.06841683 -0.39492714 0.05179269 0.23236439
0.064194486 0.21519655 -0.056581136 -0.056853026 -0.0059997784 -0.15352823 -0.10053101 -0.041497014
00000000: 0bef 9ebe 8f79 4ebe 124e aa3e 2697 df3c
00000010: 54a0 323e 0e50 4c3e 0e5a ff3d d587 0c3e
00000020: fe1e 123e 2337 d4be 07e2 aebd 5aeb 6abd
00000030: bd00 e5bc 84ec 313c faca 08bd 8157 7b3e
00000040: 019a c33e dab9 243d 0bb1 a3bd 1422 7bbe
00000050: 18dd debe afd0 8e3e f853 53be 79bc ac3d
00000060: 9b3e d23e 25f4 0cbc 4ca2 0d3e f1cb 783e
00000070: 6e1e 423e 29c4 75bc e57b d43c 14f4 dc3c
00000080: e9e0 293e 95e7 32be 3127 633d 9b89 3f3e
00000090: 5435 e23c 1fef 603d a8e1 a5bd 205f 84be
000000a0: caac 8fbd 5703 f8bc 0886 47bd 4cc1 043d
000000b0: 43a9 8dbe 7a00 363e 50f7 f4bb 83af bc3d
000000c0: 5f9b 7e3d 1e00 4dbd f603 5cbe 324d d83c
000000d0: 329d aebe 8a52 c1bd 2514 aa3c 5982 90be
000000e0: 5129 293d 180f 75bd 87fb 013e 09d5 2dbe
000000f0: 5e84 27bd 3976 b5bc 96e7 8bbb 28be 903e
00000100: 9414 853e 8249 d6bd 85c9 7c3d 4907 e23d
00000110: 5be3 a93d bc63 9c3d 3e0c 7dbd dc82 8d3d
00000120: 1e46 2cbe 57f6 b2bd 6e26 09be 8d8f 543e
00000130: 0da3 55bd 065f 123d 1191 0e3e f9c1 35be
00000140: 0523 873e 88a6 3f3c 96ab 88bd 0f4f 12bd
00000150: b012 3bbc 9fbb 113e 01ec adbd 8abf bbbe
00000160: d743 36be 70f0 563e 5964 44bd a4bf f53e
00000170: 0ead 81bd 99c6 013e 746f df3d 2350 a7bd
00000180: a16c fb3d 5e3a 9dbd 3191 203e a785 a93c
00000190: 14b4 f43d 227f b33d 0fc9 d53c 83af a03e
000001a0: fa82 abbd 61bb f03c d2df 87bd d1c4 a53c
000001b0: c715 3fbd f17b b53d ab20 c83b 3a5f 3dbe
000001c0: cab3 9f3e 4a5e 303d 95e2 00be 350f 8e3d
000001d0: 0eb9 013e 2d58 993e b9b3 283e 32e3 863d
000001e0: 00e4 cfbe 6884 ddbc 849d 9e3d 32ce 1f3d
000001f0: 64dd 68be 978e 9bbc bf21 8dbe bbb2 04be
00000200: 0250 813d 415b 06bd 4eba 73be 8f2d 3b3d
00000210: a2ad a3be f44d 4ebe a2ad 23bd 22dd 333d
00000220: 1d88 4cbd 47cc 333e 4b28 c73c c592 073e
00000230: 46b9 3f3e ad95 393c cf50 0abd 4573 1c3e
00000240: b55c 06be 5b9b 1f3c 413e 203e 52da ba3c
00000250: bc13 86bd 1a39 a1be 327b 3c3e 9270 323d
00000260: 848c acbe 62a2 a83e ded4 babe 2cae 85be
00000270: fbb8 64bd c1c7 1fbc 8eee 4e3d 9878 bd3d
00000280: 9096 9dbd 77ad 403e aa70 b6be 03eb 15be
00000290: 47a7 b9bd f769 dcbc 2338 87be 0eb3 0c3d
000002a0: 9411 ed3e 60ea 88bd 8a0e 243d c954 05bd
000002b0: 0f6a 37bd f528 36be 672d 533d 2cbd 63be
000002c0: a3f4 5c3d 586a 8fbd d5a5 b13e fc87 f23d
000002d0: 3804 333e 1999 b43d 0657 32bc ec00 023d
000002e0: 72f0 883d 6015 d73c ffb4 a9be 57f1 0c3e
000002f0: 893c 163d 5e39 a33e 0b93 aa3d 8596 a4be
00000300: 0896 43be 01fc ae3d eede 1bbe df6f 0b3e
00000310: 77a1 b1bd 5409 27bd b122 f7be f469 01be
00000320: b0c5 b13e c568 eabd 5368 cbbd 79c2 94be
00000330: 64cc 2a3d 50b5 a03c 072a 5f3d 61bc a63d
00000340: 4db9 e2bd fe76 cfbd 7a59 913d 6c9d 1e3d
00000350: 42f2 6f3d 7993 fcbc 1673 6ebd 15ff af3d
00000360: 5028 153d 1c93 4cbd a9c4 38bc 2622 4cbe
00000370: 3c0b 35bd 8d41 a9be 31c4 3dbe 484f b83c
00000380: 1742 223e 9896 d03d b8b7 01be 671d 9d3e
00000390: c8ec 93bc 977c 92bd 3c7f 2fbe c2b6 3dbe
000003a0: a796 09be f8ed 263e 2875 273e 9d46 cf3b
000003b0: 49f8 7b3e 8c6e ba3c 9528 62bc 0ce0 163d
000003c0: 45b5 e0be 037e 0abe e7de 543e b45e 923c
000003d0: 1f1e 8c3d e433 cabe 9224 543d eef0 6d3e
000003e0: 6678 833d 7c5c 5c3e 9fc1 67bd b8de 68bd
000003f0: ca99 c4bb 8136 1dbe 34e3 cdbd c6f8 29bd

fc2.bias f4 [64]
-0.031516887 -0.09594269 0.043195397 -0.0020014655 -0.1255441 0.2031275 0.13623692 -0.033312168
0.09185276 0.30354884 -0.05906211 -0.10614914 0.001209153 -0.01124228 0.14434966 0.09883592
0.13542496 0.12600501 0.18512246 -0.1035313 0.20277631 -0.06673192 0.037300877 -0.06486627
-0.15279044 -0.05682601 0.24875177 0.018336074 0.328182 -0.03407298 0.1153331 -0.14842373
0.2922287 -0.07111677 -0.0074744304 -0.09032617 0.050698288 0.26474226 -0.06158767 -0.023016145
-0.14680699 0.1035742 0.01366592 0.0070860498 0.013756244 0.24853934 0.12521169 0.082555905
-0.18005587 0.045895644 0.21310587 -0.012413714 0.04283177 0.0009051386 0.022258542 -0.037061594
-0.0068089697 -0.0853572 -0.08118909 0.035927497 0.18234988 -0.07842912 0.031869918 -0.13899243
00000000: da17 01bd 9a7d c4bd a8ed 303d 052b 03bb
00000010: a28e 00be a800 503e b181 0b3e 5772 08bd
00000020: 4d1d bc3d c16a 9b3e 1ceb 71bd b864 d9bd
00000030: 717c 9e3a 8a31 38bc 66d0 133e 7d6a ca3d
00000040: d7ac 0a3e 7507 013e be90 3d3e 3808 d4bd
00000050: 98a4 4f3e bfaa 88bd cec8 183d 9bd8 84bd
00000060: 1975 1cbe 64c2 68bd c9b8 7e3e 8935 963c
00000070: 7907 a83e 1c90 0bbd c333 ec3d 64fc 17be
00000080: 009f 953e aba5 91bd 11ec f4bb edfc b8bd
00000090: 02a9 4f3d 4c8c 873e 5a43 7cbd 5b8c bcbc
000000a0: 9254 16be b61e d43d 06e7 5f3c 1832 e83b
000000b0: df61 613c 1981 7e3e 7e37 003e 1213 a93d
000000c0: 9160 38be 12fd 3b3d 6d38 5a3e e462 4bbc
000000d0: 5e70 2f3d d346 6d3a 8c57 b63c e6cd 17bd
000000e0: c71d dfbb c1cf aebd 7746 a6bd b628 133d
000000f0: edb9 3a3e 729f a0bd 088a 023d 0854 0ebe

fc3.weight f4 [10, 64]
0.122078225 -0.07454832 0.17318274 0.14244293 0.14752398 -0.08000935 -0.2920159 0.14868912
-0.11491079 -0.5333468 -0.22827624 -0.007665919 0.114731476 -0.30594668 -0.5651162 -0.22311541
-0.1320635 0.086382054 -0.2629499 -0.27561387 -0.19931592 0.16731821 -0.07033834 0.26730224
-0.024039578 -0.06606211 -0.28748676 -0.33317348 -0.2136903 -0.009599886 0.22529984 0.14083065
-0.2992371 -0.3013142 0.14936358 0.17772344 -0.08987213 -0.4349446 -0.29264244 0.1006896
-0.20936571 -0.3464064 -0.28092644 -0.22498631 0.13342458 0.091254994 -0.37551543 -0.4905281
-0.03434795 0.16344474 -0.30820072 0.1949362 -0.20108354 -0.4051983 0.270534 0.17927952
-0.20231847 0.094917186 0.24217519 -0.14663051 0.07456703 -0.1930666 0.17124613 -0.27525106
-0.37777296 0.13438053 -0.2820762 -0.1350177 -0.39479342 0.23475794 0.09570672 -0.36429587
0.23029907 0.23418726 0.31912926 -0.1452093 0.14928274 0.2348091 0.1576603 -0.36437717
-0.27221838 -0.16604729 -0.42872185 -0.1583756 -0.27088517 -0.5419765 0.26477966 -0.37090617
-0.084121406 0.13902292 0.2592932 0.050722346 -0.28675663 0.01268167 -0.3838162 -0.27561396
-0.114323705 -0.03475924 -0.22503823 -0.4239585 -0.09830253 0.18575394 0.2654882 -0.55622745
0.09546969 0.221134 -0.4246761 0.20051397 0.14623153 -0.45641336 0.052768193 0.15316229
-0.041867778 -0.3260458 0.17158772 -0.2199511 0.07128169 0.14395037 -0.38323027 -0.5003804
0.24988559 -0.2072519 -0.34715202 -0.42666027 -0.19140583 -0.13342857 0.04939994 -0.19106185
0.13017926 0.030720172 -0.22206861 0.10604326 -0.19657263 -0.13055034 0.048417304 -0.24997607
0.19400078 0.056565665 -0.19271806 -0.039587464 -0.08933205 0.22230503 -0.18324669 0.008335432
-0.46800053 0.0048873057 -0.1666757 0.19866464 0.0280745 -0.10929083 -0.18076597 -0.072606966
-0.14339676 0.11253183 0.088703014 -0.35745978 -0.19109926 -0.033237107 -0.38260818 0.16802923
-0.124577805 0.1710401 0.2059901 0.19800472 -0.08551058 -0.30527127 0.24130233 0.24060059
-0.059545558 -0.08448913 0.0151777165 -0.18323667 0.012799364 -0.33493933 -0.40054333 0.19468212
0.22817808 0.1390832 -0.31404328 0.12979895 0.040804468 -0.20524964 -0.036350593 0.011925105
0.08468268 -0.10302905 -0.050445966 0.078698635 -0.16472268 -0.2071333 -0.3121544 0.27955884
-0.24138369 0.12673351 0.1757614 0.049037207 -0.16638047 -0.3206979 -0.26904368 0.19865209
-0.15815987 -0.54185456 -0.028776929 -0.10623945 0.089057766 -0.28116804 -0.2818229 -0.21951823
-0.17845266 0.1488127 -0.3540501 0.18049139 -0.35390186 0.13279551 0.14102986 0.058247503
-0.32481033 0.118017845 -0.18576114 0.08240356 -0.18437913 -0.08902282 -0.17770414 0.18617092
-0.029233675 0.16765283 -0.35731697 -0.010074649 -0.02408086 -0.20027138 0.16322924 -0.20043053
0.1467957 -0.056891795 0.19508809 0.17774424 0.039598808 -0.34091812 0.08452062 -0.014474283
0.2594211 -0.03511961 -0.4947125 -0.3533775 0.19439471 0.18961483 -0.12830175 -0.36799327
0.057008453 0.18236354 0.012217415 0.051062822 -0.5446247 0.23485164 0.16882242 0.25023776
00000000: 2604 fa3d caac 98bd d156 313e 8fdc 113e
00000010: 8710 173e f1db a3bd 1c83 95be f641 183e
00000020: 5956 ebbd 6a89 08bf 3fc1 69be 6432 fbbb
00000030: 56f8 ea3d 0ba5 9cbe 75ab 10bf 5e78 64be
00000040: a73b 07be 13e9 b03d 5fa1 86be 431d 8dbe
00000050: 7919 4cbe 7755 2b3e 8c0d 90bd d7db 883e
00000060: a6ee c4bc 924b 87bd 7731 93be b795 aabe
00000070: a1d1 5abe d748 1dbc 00b5 663e e935 103e
00000080: 9b35 99be db45 9abe c4f2 183e 22fd 353e
00000090: e10e b8bd 0fb1 debe 3bd5 95be 5936 ce3d
000000a0: f763 56be 2e5c b1be 97d5 8fbe d062 66be
000000b0: 74a0 083e e6e3 ba3d 8f43 c0be 8026 fbbe
000000c0: 70b0 0cbd 0f5e 273e 7ccc 9dbe 5b9d 473e
000000d0: d8e8 4dbe 2776 cfbe 6f83 8a3e 0d95 373e
000000e0: 932c 4fbe f163 c23d c6fc 773e 4f26 16be
000000f0: 99b6 983d 40b3 45be 255b 2f3e b5ed 8cbe
00000100: 756b c1be 0d9b 093e 4b6c 90be 1442 0abe
00000110: 5d22 cabe 6364 703e e301 c43d fd84 babe
00000120: 85d3 6b3e c9ce 6f3e e964 a33e bfb1 14be
00000130: 93dd 183e cc71 703e b471 213e a58f babe
00000140: 3560 8bbe 4d08 2abe 6e81 dbbe 372d 22be
00000150: 76b1 8abe f9be 0abf 3391 873e 6ae7 bdbe
00000160: d847 acbd 065c 0e3e 14c2 843e 3cc2 4f3d
00000170: c4d1 92be c7c6 4f3c 8f83 c4be 461d 8dbe
00000180: 8c22 eabd b45f 0ebd 6c70 66be 1711 d9be
00000190: d652 c9bd 4836 3e3e 12ee 873e ec64 0ebf
000001a0: 9d85 c33d f470 623e 256f d9be 8953 4d3e
000001b0: b8bd 153e 03af e9be 7623 583d 93d6 1c3e
000001c0: 8c7d 2bbd 7aef a6be b1b4 2f3e dc3a 61be
000001d0: 22fc 913d ba67 133e c236 c4be ee18 00bf
000001e0: 02e2 7f3e d839 54be e9bd b1be 3773 dabe
000001f0: e4ff 43be 80a1 08be 9757 4a3d b8a5 43be
00000200: b64d 053e dfa8 fb3c f465 63be 352d d93d
00000210: 564a 49be fdae 05be 3951 463d baf9 7fbe
00000220: 24a8 463e 66b1 673d e257 45be 7726 22bd
00000230: b9f3 b6bd eea3 633e 05a5 3bbe 5691 083c
00000240: c49d efbe b125 a03b 09ad 2abe be6e 4b3e
00000250: 7efc e53c dfd3 dfbd b71a 39be f6b2 94bd
00000260: 9ad6 12be 1777 e63d eda9 b53d f804 b7be
00000270: 86af 43be a223 08bd 38e5 c3be db0f 2c3e
00000280: a622 ffbd 2325 2f3e 12ef 523e c0c1 4a3e
00000290: 2c20 afbd 844c 9cbe f517 773e 0060 763e
000002a0: 0be6 73bd a308 adbd f5ab 783c 65a2 3bbe
000002b0: 6cb4 513c 2b7d abbe 0414 cdbe c05a 473e
000002c0: 84a7 693e d46b 0e3e 48ca a0be 04ea 043e
000002d0: 9622 273d f62c 52be 5ce4 14bd 8461 433c
000002e0: 1d6e ad3d e500 d3bd 6ea0 4ebd c02c a13d
000002f0: 10ad 28be c01a 54be b4d2 9fbe 5622 8f3e
00000300: 492d 77be 6ec6 013e ccfa 333e 3ddb 483d
00000310: a45f 2abe 8432 a4be 18c0 89be 746b 4b3e
00000320: a9f4 21be fbb6 0abf 98bd ebbc 1294 d9bd
00000330: eb63 b63d 42f5 8fbe 174b 90be 63c9 60be
00000340: 4bbc 36be 5b62 183e 0e46 b5be bcd2 383e
00000350: a032 b5be 8cfb 073e 226a 103e ef94 6e3d
00000360: 8a4d a6be 57b3 f13d 2b38 3ebe 33c3 a83d
00000370: e2cd 3cbe 9951 b6bd 13f8 35be 97a3 3e3e
00000380: 767b efbc 2fad 2b3e 40f2 b6be 2410 25bc
00000390: 3945 c5bc f113 4dbe 9125 273e a93d 4dbe
000003a0: 9d51 163e 5f07 69bd 2cc5 473e 9602 363e
000003b0: 5c32 223d d28c aebe 2619 ad3d 8b25 6dbc
000003c0: d8d2 843e 95d9 0fbd f54a fdbe e5ed b4be
000003d0: 680f 473e 642a 423e 8961 03be 9d69 bcbe
000003e0: b281 693d 82bd 3a3e 8d2b 483c 4027 513d
000003f0: 866c 0bbf f37c 703e c9df 2c3e 2a1f 803e

fc3.bias f4 [10]
-0.1557722 0.008053694 -0.106056854 -0.19996767 0.12072563 0.083977155 -0.00888799 -0.038399488
-0.00043771084 0.03849122
00000000: bf82 1fbe a4f3 033c 5634 d9bd 53c4 4cbe
00000010: 003f f73d 37fc ab3d ef9e 11bc c848 1dbd
00000020: 8e7c e5b9 f8a8 1d3d
