s2_Organization_and_version_control/M6 - Code Structure/models/training_model.pt (torch, 439383 bytes, 6 tensors)

fc1.weight f4 [128, 784]
0	0x3ba02f08	0.004888419
1	0x3ce4eabe	0.027943965
2	0x3ce63f06	0.028106224
3	0x3cabdaa8	0.020978287
4	0xbc284360	-0.01026997
5	0xbc3e00a0	-0.011596829
6	0xbc1fd5ea	-0.009755591
7	0x3d0feb3b	0.035136443
8	0xbc7a7320	-0.015286237
9	0x3ce0fbfe	0.02746391
10	0x3d0375b3	0.03209467
11	0x3c1ed3ae	0.009694023
12	0xbba80f5c	-0.005128784
13	0xbca71ba0	-0.020398915
14	0xbc76319c	-0.015026476
15	0x3d0b7c89	0.034054313
16	0x3caebed7	0.021331234
17	0xbc27a2a7	-0.01023165
18	0x3c1aadf3	0.009440887
19	0xbb2a356e	-0.0025971788
20	0x3b974fb9	0.004617658
21	0xbcf684be	-0.030092593
22	0xba64e340	-0.00087313727
23	0xbbfd385c	-0.007727666
24	0x3bb3d380	0.0054878592
25	0x3d0ed745	0.034873266
26	0x3cbe46a6	0.023227047
27	0xbbed555c	-0.0072428416
28	0xbc69c40e	-0.0142679345
29	0x3d04fd39	0.032468054
30	0xbb9af608	-0.0047290362
31	0xbc5ac820	-0.013353378
32	0x3c2061c4	0.009788934
33	0x3c48b384	0.012249831
34	0xbb445ee0	-0.0029963776
35	0xbcb50ad4	-0.02209989
36	0x3d309848	0.043113977
37	0x3daefb8f	0.08544075
38	0x3d92d1f6	0.07168953
39	0xbc01ef03	-0.00793052
40	0xbd247d07	-0.040158298
41	0xbd1032c4	-0.035204664
42	0xbc947099	-0.018120097
43	0xbdee529a	-0.11636849
44	0xbe035e42	-0.12828925
45	0xbd7e91d0	-0.062150776
46	0xbd96e593	-0.073680066
47	0xbc6af2f6	-0.014340153
48	0x3c694b0f	0.014239087
49	0xbd073dda	-0.03301797
50	0xbd483ddb	-0.048887115
51	0x3cec0b66	0.028814029
52	0x3c393a14	0.011305351
53	0x3d0ab6c3	0.0338657
54	0x3caf21a6	0.02137835
55	0xbc56a3d8	-0.013100587
56	0x3bbf24c0	0.0058332384
57	0x3b6c07d0	0.0036015399
58	0x3d11971f	0.03554451
59	0x3cdb611e	0.026779708
60	0xbb0b575f	-0.0021261794
61	0xbd145402	-0.03621293
62	0xbce15109	-0.02750446
63	0x3d6a7ef9	0.057249997
64	0x3deaa9f8	0.114582
65	0xbd97610a	-0.073915556
66	0xbe16cbe1	-0.14726211
67	0xbd1f5718	-0.03890142
68	0xbc9a7d3f	-0.01885855
69	0xbc53de20	-0.012931377
70	0xbe06b1d1	-0.13153769
71	0xbe255852	-0.16146973
72	0xbdae5cd0	-0.08513796
73	0xbdc5e025	-0.09661893
74	0xbddb9146	-0.10721068
75	0xbd549465	-0.051899333
76	0xbda147d2	-0.07875027
77	0xbdb78c3c	-0.089622945
78	0xbde3540e	-0.111000165
79	0xbdbc9af9	-0.09209246
80	0x3d17299e	0.036904924
81	0xbc7224c6	-0.014779275
82	0x3cf749de	0.03018659
83	0xbcc6bed3	-0.024260914
84	0x3bf035e8	0.007330645
85	0xbcf8bf71	-0.030364724
86	0xbd0dc8b5	-0.034615237
87	0xbd0f381f	-0.03496563
88	0xbdb74034	-0.08947793
89	0xbe1d091a	-0.15335503
90	0x3ca6f287	0.020379318
91	0x3d1af419	0.037830446
92	0xbd0ac979	-0.033883546
93	0xbbd50613	-0.0065009682
94	0xbc5ca6c8	-0.013467498
95	0xbe1b1611	-0.15145136
96	0xbe1f39eb	-0.15549438
97	0xbdac3671	-0.084088214
98	0xbdec1b95	-0.11528698
99	0xbd98b9ff	-0.07457351
100	0xbda356fb	-0.079755746
101	0xbe122440	-0.14271641
102	0xbdccc44f	-0.099983804
103	0xbe2688db	-0.16263144
104	0xbe55ba38	-0.20871818
105	0xbe5da0df	-0.21643399
106	0xbdc81b78	-0.09770864
107	0xbe39870b	-0.18117921
108	0x3cfb88c0	0.030704856
109	0x3d342303	0.043978702
110	0x3cb098d5	0.021557251
111	0xbb231570	-0.0024884604
112	0xbbf7d048	-0.007562671
113	0xbbaf8d1c	-0.0053573977
114	0x3cf6033d	0.030030841
115	0xbd48eeab	-0.049055737
116	0xbd061802	-0.03273774
117	0x3db5bd3e	0.08873986
118	0x3cd15e83	0.025557762
119	0xbc08e756	-0.008355936
120	0x3db7154c	0.08939609
121	0x3ce6d378	0.028177008
122	0xbdca1689	-0.098675795
123	0xbe33b06a	-0.17547765
124	0xbe5cb014	-0.21551543
125	0xbe341445	-0.17585857
126	0xbd430256	-0.04760965
127	0xbdac53a5	-0.084143914
128	0xbe1d2aa5	-0.15348299
129	0xbe26f395	-0.16303857
130	0xbdd24b52	-0.102682725
131	0xbdad6e74	-0.08468333
132	0xbe4ef152	-0.20209244
133	0xbe6e6f45	-0.23284633
134	0xbe2b08b6	-0.16702542
135	0xbe1a7fd7	-0.1508783
136	0xbd82fc35	-0.06395761
137	0x3d1e247d	0.038609017
138	0xbd6d7305	-0.05797102
139	0xbd07e4b7	-0.033177104
140	0x3b94c518	0.004540097
141	0x3d0b2f69	0.03398076
142	0x3e16f34d	0.1474125
143	0x3d887790	0.0666343
144	0xbbf10bf9	-0.0073561636
145	0x3e199a8e	0.15000364
146	0x3cff8eab	0.03119596
147	0x3de2d172	0.11075105
148	0x3dc99f5f	0.09844851
149	0x3d93681c	0.07197592
150	0xbbf1fecb	-0.00738511
151	0xbe57231b	-0.21009485
152	0xbd687fc7	-0.056762483
153	0x3c50ac7a	0.012736434
154	0x3d1abf2a	0.037779965
155	0x3dbc4025	0.09191922
156	0xbdaffaf7	-0.085927896
157	0xbe4b88ca	-0.198764
158	0xbde64f7c	-0.11245629
159	0xbdddc5d1	-0.10828746
160	0xbe2e798e	-0.17038557
161	0xbde11ab5	-0.10991422
162	0xbe175635	-0.14778979
163	0xbe4f314a	-0.20233646
164	0xbd8b2e42	-0.06795932
165	0xbdd3887e	-0.10328768
166	0xbde0abc1	-0.109702595
167	0x3ceded81	0.029043915
168	0xbbae5cc8	-0.005321119
169	0xba876173	-0.0010328725
170	0x3e158253	0.14600496
171	0x3d8a287f	0.06746005
172	0x3e115c64	0.141954
173	0x3dff9f4a	0.12481554
174	0x3d3c8819	0.04602823
175	0x3e3d1762	0.18465951
176	0x3e7cd173	0.24689274
177	0x3d38030c	0.04492478
178	0xbd8c1d3a	-0.06841512
179	0xbc6f2bbd	-0.01459783
180	0x3c6de27e	0.014519332
181	0x3ce07832	0.027401064
182	0x3cdc56c3	0.02689684
183	0xbbe8a2b8	-0.0070994757
184	0xbe29fcb5	-0.16600306
185	0xbe470873	-0.19436817
186	0xbe4efc79	-0.20213498
187	0xbe09fe03	-0.13475804
188	0xbdf5f6e8	-0.12009984
189	0xbe329212	-0.17438534
190	0xbdaf6db7	-0.08565848
191	0xbdbc6634	-0.09199181
192	0xbe167e12	-0.1469653
193	0xbe1d61ef	-0.1536939
194	0xbdaaa316	-0.083318874
195	0xbaef49b4	-0.0018256218
196	0xbcd9c9de	-0.026585516
197	0x3d7c6bd1	0.06162626
198	0x3d4f1a13	0.050561976
199	0x3e067710	0.13131356
200	0x3db6b8e6	0.08921985
201	0x3cdeeadb	0.027211597
202	0x3e33d59a	0.17561951
203	0x3e253f22	0.16137365
204	0x3d93ac19	0.072105594
205	0x3d1c78e5	0.03820123
206	0x3c79cc60	0.015246481
207	0xbc9ed809	-0.019390123
208	0xbe15c8b5	-0.14627345
209	0xbe57d06a	-0.21075597
210	0xbdc92e84	-0.09823325
211	0xbe0cac74	-0.1373766
212	0xbbc55777	-0.0060223895
213	0x3d28707e	0.041122906
214	0xbb260b17	-0.00253362
215	0xbdf0efd8	-0.117644966
216	0x3c53c8f6	0.012926331
217	0xbde4ffbe	-0.111815915
218	0xbc18e746	-0.009332484
219	0xbe1dd9aa	-0.15415064
220	0xbe3364a6	-0.17518863
221	0xbe7bcb42	-0.24589255
222	0xbdac5721	-0.08415056
223	0x3b11e1cf	0.0022259837
224	0x3c0e64de	0.008691041
225	0x3c60dc02	0.013724329
226	0x3dfc7f40	0.123289585
227	0x3e1627cd	0.1466362
228	0x3e0ae0c6	0.13562307
229	0x3e13aa12	0.14420345
230	0x3d96e1a0	0.07367253
231	0xbab11936	-0.0013511542
232	0x3b580884	0.003296406
233	0xbc4e4558	-0.012589775
234	0x3a153b36	0.0005692722
235	0xbd0b2a9c	-0.033976182
236	0xbd9ed335	-0.07755128
237	0xbe660c1a	-0.22465554
238	0xbe234f64	-0.15948254
239	0xbe0c3b46	-0.13694486
240	0x3c6d109d	0.014469293
241	0x3e0526b3	0.13003044
242	0x3e10d1c6	0.14142522
243	0x3e144175	0.14478095
244	0x3e3c3982	0.18381312
245	0x3d5d0c9d	0.053967107
246	0xbdb73786	-0.08946137
247	0xbe45ff52	-0.19335678
248	0xbe9e87f6	-0.30963105
249	0xbe3b664f	-0.18300746
250	0xbdcfc770	-0.101454616
251	0xbd830e1d	-0.06399176
252	0x3c94991d	0.018139416
253	0x3d863dc8	0.065547526
254	0x3e8d70d1	0.27625135
255	0x3e39bd65	0.18138655

fc1.bias f4 [128]
0	0xbd1e3f55	-0.038634617
1	0xbdb807f0	-0.08985889
2	0x3dca52b8	0.098790586
3	0x3d5799bc	0.052636847
4	0x3dfdb264	0.12387541
5	0x3d16e12d	0.036835838
6	0xbdc8f066	-0.09811477
7	0xbc3aae82	-0.011394145
8	0xbd752dd9	-0.059858177
9	0xbccb0fd3	-0.024787819
10	0x3c704bf5	0.014666547
11	0x3ad25a39	0.0016048617
12	0xbcb442db	-0.022004535
13	0xbd11238b	-0.035434287
14	0x3d796a8c	0.060892627
15	0x3e3303c6	0.17481908
16	0xbce1887d	-0.027530903
17	0x3d7797f7	0.06044766
18	0x3d2684c7	0.04065397
19	0x3e091581	0.1338711
20	0xbd2b9ce1	-0.04189766
21	0xbd75b89b	-0.059990507
22	0x3dbf334a	0.093359545
23	0xbd08db1c	-0.033412084
24	0x3e472845	0.19448955
25	0x3bbbe33b	0.005733875
26	0x3e75a1e3	0.23987536
27	0xbc94957e	-0.01813769
28	0x3d97c064	0.074097425
29	0xbe7be8c6	-0.24600515
30	0x3df302fb	0.11865803
31	0xbc63c8b6	-0.013902834
32	0x3ca1d15f	0.019753156
33	0x3e05f028	0.13079894
34	0xbe59da9a	-0.21274796
35	0x3dc35033	0.09536781
36	0xbce94b28	-0.02847822
37	0xbc7306d6	-0.014833173
38	0xbe21516e	-0.15753719
39	0x3d25846b	0.040409487
40	0x3da6b5fb	0.08140179
41	0xbdfc4db6	-0.1231951
42	0x3d2b101f	0.04176342
43	0xbd2517f5	-0.04030605
44	0x3e062ee9	0.13103832
45	0x3bded6c7	0.006800506
46	0xbd6f1966	-0.05837383
47	0xbddc38ff	-0.10753059
48	0xb99ac2b2	-0.00029518228
49	0xbe134cac	-0.14384717
50	0x3cfc8730	0.030826181
51	0x3e2175dc	0.15767616
52	0xbd839dcd	-0.064265825
53	0x3c134321	0.008988173
54	0x3df009fd	0.11720655
55	0x3e85b269	0.2611268
56	0xbd995794	-0.07487407
57	0xbd119024	-0.035537854
58	0xbda59d98	-0.08086699
59	0xbe5da1d8	-0.2164377
60	0x3c50dd00	0.012748003
61	0x3d97ceca	0.07412489
62	0x3e11b699	0.14229812
63	0xbd96e2a7	-0.07367449
64	0xbd1da2c2	-0.038485296
65	0xbdc8d191	-0.098055966
66	0x3d35891f	0.044320222
67	0x3c2d0cb0	0.010562107
68	0x3cad1ee5	0.021132896
69	0x3d94251b	0.0723364
70	0xbd3ccade	-0.046091907
71	0xbd9d5886	-0.076829
72	0x3de48a3b	0.11159178
73	0x3d930f43	0.07180645
74	0x3d6f3f10	0.05840975
75	0xbd26b945	-0.04070403
76	0xbd00e74d	-0.031470586
77	0x3d9a9cfe	0.07549475
78	0x3d07fe96	0.033201776
79	0x3cb227a8	0.021747425
80	0xbc98003a	-0.018554796
81	0xbe0b13a8	-0.13581717
82	0xbce0aa99	-0.027425097
83	0xbc9d9521	-0.01923615
84	0xbe501caa	-0.20323434
85	0x3beb90f3	0.00718891
86	0x3dd3ce2f	0.10342061
87	0xbde73b3e	-0.112905964
88	0xbd921303	-0.071325324
89	0x3d89469b	0.0670292
90	0xbe48ed34	-0.19621736
91	0xbd557a6f	-0.052118715
92	0xbd61fe64	-0.055174246
93	0x3cbdaa29	0.023152428
94	0xbdfd7366	-0.12375526
95	0xbd0ad0ff	-0.03389072
96	0x3d75fd24	0.060055867
97	0x3bfb6747	0.0076722237
98	0x3d0c1a18	0.034204572
99	0xbde893a7	-0.113562874
100	0x3bf14a61	0.007363603
101	0xbd6c0794	-0.057624415
102	0xbe1a9ef4	-0.15099698
103	0x3d9b85f9	0.07593913
104	0xbc2c7b2c	-0.010527413
105	0x3ddda93c	0.108232945
106	0x3cd747c6	0.026279341
107	0xbcbb9ad0	-0.022900969
108	0xbdfe427d	-0.124150254
109	0x3ceaede9	0.028677898
110	0x3d4250fd	0.047440518
111	0x3ded52c3	0.11588051
112	0x3d0c34e9	0.034230147
113	0xbd1da104	-0.038483635
114	0x3d52c462	0.051456816
115	0x3d0c6f08	0.034285575
116	0xbdb24fa7	-0.08706599
117	0xbe47e717	-0.19521748
118	0x3e380ce3	0.17973666
119	0xbd322678	-0.043493718
120	0xbdc46966	-0.09590416
121	0xbd9e7617	-0.077373676
122	0x3c5ab51d	0.013348845
123	0xbc9d1a72	-0.01917765
124	0x3dc49381	0.09598447
125	0x3ca1f714	0.019771136
126	0x3d567f3e	0.05236744
127	0xbda12cf0	-0.07869899

fc2.weight f4 [64, 128]
0	0xbe207921	-0.15671207
1	0xbe7c21e8	-0.24622309
2	0xbe90159d	-0.2814149
3	0x3e157b51	0.14597823
4	0xbee8241a	-0.45340043
5	0xbcf664a5	-0.030077288
6	0xbd9da815	-0.07698075
7	0x3cc7d442	0.024393205
8	0xbd672c9d	-0.05643903
9	0xbd776ef2	-0.06040854
10	0x3ded7158	0.11593884
11	0x3cdbcbc0	0.026830554
12	0xbddf46e2	-0.10902192
13	0xbd6a47ff	-0.057197567
14	0x3e33e5ae	0.17568085
15	0xbbd22236	-0.0064127697
16	0xbe714306	-0.23560724
17	0x3e969c6a	0.2941621
18	0x3e0a3524	0.13496834
19	0xbe8ae43f	-0.27127263
20	0x3d7e10b2	0.06202764
21	0x3d50cbd5	0.05097564
22	0x3dc47526	0.09592657
23	0xbea9bfdb	-0.33154187
24	0x3e35abb8	0.17741287
25	0x3d0c710a	0.03428749
26	0x3e04acc5	0.12956531
27	0xbd1d3d6e	-0.038388662
28	0x3d6e20f4	0.058136895
29	0x3d8ed0c1	0.069734104
30	0x3e81d709	0.2535937
31	0x3c09928d	0.008396757
32	0x3de152d1	0.11002124
33	0xbee3eae7	-0.44515154
34	0xbc4b9538	-0.012425713
35	0x3e4f68b9	0.20254792
36	0x3e9a7d07	0.30173513
37	0xbd488f7f	-0.048964974
38	0xbda8e3e9	-0.082465954
39	0xbee17a16	-0.44038457
40	0xbd833e03	-0.06408312
41	0x3c9fe245	0.019517073
42	0x3d650ebf	0.055922266
43	0xbd06fae5	-0.032954115
44	0xbe69a79b	-0.22817843
45	0xbe20042c	-0.15626591
46	0x3ca08518	0.019594714
47	0xbe7185ea	-0.2358624
48	0x3e0cb10b	0.13739412
49	0xbe8acf03	-0.27111062
50	0xbdd63ff6	-0.10461418
51	0xbe32786f	-0.17428754
52	0xbda3456b	-0.07972225
53	0x3cc7b1c2	0.024376754
54	0x3e64ebd5	0.22355588
55	0x3dc58bc9	0.096458025
56	0xbd8fcc9b	-0.07021447
57	0xbe7a65bf	-0.24452876
58	0xbe722f20	-0.2365079
59	0xbd9731a7	-0.07382517
60	0x3d9edc59	0.07756872
61	0xbd083008	-0.03324893
62	0x3e32cad8	0.17460191
63	0xbe20265d	-0.15639634
64	0x3d4b2215	0.04959305
65	0x3d31ed07	0.043438938
66	0x3e64a057	0.2232679
67	0x3c96b940	0.018398881
68	0x3e55095d	0.20804353
69	0x3e91b997	0.28461906
70	0x3d735f14	0.059416845
71	0xbdba5cd0	-0.09099734
72	0xbe04f9dd	-0.1298594
73	0x3e6cffd9	0.23144473
74	0xbe850566	-0.2598068
75	0x3c5dcde8	0.013537861
76	0x3e37ffea	0.17968717
77	0x3dbd0ce8	0.09230977
78	0x3d42128b	0.047380965
79	0x3e735e05	0.23766334
80	0x3e177ac2	0.14792922
81	0xbddbc9b1	-0.10731829
82	0xbd85b1a0	-0.0652802
83	0xbdd20ae9	-0.10255987
84	0x3c18aa54	0.009317953
85	0xbef9e462	-0.48807055
86	0x3d2d897f	0.042367455
87	0xbd8e558f	-0.06949913
88	0x3e5f403c	0.21801847
89	0xbee1e0ae	-0.4411673
90	0xbe82b276	-0.2552678
91	0xbd570e7a	-0.05250404
92	0x3c988f7e	0.01862311
93	0xbe848d9c	-0.2588929
94	0x3dcf129f	0.101109736
95	0xbdb0d4cf	-0.0863434
96	0xbe0f6ad5	-0.14005597
97	0xbcd9000e	-0.026489284
98	0xbcdc4540	-0.02688849
99	0x3df5bf55	0.11999384
100	0xbc816860	-0.01579684
101	0xbc01cdd5	-0.007922609
102	0xbd3e98a0	-0.046532273
103	0xbf0fca07	-0.56167644
104	0xbde27161	-0.110567816
105	0xbd310b09	-0.043223415
106	0x3df12b9e	0.117758974
107	0xbd2c4aae	-0.042063408
108	0xbddcc77a	-0.10780235
109	0x3c830bcd	0.015996838
110	0x3d89c46c	0.067269176
111	0x3df6b34e	0.120459184
112	0xbcb6fba3	-0.022336787
113	0xbe5d2d36	-0.21599278
114	0xbd9ce54a	-0.07660921
115	0x3d9f587a	0.077805474
116	0xbd417f44	-0.04724051
117	0x3cb393f8	0.021921143
118	0x3db4d28a	0.0882922
119	0xbea78ebe	-0.3272609
120	0xbd804891	-0.06263841
121	0xbe2470b5	-0.1605862
122	0x3e99a175	0.30005994
123	0xbd9e3e1b	-0.077266894
124	0x3df45f7a	0.11932273
125	0x3dc1fd8c	0.09472188
126	0x3c1c2864	0.009531114
127	0x3dcad822	0.09904505
128	0x3e316158	0.1732229
129	0xbdbd285b	-0.09236213
130	0xbe3b71e8	-0.1830517
131	0xbe401bc4	-0.18760592
132	0xbee175e4	-0.44035256
133	0x3ca4835f	0.020082174
134	0xbe84bf90	-0.259274
135	0x3e9216b3	0.28532943
136	0xbd9f882c	-0.077896446
137	0x3d157da0	0.03649676
138	0xbd8801a4	-0.06640938
139	0xbd3e1932	-0.046410747
140	0x3e38364b	0.17989461
141	0xbd3af992	-0.045648165
142	0x3e1cb4c4	0.15303332
143	0x3e2184e3	0.15773349
144	0xbd5d0284	-0.053957477
145	0x3e0740ff	0.13208388
146	0x3b1c1595	0.0023816575
147	0x3e64d72c	0.22347707
148	0xbe84ffcf	-0.25976416
149	0xbd60db11	-0.054896418
150	0x3e177fae	0.147948
151	0xbe5d8687	-0.2163335
152	0x3db812b9	0.08987946
153	0xbe14862e	-0.1450431
154	0x3cd753c1	0.026285054
155	0xbe6eaaeb	-0.23307388
156	0x3d96c6d4	0.07362142
157	0x3e6cf107	0.2313882
158	0x3dc259fe	0.09489821
159	0xbade90bc	-0.001698039
160	0xbe620977	-0.22073923
161	0xbe82e5aa	-0.25565845
162	0x3e255182	0.16144374
163	0x3dbff997	0.09373777
164	0x3da1d458	0.079018295
165	0xbd82bd57	-0.0638377
166	0x3bf55a37	0.007487561
167	0xbe28d7f7	-0.16488634
168	0xbdf343d2	-0.1187817
169	0xbe658b03	-0.2241631
170	0x3e2dc868	0.1697098
171	0x3b5c9c3f	0.0033662466
172	0x3d3ae110	0.045624793
173	0xbdbf01bf	-0.09326505
174	0xbd386955	-0.045022327
175	0xbe8d524f	-0.2760186
176	0xbe0e0869	-0.13870396
177	0xbe24e11a	-0.16101494
178	0xbe9cb082	-0.30603415
179	0x3e03157f	0.12801169
180	0x3e922421	0.2854319
181	0xbacec79e	-0.0015776043
182	0x3e2d600a	0.16931167
183	0x3e0b6853	0.13614015
184	0x3d8fc606	0.07020192
185	0xbd69abf3	-0.05704875
186	0xbe8bc3fe	-0.27297968
187	0x3e4d9715	0.20077164
188	0xbe0053b4	-0.1253193
189	0x3dfdd31e	0.12393783
190	0xbd213415	-0.03935631
191	0x3d93c675	0.07215587
192	0x3e35c58d	0.17751141
193	0xbdef16d3	-0.11674275
194	0x3cf743d0	0.030183703
195	0xbe4533fa	-0.19258109
196	0xbdf64305	-0.12024502
197	0xbce2e4f8	-0.027697071
198	0x3d9ca805	0.07649235
199	0x3e56c3ca	0.20973125
200	0xbe5c7dac	-0.21532315
201	0x3db70df1	0.08938206
202	0xbe450ab9	-0.19242372
203	0xbcdb64c4	-0.026781447
204	0x3e4262eb	0.18983047
205	0xbd6a39b6	-0.057183944
206	0x3d42fc2a	0.047603764
207	0x3e890acc	0.2676605
208	0x3e6a43b2	0.22877386
209	0x3d90a7e8	0.070632756
210	0x3d74757d	0.059682358
211	0xbe7a59dc	-0.24448341
212	0x3e1a879a	0.1509079
213	0xbe2a93d5	-0.16657956
214	0xbe58754e	-0.21138498
215	0xbe89aade	-0.26888174
216	0x3e8ae236	0.2712571
217	0x3ce04e19	0.02738099
218	0x3d0211c7	0.031755235
219	0x3c3093d6	0.010777434
220	0xbdb8743c	-0.09006545
221	0xbd6a52cc	-0.057207868
222	0xbe92f110	-0.2869954
223	0x3d4365be	0.04770445
224	0xbe0f39e9	-0.13986935
225	0xbcfea11b	-0.03108268
226	0xbea17815	-0.31536928
227	0xbd845e46	-0.06463294
228	0xbc3b435a	-0.011429632
229	0xbd64fa50	-0.05590278
230	0x3c2286f0	0.009919867
231	0xbe97501c	-0.29553306
232	0xbec63b9c	-0.38717353
233	0xbe5bd45a	-0.21467724
234	0xbc84017e	-0.016113993
235	0x3d14ff28	0.03637615
236	0xbe05b4af	-0.13057207
237	0xbe0eb6cb	-0.13936917
238	0x3d9337f0	0.071884036
239	0x3e8dd4fc	0.27701557
240	0x3b412657	0.0029472315
241	0xbe94a172	-0.29029423
242	0x3e9a2977	0.3010976
243	0xbe01790b	-0.1264383
244	0x3d05a98c	0.032632396
245	0x3e2b77dc	0.16744941
246	0x3d8bdd28	0.068292916
247	0xbde3bab5	-0.11119596
248	0xbcd07d9d	-0.025450522
249	0x3e015d10	0.12633157
250	0x3dc6eef2	0.09713544
251	0xbcbd527c	-0.02311062
252	0x3e3b3b87	0.18284427
253	0xbe052049	-0.13000597
254	0x3e36f607	0.1786729
255	0x3e328de9	0.17436947

fc2.bias f4 [64]
0	0xbc0025b1	-0.007821486
1	0x3e346d70	0.17619872
2	0xbe0b30cc	-0.13592833
3	0xbcb3fe36	-0.021971803
4	0x3c42dd2c	0.011893552
5	0x3e3c07ec	0.18362397
6	0xbe14dd7c	-0.14537615
7	0xbd700fd1	-0.058608834
8	0x3e0c934c	0.13728064
9	0x3e1c7c43	0.15281777
10	0xbdab2440	-0.083565235
11	0x3d6fccf6	0.058545075
12	0xbd04602a	-0.03231827
13	0x3c82f07d	0.015983814
14	0x3d719014	0.058975294
15	0x3dc39c28	0.09551269
16	0xbe78f8df	-0.24313687
17	0xbd42e178	-0.047578305
18	0x3d844264	0.064579755
19	0xbca14d33	-0.019690132
20	0x3da3fa03	0.0800667
21	0x3dc0b31e	0.09409164
22	0x3e6a2536	0.22865757
23	0xbd69e441	-0.057102446
24	0x3d619f21	0.055083398
25	0x3d02634d	0.03183298
26	0xbc92448b	-0.01785495
27	0x3e2fc319	0.17164268
28	0x3d3e9f75	0.04653879
29	0xbdf3d78f	-0.11906349
30	0x38a2c8e4	7.762181e-05
31	0x3d8142a4	0.06311539
32	0x3caf5864	0.021404453
33	0x3dd1175c	0.102095336
34	0x3de31ac2	0.11089088
35	0x3e85f5fd	0.26164237
36	0x3c0d04a9	0.008607068
37	0x3e0df9f9	0.13864888
38	0xbdb1824a	-0.08667429
39	0xbb90180a	-0.004397397
40	0x3d86be60	0.0657928
41	0x3cbaaa4d	0.022786284
42	0x3e2078f1	0.15671135
43	0xbc7c2a5b	-0.015390958
44	0x3e42e003	0.19030766
45	0xbd0fb6ce	-0.035086446
46	0xbc905f0b	-0.017623445
47	0x3db280c5	0.08715967
48	0xbde2436e	-0.110480174
49	0x37430840	1.1624827e-05
50	0x3e185008	0.1487428
51	0x3da1daf5	0.07903091
52	0x3e5499f5	0.20761855
53	0xbe0aeadb	-0.13566153
54	0xbd3d651a	-0.046238996
55	0x3e9d3d0c	0.30710638
56	0x3e2dbccb	0.1696655
57	0xbd977528	-0.07395393
58	0xbdaad910	-0.08342183
59	0x3e21c057	0.15796028
60	0x3e828844	0.25494587
61	0xbcb5c644	-0.022189267
62	0x3e1a1925	0.15048654
63	0x3dbc2293	0.09186282

fc3.weight f4 [10, 64]
0	0xbe831884	-0.2560464
1	0x3e3b9c5c	0.18321365
2	0xbe651a95	-0.22373421
3	0xbe62e09b	-0.22155993
4	0x3e772e0f	0.24138664
5	0xbee11167	-0.4395859
6	0x3d87c583	0.06629469
7	0x3db69cb0	0.089166045
8	0xbe91d74b	-0.28484568
9	0x3e2453f5	0.16047652
10	0x3d734bb6	0.059398375
11	0x3ddb8475	0.107186235
12	0xbd57f228	-0.052721173
13	0xbe764beb	-0.24052398
14	0xbdc74022	-0.09729029
15	0x3e1bb516	0.15205798
16	0x3e2d0af6	0.16898713
17	0xbdb0dadf	-0.08635496
18	0x3dd3c8ef	0.103410594
19	0xbe098090	-0.13427949
20	0xbe83b796	-0.25726002
21	0xbe8dde35	-0.27708593
22	0xbea24949	-0.31696537
23	0x3e013612	0.12618282
24	0xbe738ee6	-0.2378498
25	0xbeb6d95f	-0.35712716
26	0xbe8804b4	-0.26566088
27	0xbe5a90f5	-0.21344359
28	0xbec6fdf3	-0.38865623
29	0x3d75c7f4	0.060005143
30	0x3d15ab0d	0.03654008
31	0x3e59f4e4	0.21284825
32	0x3e77e608	0.24208844
33	0xbddb1772	-0.10697831
34	0xbe9ababc	-0.30220592
35	0xbe9ffd8b	-0.31248125
36	0xbe70f14e	-0.2352955
37	0x3c032d45	0.008006399
38	0x3dc70b2d	0.097189285
39	0xbe8681ab	-0.26270804
40	0xbe755104	-0.23956686
41	0x3e3a0d08	0.18169034
42	0x3e493e8d	0.19652767
43	0xbe2f4fca	-0.17120281
44	0xbf0bbb38	-0.5458255
45	0xbd9de029	-0.07708771
46	0xbe9e95f6	-0.30973786
47	0x3dc6a734	0.0969986
48	0xbd8b14d3	-0.06791081
49	0x3cd8b66a	0.02645417
50	0xbdc97960	-0.098376036
51	0xbeca0e7c	-0.39464176
52	0x3e05dc53	0.13072328
53	0x3d2f0f87	0.042739417
54	0x3ea25a02	0.31709296
55	0xbea33e78	-0.31883597
56	0x3ca328d5	0.019916931
57	0x3e977a9b	0.29585728
58	0x3d9967b6	0.074904844
59	0x3e496c50	0.19670224
60	0x3e347c44	0.17625529
61	0xbe4913ee	-0.19636509
62	0x3e8445a1	0.25834373
63	0xbea0f62e	-0.3143782
64	0xbe8ae06a	-0.2712434
65	0xbe94956b	-0.29020247
66	0x3e7af3aa	0.24507013
67	0xbeaaef97	-0.33385918
68	0xbeaeac27	-0.34115717
69	0x3e0b2b89	0.13590826
70	0x3c72f078	0.01482784
71	0xbeacc05e	-0.33740515
72	0x3e0aeec5	0.13567646
73	0x3dea32be	0.114354596
74	0x3cc65e80	0.024214983
75	0xbe9bb0ff	-0.30408475
76	0xbd04ff47	-0.032470014
77	0xbec07d77	-0.37595722
78	0x3e9f6de7	0.31138536
79	0xbe77e71c	-0.24209255
80	0xbe07b41a	-0.13252297
81	0xbec47a8f	-0.38374755
82	0x3dbc0e20	0.09182382
83	0xbe4d9b62	-0.20078805
84	0x3e1c0f8b	0.15240304
85	0xbe8c6fa4	-0.27428925
86	0x3e5f5695	0.21810372
87	0x3d13289b	0.035927396
88	0x3e2490e6	0.160709
89	0x3dec25dc	0.115306586
90	0xbe4d3d7d	-0.20042987
91	0x3e4c691b	0.1996197
92	0x3ddfb326	0.10922842
93	0x3d1f425f	0.038881656
94	0x3d96db25	0.07366017
95	0xbe52c0eb	-0.20581405
96	0xbeb194ac	-0.3468374
97	0x3e2afc7a	0.16697875
98	0x3e83b5aa	0.25724536
99	0x3bf4cf14	0.0074709747
100	0x3c6edbe7	0.014578796
101	0x3d4a7aa6	0.049433373
102	0xbeb17d1a	-0.34665757
103	0xbe95b42b	-0.2923902
104	0xbe6895f2	-0.2271345
105	0xbdf32313	-0.11871924
106	0xbf037b3b	-0.5135991
107	0xbc853770	-0.016261786
108	0x3e59597a	0.21225539
109	0x3ea3c8fa	0.3198927
110	0x3dafce00	0.08584213
111	0xbe8b1faa	-0.27172595
112	0xbc8281f8	-0.015931115
113	0xbf0c985f	-0.5492
114	0x3e96b6eb	0.2943643
115	0x3eac4adc	0.33650863
116	0xbeb9f9ca	-0.36323386
117	0xbdceabce	-0.10091363
118	0xbe560cf8	-0.20903385
119	0x3e34dd9b	0.17662661
120	0xbe5b6284	-0.214243
121	0xbe86c5c2	-0.26322752
122	0xbd86025c	-0.06543419
123	0xbee1d07f	-0.44104382
124	0xbe8d1939	-0.27558306
125	0xbe94a7e6	-0.29034346
126	0xbec5e23c	-0.38649166
127	0x3e26f23f	0.16303347
128	0x3da1f9b0	0.07908952
129	0xbd8bf7ef	-0.06834399
130	0x3d9bac91	0.07601274
131	0xbc41aef3	-0.011821496
132	0x3e21ed83	0.1581326
133	0xbe4c5c29	-0.19957031
134	0xbd7eba1d	-0.06218921
135	0x3ce83389	0.028344886
136	0xbdc947da	-0.09828158
137	0x3dd65d5a	0.10467024
138	0xbdcf98c5	-0.1013656
139	0x3e5c90b6	0.21539578
140	0x3d62c29a	0.055361368
141	0x3c3eed11	0.011653201
142	0xbebd339a	-0.3695343
143	0x3df472ca	0.11935957
144	0xbe4d2a50	-0.20035672
145	0x3dece849	0.115677424
146	0xbb8ef086	-0.0043621687
147	0xbe26edbc	-0.16301626
148	0xbd32b40e	-0.043628745
149	0xbde6dfc5	-0.112731494
150	0xbc9b8317	-0.018983407
151	0xbe6ac2bd	-0.2292585
152	0x3e062e47	0.13103591
153	0x3dd8f04b	0.10592707
154	0x3d8ebe67	0.0696991
155	0x3d90a67b	0.07063004
156	0xbdcccdac	-0.10000166
157	0x3d4c9b2d	0.049952675
158	0xbd1de24f	-0.038545903
159	0x3e871bb2	0.26388317
160	0xbe88c0d6	-0.26709622
161	0x3e245080	0.16046333
162	0x3e2eacb6	0.17058071
163	0xbeda2c67	-0.42612
164	0xbe3c5818	-0.1839298
165	0xbe817bc2	-0.25289732
166	0xbddd1198	-0.10794371
167	0x3da0225d	0.07819054
168	0xbdb8ef14	-0.090299755
169	0xbea86b68	-0.32894444
170	0x3d4bc34d	0.0497468
171	0x3e8be2ca	0.27321464
172	0xbf10a1f7	-0.5649714
173	0xbe612700	-0.21987534
174	0xbea5c4f4	-0.32376826
175	0x3d2a2690	0.041540682
176	0x3de54f68	0.11196786
177	0xbc716b87	-0.014735109
178	0xbeb75c61	-0.35812667
179	0x3e58ddf3	0.21178417
180	0xbe6d5cb2	-0.23179892
181	0x3d668b0a	0.05628494
182	0xbd162fb3	-0.036666583
183	0xbe0dd2a8	-0.1384989
184	0xbe1ffcca	-0.15623775
185	0x3e6508e0	0.22366667
186	0x3d3f2c68	0.04667321
187	0xbe9882c5	-0.2978727
188	0xbd4abe88	-0.04949811
189	0x3e829d19	0.2551048
190	0xbe91433b	-0.28371605
191	0x3e39886e	0.1811845
192	0xbec76183	-0.38941583
193	0xbeaf09c4	-0.34187138
194	0x3e78f082	0.24310496
195	0x3e70aa3f	0.23502444
196	0xbe4f6001	-0.20251466
197	0x3e1979a6	0.14987811
198	0x3c4913e3	0.012272808
199	0xbd3fd6e6	-0.046835802
200	0xbea25e33	-0.31712493
201	0x3e15d132	0.14630583
202	0x3d935357	0.0719363
203	0x3e81a302	0.25319678
204	0xbdb1b0c3	-0.08676293
205	0xbe0a076d	-0.13479395
206	0xbe81941b	-0.25308308
207	0xbe1a38c0	-0.15060711
208	0xbd917964	-0.071032315
209	0x3eae0c23	0.33993635
210	0x3e17a5b2	0.14809301
211	0xbd9fcc20	-0.07802606
212	0xbe9254cb	-0.28580317
213	0xbd9b16ef	-0.075727336
214	0xbee2cea1	-0.4429827
215	0x3e17950e	0.14802954
216	0x3e793ef2	0.24340418
217	0xbc918e12	-0.01776794
218	0x3e5f8cef	0.21831106
219	0xbe07e839	-0.1327218
220	0x3e55f957	0.20895897
221	0x3d03f3ef	0.032215055
222	0x3e16482b	0.14675967
223	0xbe947028	-0.28991818
224	0xbe13936d	-0.14411707
225	0x3e622e4e	0.22087976
226	0xbe9ce128	-0.3064053
227	0x3e0b24ca	0.13588253
228	0x3e8303e6	0.25588912
229	0xbcd1d7c6	-0.025615584
230	0x3e1cff1b	0.1533169
231	0xbee79cff	-0.45236966
232	0xbb8ee38a	-0.004360621
233	0xbe8be06d	-0.2731966
234	0xbd91c3c0	-0.071174145
235	0xbeaade49	-0.33372715
236	0x3d222bb6	0.039592467
237	0xbd3b9bb6	-0.045802794
238	0x3e5255ce	0.20540544
239	0x3e9a73c7	0.30166456
240	0xbd126916	-0.03574475
241	0xbead3e57	-0.33836624
242	0xbddbb111	-0.10727132
243	0xbe8db845	-0.2767965
244	0xbe974169	-0.2954209
245	0xbd1f326f	-0.038866457
246	0xbed65ac2	-0.41866118
247	0xbec5e0de	-0.38648123
248	0xbe43219e	-0.19055793
249	0xbe05b8d2	-0.13058785
250	0x3dbfbc3c	0.09362075
251	0xbeca3b10	-0.39498186
252	0x3e4e7fca	0.20165935
253	0x3d68726e	0.056749754
254	0x3df3ed2c	0.11910471
255	0x3e3ac1be	0.1823797

fc3.bias f4 [10]
0	0xbe378fb3	-0.1792591
1	0x3e0f7682	0.14010051
2	0xbdbbe98b	-0.09175404
3	0xbde5c907	-0.112199835
4	0xbdaeee13	-0.08541503
5	0xbdd89fb1	-0.10577334
6	0xbd8086d8	-0.062757194
7	0xbadb9267	-0.0016752005
8	0x3e2194e7	0.15779458
9	0xbcf816c6	-0.030284297
