s2_Organization_and_version_control/M6 - Code Structure/models/training_model.pt (torch, 439383 bytes, 6 tensors)

fc1.weight f4 [128, 784]
0	0xbc178ddc	-0.0092501305
1	0xbc1c51fc	-0.009541031
2	0x3c6202a0	0.013794571
3	0xbcade43e	-0.021226998
4	0xbc8cfc3e	-0.017210122
5	0xbbc15900	-0.005900502
6	0xbd0664af	-0.032810863
7	0xbbc2a208	-0.005939726
8	0xb914b900	-0.00014183298
9	0xbce2087e	-0.02759194
10	0xbbd73d2c	-0.0065685716
11	0xbd8dbc0a	-0.06920631
12	0x3c8c3c40	0.017118573
13	0x3c95e845	0.018299231
14	0x3ba444cb	0.0050130836
15	0xbc639af8	-0.013891928
16	0xbd2fdac6	-0.042933248
17	0xbc6c8312	-0.0144355465
18	0xbcf17443	-0.029474383
19	0x3cadfce0	0.021238744
20	0x3cba3218	0.022728965
21	0xbcb8149e	-0.022470769
22	0xbbe3b4c0	-0.0069490373
23	0xbca936ca	-0.020656008
24	0x3c205e5c	0.009788122
25	0xbd00260b	-0.03128628
26	0x3cf89fba	0.030349601
27	0x3d0e7b11	0.034785334
28	0xbb90e7c0	-0.004422158
29	0xbc8f343e	-0.017480966
30	0xbb631d60	-0.003465496
31	0xb995f780	-0.00028603896
32	0x3b2dbc30	0.0026509874
33	0x3ca9227a	0.020646323
34	0x3c664a7c	0.014055844
35	0xbd7630a5	-0.060104985
36	0x3e01b1a7	0.12665425
37	0xbb821722	-0.003970043
38	0x3d2006bb	0.03906892
39	0x3d522927	0.051308777
40	0xbd478728	-0.04871288
41	0xbc44d415	-0.012013455
42	0xbcf635bf	-0.030054925
43	0xbd1353a9	-0.035968456
44	0xbde715d9	-0.11283464
45	0xbdb84e54	-0.08999315
46	0xbc93601c	-0.017990164
47	0xbd4f78d9	-0.05065236
48	0xbdc1e543	-0.09467556
49	0xbdbecf6f	-0.093169086
50	0xbd35c762	-0.0443796
51	0xbc614a98	-0.013750695
52	0x3cf2db5e	0.029645618
53	0xbd0632bc	-0.032763228
54	0x3cfe5b3a	0.03104936
55	0xbba342d4	-0.004982332
56	0xbc5d77ee	-0.013517363
57	0xbc5d044a	-0.013489792
58	0x3bdb36c8	0.00668988
59	0xbc4510aa	-0.012027899
60	0x3b0a942a	0.0021145442
61	0xbd3e3bec	-0.046443865
62	0xbd755aa2	-0.059900887
63	0x3d89af2d	0.06722865
64	0xbe23fbae	-0.16013977
65	0xbe60b8a0	-0.21945429
66	0xbdbe4bc1	-0.09291793
67	0xbdd736e1	-0.10508514
68	0xbe0a0a82	-0.13480571
69	0xbe5b311b	-0.21405451
70	0xbe1978ca	-0.14987484
71	0xbe44ce24	-0.19219261
72	0xbeb2e8ef	-0.3494334
73	0xbe70cbfa	-0.23515311
74	0xbddd168e	-0.107953176
75	0xbc27a6d9	-0.010232651
76	0xbd295ffc	-0.041351303
77	0xbd83f5fa	-0.06443401
78	0xbd8aca18	-0.067768276
79	0xbcc84a90	-0.024449617
80	0x3c116724	0.008874688
81	0xbbc1c700	-0.005913615
82	0xba9b5400	-0.0011850595
83	0x3c085024	0.008319888
84	0x3bbe0590	0.005799003
85	0xbc0ec1ce	-0.008713199
86	0xbbe4a608	-0.0069778003
87	0xbd20626d	-0.039156366
88	0xbdae8785	-0.08521942
89	0xbc88c94f	-0.016697554
90	0xbc7216d8	-0.014775954
91	0xbc3e932c	-0.011631768
92	0x3da119c1	0.0786624
93	0xbb9a2b30	-0.0047048554
94	0x3d648e84	0.055799976
95	0x3aebf4f5	0.001800208
96	0xbd93bc37	-0.072136335
97	0xbbacf8a3	-0.0052786632
98	0xbc0c6158	-0.00856813
99	0x3b91de72	0.0044515664
100	0xbd6aca8c	-0.05732207
101	0xbe1e82da	-0.15479603
102	0xbe162e47	-0.14666091
103	0xbd912c39	-0.07088513
104	0xbdce7313	-0.100805424
105	0xbde6d81a	-0.11271687
106	0xbd569ee8	-0.05239764
107	0xbe150cd9	-0.14555682
108	0x3c1b359c	0.009473231
109	0xbc3484d3	-0.011017996
110	0x3ba69038	0.00508311
111	0xbcd800f3	-0.02636764
112	0x3c88e38a	0.016710062
113	0xbd080230	-0.03320521
114	0x3ce1971a	0.027537871
115	0x3d0c4046	0.034240983
116	0x3d6bba3b	0.05755065
117	0x3ddba627	0.107250504
118	0x3e20bfcb	0.15698163
119	0x3e4acec1	0.19805433
120	0x3eb6ebed	0.35726872
121	0x3e32c49f	0.17457817
122	0x3d5daed3	0.054121803
123	0x3ca32efb	0.019919863
124	0x3b99268a	0.0046737837
125	0x3b4b90a7	0.0031061561
126	0x3da52bcd	0.08064995
127	0x3d457417	0.048206415
128	0x3d8d13a4	0.06888512
129	0x3c4cabc7	0.012492127
130	0x3d092218	0.03347978
131	0xbdbcd364	-0.09220007
132	0x3d9b6ba6	0.07588892
133	0xbcc9324b	-0.024560114
134	0xbd539be8	-0.051662356
135	0xbdfa98a5	-0.12236146
136	0xbe06906d	-0.13141032
137	0xbcd072bd	-0.025445336
138	0x3bc4f939	0.006011155
139	0xbcd80155	-0.026367823
140	0x3cfbe712	0.030749831
141	0xbca2264e	-0.019793656
142	0x3d0b3d66	0.0339941
143	0x3c9f64a7	0.019457174
144	0xbdc0aa8d	-0.0940753
145	0x3d95247d	0.0728235
146	0x3e053e29	0.13011993
147	0x3e0bd77d	0.13656421
148	0x3dcf50db	0.10122844
149	0x3d3fdfce	0.046844296
150	0x3d524345	0.051333684
151	0x3dfb54f1	0.12272061
152	0x3df4d921	0.119554766
153	0x3d680756	0.05664762
154	0xbd31cc91	-0.04340798
155	0xbd2bebc2	-0.041972883
156	0xbce333cc	-0.02773466
157	0x3df70769	0.1206196
158	0x3d9fa59b	0.077952586
159	0x3d168138	0.036744326
160	0x3de19ed8	0.11016625
161	0xbd712356	-0.05887159
162	0xbe3d255a	-0.1847128
163	0xbd0963be	-0.033542387
164	0xbd93617f	-0.0719633
165	0xbe2af086	-0.16693315
166	0xbc1f5e0c	-0.009727012
167	0xbd071e0d	-0.032987643
168	0x3c9f2ebe	0.019431468
169	0x3d1a885b	0.037727695
170	0x3e2e127b	0.16999237
171	0xbca14a0c	-0.019688629
172	0xbe0af1ca	-0.13568798
173	0xbd1eafe8	-0.038741976
174	0xbe08193e	-0.13290879
175	0xbd2a6a42	-0.04160524
176	0x3da8c39e	0.08240436
177	0x3cd55672	0.026042197
178	0x3b63475e	0.003467999
179	0x3db361da	0.08758898
180	0x3da80e55	0.082058586
181	0x3c60f27e	0.01372969
182	0x3d747062	0.05967749
183	0xbb17d2d4	-0.0023166435
184	0x3ca1b9e5	0.019741962
185	0x3e4e5725	0.2015043
186	0x3ddc40a2	0.10754515
187	0x3da3d63f	0.079998486
188	0x3e26bd16	0.16283068
189	0x3e04e039	0.12976159
190	0xbdba3d52	-0.09093727
191	0x3d633e47	0.055479314
192	0x3d1ab249	0.037767682
193	0xbde52e11	-0.11190427
194	0xbd616cdc	-0.055035457
195	0xbe0b076c	-0.1357705
196	0x3c25a01c	0.010108974
197	0xbc0f90d4	-0.008762557
198	0x3e6bb817	0.23019443
199	0xbc4c5caf	-0.012473269
200	0xbdf322b3	-0.11871853
201	0xbe519818	-0.20468175
202	0xbe6fe0e5	-0.23425634
203	0xbe24fb5e	-0.16111514
204	0xbd80c29d	-0.062871195
205	0xbd2e7430	-0.042591274
206	0xbd0813e5	-0.033222098
207	0x3e1bc947	0.152135
208	0x3e101ad4	0.14072734
209	0x3e368e3d	0.17827697
210	0x3dcc8b7a	0.099875405
211	0x3dd1339c	0.10214922
212	0x3db1f820	0.08689904
213	0x3e18afcd	0.14910813
214	0x3da83035	0.0821232
215	0x3dc7963c	0.09745452
216	0x3d946c39	0.07247204
217	0x3daaa971	0.083331
218	0xbc891239	-0.016732322
219	0x3d9b2cfc	0.075769395
220	0x3cc43dbf	0.023955224
221	0xbe1066ef	-0.14101766
222	0xbe321746	-0.1739169
223	0xbe94f27f	-0.2909126
224	0xbc11f600	-0.008908749
225	0x3d944eed	0.072416164
226	0x3e198c0f	0.14994834
227	0x3e118e38	0.14214408
228	0x3c70ed10	0.014704958
229	0xbcea9e40	-0.028639913
230	0xbc9313ef	-0.017953841
231	0xbd9b137a	-0.07572074
232	0x3d36aad8	0.044596523
233	0xbd857e96	-0.06518285
234	0x3d85d7c0	0.06535292
235	0x3e239741	0.15975668
236	0x3e2abb0e	0.16672918
237	0x3e40f9a0	0.18845224
238	0x3df4ada9	0.119471855
239	0x3d459f0c	0.048247382
240	0x3e10eaf1	0.14152123
241	0x3e09198c	0.13388652
242	0x3dcb52bf	0.09927892
243	0x3d9be741	0.076124676
244	0x3de4ea90	0.11177552
245	0x3dc3b2aa	0.09555562
246	0xbe1a669e	-0.15078208
247	0xbdb99266	-0.090611264
248	0xbc8c881b	-0.017154744
249	0xbe730ed7	-0.2373613
250	0xbd9cc2dc	-0.07654354
251	0xbe23ac0a	-0.15983596
252	0xbc2aea8d	-0.010431898
253	0x3c7c9f11	0.015418784
254	0x3df609c8	0.120135844
255	0x3eb7f22c	0.3592695

fc1.bias f4 [128]
0	0x3d609c24	0.054836407
1	0xbc96f45f	-0.018427072
2	0x3d121302	0.03566266
3	0x3e06cdf4	0.13164502
4	0xbd2fc566	-0.042912863
5	0xbd996658	-0.07490224
6	0x3e074bab	0.13212459
7	0xbc874472	-0.01651213
8	0x3e35be75	0.17748435
9	0x3d00e34f	0.03146678
10	0xbc32facc	-0.010924052
11	0xbd7ca0be	-0.061676733
12	0xbc75174c	-0.014959168
13	0xbe170360	-0.14747381
14	0xbe726c1d	-0.23674054
15	0xbd5316a6	-0.05153527
16	0x3e2cfa3c	0.16892332
17	0x3e393731	0.1808746
18	0x3c861529	0.016367512
19	0x3e138e59	0.1440977
20	0x3d9d6d3e	0.07686852
21	0xbda2b1b5	-0.07944051
22	0x3e035736	0.12826237
23	0xbd0fcead	-0.03510921
24	0xbd87dede	-0.066343054
25	0xbe1370bb	-0.14398472
26	0xbc85d4d7	-0.016336842
27	0xbc9d62e3	-0.019212192
28	0xbe1af5c0	-0.15132809
29	0xbe22898f	-0.15872787
30	0xbd23d0ec	-0.039994165
31	0x3e1c7030	0.15277171
32	0xbe2e4e72	-0.17022112
33	0x3debe59e	0.115184054
34	0x3d3642f4	0.044497445
35	0xbdd037af	-0.10166871
36	0x3d94e4a3	0.072701715
37	0x3ddd1ce9	0.1079653
38	0xbd49404c	-0.049133584
39	0x3df44633	0.11927452
40	0xbd29f59b	-0.041493993
41	0xbd13b0c1	-0.036057238
42	0xbe204737	-0.15652166
43	0xbbec3c68	-0.0072093494
44	0xba3e2799	-0.00072538253
45	0xbce864ce	-0.02836838
46	0xbe61b0b0	-0.22040057
47	0x3e0dfa70	0.13865066
48	0x3e68760d	0.22701283
49	0xbda3714a	-0.079805925
50	0xbe0379eb	-0.12839477
51	0xbd2d2163	-0.04226817
52	0x3e1fa8ee	0.15591785
53	0xbd502eec	-0.050826
54	0xbe1f686d	-0.15567179
55	0xbd18986b	-0.037254732
56	0x3dbd2fb6	0.09237616
57	0x3da05f88	0.07830721
58	0xbe2df092	-0.16986302
59	0xbe1cdf95	-0.15319665
60	0xbaf9730e	-0.0019031481
61	0x3dd3940e	0.103309736
62	0xbe899b17	-0.26876137
63	0xbe2da752	-0.16958359
64	0x3db17fa7	0.08666926
65	0xbd09f105	-0.03367712
66	0x3bbb10f9	0.0057088104
67	0x3db02c74	0.08602229
68	0x3d0cc40b	0.03436665
69	0x3cc25f3c	0.023727052
70	0xbe17fac7	-0.14841758
71	0xbdf8d4a5	-0.12149934
72	0x3e278a1f	0.16361283
73	0xbd15594d	-0.036462117
74	0xbbfdf05e	-0.0077496013
75	0xbcdefb22	-0.027219359
76	0x3cc964d2	0.024584208
77	0xbccd67ce	-0.025073912
78	0xbdd72bd2	-0.10506405
79	0x3aa7d0fc	0.0012803371
80	0xbd1f06ab	-0.03882472
81	0xbd467316	-0.0484496
82	0xbd8b3b2d	-0.06798396
83	0xbc647027	-0.013942755
84	0xbd52d957	-0.051476803
85	0xbcbba5b6	-0.022906166
86	0xbca3c9f2	-0.019993756
87	0x3dbfe01b	0.093689166
88	0x3bef5b18	0.0073045604
89	0xbb8c2bc7	-0.0042776796
90	0x3b31bf93	0.0027122244
91	0xbc6791d9	-0.014133894
92	0xbcbe2eb0	-0.023215622
93	0x3db7baa6	0.08971147
94	0xbd156c53	-0.03648026
95	0xbbdd977d	-0.0067624436
96	0xbc0b1f57	-0.008491359
97	0xbdc3c84c	-0.09559688
98	0x3e6b3430	0.22969127
99	0x3c8097ee	0.015697446
100	0xbdae4c3b	-0.085106336
101	0x3b858de5	0.004075753
102	0xbdc893c7	-0.09793811
103	0xbe0c5f52	-0.13708237
104	0x3da30758	0.07960385
105	0xbe32e5ab	-0.17470424
106	0x3e352a3f	0.17691897
107	0xbdffbefe	-0.12487601
108	0xbe21409d	-0.15747304
109	0xbd4e413d	-0.050355185
110	0xbc0d8321	-0.008637221
111	0xbcace1a6	-0.021103691
112	0x3d81298d	0.06306753
113	0xbce3ca63	-0.027806466
114	0x3e46295a	0.19351712
115	0xbd5c581e	-0.053794973
116	0x3ce8ccb7	0.028417928
117	0xbc9f02cc	-0.019410513
118	0x3e4e840b	0.20167558
119	0xbe154d51	-0.14580275
120	0x3d90a545	0.07062773
121	0xbaf1a428	-0.0018435763
122	0xbdcae142	-0.09906246
123	0x3d445ed4	0.047941998
124	0x3d3eeac6	0.046610616
125	0xbe0053e7	-0.12532006
126	0xbc1818ad	-0.009283227
127	0xbd2897e6	-0.041160487

fc2.weight f4 [64, 128]
0	0x3e2c1736	0.1680573
1	0x3cde2eb4	0.02712188
2	0x3eb3a1aa	0.35084277
3	0x3dfe62dc	0.124212
4	0xbd8081b1	-0.06274737
5	0x3c8a0d4e	0.016852047
6	0x3e49586a	0.19662634
7	0x3d3003bc	0.04297231
8	0xbc0ffaa9	-0.008787789
9	0xbcf32300	-0.029679775
10	0x3d9e2180	0.07721233
11	0x3a8557ef	0.0010173301
12	0x3ec95890	0.3932538
13	0x3e0a739d	0.13520665
14	0x3da59858	0.08085698
15	0x3d6dacb5	0.058026034
16	0xbe2669ca	-0.16251293
17	0xbd9e86a4	-0.077405244
18	0x3d8b186c	0.067917675
19	0x3d2751ea	0.040849604
20	0xbd7dc99c	-0.061959848
21	0x3d2bb837	0.041923728
22	0x3e22f012	0.15911892
23	0xbc7e730e	-0.015530361
24	0x3d027b39	0.031855796
25	0x3dd8effe	0.1059265
26	0x3d212450	0.03934127
27	0xbbccf394	-0.0062546227
28	0xbcc72eea	-0.024314363
29	0x3e867984	0.26264584
30	0x3d7e654d	0.062108327
31	0xbdc50ab4	-0.09621182
32	0x3d96d07e	0.073639855
33	0x3d9fbe89	0.078000136
34	0xbeaefb86	-0.34176272
35	0x3d97b996	0.074084446
36	0xbe9836b1	-0.29729226
37	0x3de96e48	0.113979876
38	0xbd3067f3	-0.043067884
39	0x3da85fd7	0.08221405
40	0x3e62844e	0.22120783
41	0x3e50ea01	0.20401765
42	0xbc1fe47c	-0.009759065
43	0x3dd10d4e	0.10207616
44	0x3e23c8be	0.15994546
45	0x3e356bd9	0.17716922
46	0x3dcceeb6	0.10006468
47	0xbd9d606f	-0.07684409
48	0xbd19303b	-0.03739951
49	0x3cf0925f	0.02936667
50	0x3e366a74	0.17814046
51	0x3d499110	0.049210608
52	0xbe40dc40	-0.18834019
53	0x3cf8e666	0.0303833
54	0xbc8e6023	-0.017379826
55	0xbdc46a05	-0.09590534
56	0xbe32f03d	-0.17474456
57	0x3f036dc9	0.51339394
58	0x3e8c56cb	0.27409968
59	0x3db8e07a	0.090271905
60	0x3e8c9da5	0.27464023
61	0xbd980dfe	-0.07424544
62	0x3e49c49e	0.1970391
63	0x3e9e735d	0.3094739
64	0x3e26f450	0.16304135
65	0xbe3f2a7d	-0.18668552
66	0xbd7f4e39	-0.06233046
67	0xbdd9a6a2	-0.10627486
68	0x3ed142b1	0.40871194
69	0xbc4938d9	-0.01228162
70	0x3dd9e398	0.10639113
71	0x3d2be159	0.041962955
72	0xbe638146	-0.22217283
73	0xbe07676a	-0.13223043
74	0xbd9550d0	-0.072908044
75	0x3db12335	0.08649293
76	0xbde0f4d9	-0.10984201
77	0xbe48a20c	-0.19593066
78	0x3e29d057	0.16583382
79	0xbd4ca0e0	-0.04995811
80	0xbc4ccce5	-0.012500023
81	0x3c17e40a	0.009270677
82	0x3c3918e3	0.011297437
83	0xbd4944ad	-0.04913776
84	0xbdcbbf3e	-0.09948586
85	0xbcc4d1f7	-0.0240259
86	0x3dde0ff6	0.10842888
87	0xbe9c7f92	-0.30566078
88	0xbbdb1e33	-0.0066869496
89	0x3d2f402f	0.04278582
90	0xbe1b6062	-0.15173486
91	0x3d68f6e8	0.056876093
92	0xbde97b15	-0.11400429
93	0x3e6fb848	0.23410141
94	0xbcc6597d	-0.024212593
95	0xbced7852	-0.028988037
96	0x3e1d583c	0.1536569
97	0x3da3c84c	0.07997188
98	0xbe55105e	-0.20807025
99	0x3c1b5aba	0.00948208
100	0x3e22b543	0.15889458
101	0xbb8ff088	-0.004392687
102	0xbe31cc2e	-0.17363045
103	0xbd24fc87	-0.04027989
104	0x3e3cb06f	0.18426679
105	0x3db62656	0.08894031
106	0x3ed91d52	0.42405182
107	0x3e34262e	0.1759269
108	0x3c2d64af	0.010583087
109	0x3f160ddf	0.58614916
110	0x3ceb1fbd	0.028701657
111	0xbc7a924d	-0.01529367
112	0xbda1058e	-0.078623876
113	0xbb8c74c7	-0.004286382
114	0xbd2e2025	-0.042511124
115	0x3e3bfe77	0.1835879
116	0xbe4d9902	-0.20077899
117	0x3e75d8e9	0.24008526
118	0x3d3a35b1	0.04546136
119	0xbd2ad026	-0.041702412
120	0xbe4e7377	-0.20161234
121	0x3b9c0f90	0.0047625974
122	0xbda6ec85	-0.08150581
123	0x3e3e64a0	0.18593073
124	0x3e84995c	0.25898254
125	0x3cb123e9	0.021623569
126	0x3d64d053	0.055862736
127	0x3e8ac7d7	0.2710559
128	0xbe63ab5f	-0.22233342
129	0xbe1adad8	-0.15122545
130	0xbe438ad8	-0.19095933
131	0x3d272592	0.040807314
132	0x3da42d38	0.08016437
133	0x3d637632	0.05553264
134	0xbcea33d1	-0.028589161
135	0x3cad9e27	0.021193577
136	0x3e656b7a	0.2240428
137	0x3ea13206	0.31483477
138	0x3afae219	0.0019140869
139	0x3d1af734	0.037833408
140	0xbe96422c	-0.2934736
141	0x3e37a0e3	0.17932467
142	0xbd8f0600	-0.06983566
143	0xbd895f73	-0.067076586
144	0x3e91c3f0	0.284698
145	0x3e090935	0.13382418
146	0x3cf1c07b	0.029510727
147	0x3e37df0d	0.17956181
148	0x3e57f4c6	0.21089467
149	0xbca9d656	-0.020732086
150	0x3e250eae	0.16118881
151	0x3ea906fa	0.33013135
152	0xbc7bbf99	-0.015365505
153	0xbe711cc0	-0.23546124
154	0x3d99e449	0.07514245
155	0xbe15668a	-0.14589897
156	0xbd10e472	-0.035374112
157	0xbe813bb6	-0.25240868
158	0x3dfbbe90	0.12292206
159	0xba0d74aa	-0.00053961074
160	0xbd08d9ea	-0.033410944
161	0x3caef76c	0.021358214
162	0x3edaeefa	0.4276045
163	0x3cfa818d	0.030579353
164	0x3e93760a	0.28800994
165	0x3d868a32	0.065693274
166	0xbd43e657	-0.04782709
167	0x3e77e42d	0.24208136
168	0xbdea1266	-0.114292905
169	0x3d3fc34f	0.04681712
170	0xbe20c4dd	-0.15700097
171	0xbcff44b8	-0.031160697
172	0xbe80723f	-0.25087163
173	0xbe3607ec	-0.1777646
174	0xbe143ac6	-0.14475545
175	0x3e8d2c20	0.27572727
176	0x3eb7ad4a	0.35874397
177	0x3b56b262	0.0032760133
178	0xbec173d8	-0.37783694
179	0xbd9f4d84	-0.07778457
180	0x3e766c3d	0.24064727
181	0xbdba2543	-0.09089138
182	0x3db36d16	0.08761041
183	0x3e3c09a2	0.1836305
184	0x3e2e2a2a	0.17008272
185	0xbea426a9	-0.32060745
186	0xbd1b3424	-0.037891522
187	0xbdc88acd	-0.09792099
188	0xbeb7fd9d	-0.3593568
189	0x3e5f04a9	0.21779121
190	0xbc84839c	-0.016176037
191	0xbd90545e	-0.07047342
192	0xbce6ef2d	-0.02819022
193	0x3dc7a20e	0.09747706
194	0x3e79a95a	0.24381009
195	0x3d571008	0.052505523
196	0xbe2797bb	-0.16366474
197	0xbc962f25	-0.018333027
198	0xbd144bb2	-0.036205
199	0xbde2d96d	-0.11076627
200	0x3d382a65	0.044962306
201	0x3e32b47f	0.17451666
202	0x3d2997f7	0.04140469
203	0xbcf3f5df	-0.029780326
204	0x3dc37d90	0.095454335
205	0x3e02a71e	0.12759063
206	0xbe84580b	-0.2584842
207	0xbd913ea3	-0.07092025
208	0x3cca8c48	0.024725094
209	0x3d989b8c	0.07451543
210	0x3db799b0	0.089648604
211	0xbd627f96	-0.055297457
212	0x3e472030	0.19445872
213	0x3d9d69ac	0.07686171
214	0xbd6b963a	-0.057516314
215	0x3dfb4e7f	0.12270831
216	0x3dcc21ce	0.09967385
217	0x3c4aa054	0.012367327
218	0x3ede97e4	0.43475258
219	0xbd6e29a0	-0.058145165
220	0xbc8aebc1	-0.01695812
221	0x3e80f645	0.2518789
222	0xbd79eb41	-0.06101537
223	0x3e2acf80	0.16680717
224	0xbe40dbc9	-0.18833841
225	0xbc951744	-0.01819957
226	0x3e55e0d9	0.20886554
227	0x3d118c73	0.035534333
228	0xbdac1d2f	-0.08404004
229	0xbd54ddfb	-0.05196951
230	0x3e5468d7	0.20743118
231	0xbbedc489	-0.007256095
232	0xbdf0a45a	-0.117500976
233	0xbe71f5ab	-0.23628871
234	0xbecb5a38	-0.3971727
235	0xbe186dff	-0.1488571
236	0xbca7dee5	-0.020492027
237	0xbe2f7e6f	-0.17138074
238	0xbe8db45e	-0.27676672
239	0xbd8cf8dc	-0.06883404
240	0x3ded423b	0.11584898
241	0xbd092cff	-0.033490177
242	0x3e45973a	0.1929597
243	0x3da0621b	0.07831212
244	0x3e8be981	0.27326587
245	0xbde90634	-0.11378136
246	0x3d196e01	0.037458424
247	0xbde5e6c3	-0.11225655
248	0x3ee11399	0.43960264
249	0xbcd9fc03	-0.026609426
250	0x3e3b8996	0.18314204
251	0x3e310d8e	0.17290327
252	0xbeb01f3f	-0.3439884
253	0xbe08b0fe	-0.13348767
254	0xbb497cbb	-0.0030744511
255	0xbe86c49f	-0.26321885

fc2.bias f4 [64]
0	0xbc44c245	-0.012009208
1	0x3e2dcb44	0.16972071
2	0x3e70c421	0.23512317
3	0xbc94e986	-0.018177759
4	0x3e6874a4	0.22700745
5	0xbd9e331f	-0.07724594
6	0x3e880736	0.26568002
7	0x3dc19a1e	0.09453224
8	0x3ddaa2cb	0.106755815
9	0xbde994cd	-0.114053346
10	0x3de37541	0.11106349
11	0xbb77ef1d	-0.0037831732
12	0x3e09ae18	0.13445318
13	0xbbe10d66	-0.0068680523
14	0x3ce3eb8e	0.027822282
15	0xbdda1bff	-0.10649871
16	0xbe805b93	-0.25069866
17	0xbdbea11d	-0.09308074
18	0x3d10f6f0	0.035391748
19	0x3c1a41dd	0.009415117
20	0x3e796dff	0.24358366
21	0xbe80ae38	-0.25132918
22	0x3c806c78	0.015676722
23	0x3d076198	0.033052057
24	0xbbe0e210	-0.0068628863
25	0x3e65c08d	0.22436734
26	0x3d8940eb	0.06701835
27	0xbe193788	-0.1496259
28	0xbe361570	-0.17781615
29	0x3e3bd832	0.1834419
30	0xbde15948	-0.11003357
31	0x3e3ed439	0.18635644
32	0x3ca529c5	0.020161519
33	0x3e4c136f	0.19929288
34	0xbc31068f	-0.010804786
35	0x3e4f3b05	0.20237358
36	0x3e5732bb	0.21015446
37	0x3da4f7eb	0.08055099
38	0x3e02cb64	0.127729
39	0xbe194c54	-0.14970523
40	0x3e48b01b	0.19598429
41	0x3ab1bb0e	0.0013559775
42	0x3db0940f	0.0862199
43	0x3d0fe856	0.035133682
44	0x3dfa867e	0.122326836
45	0x3c44fe66	0.012023544
46	0x3d9d14fe	0.076700196
47	0xbca34c05	-0.01993371
48	0xbcb5c606	-0.022189151
49	0xbcdbcbef	-0.026830642
50	0x3e36ad68	0.17839587
51	0x3e293ee4	0.16527897
52	0x3c8af1a6	0.01696093
53	0x3d3baeea	0.045821108
54	0xbe1693b5	-0.14704783
55	0xbe047db5	-0.12938578
56	0xbbe0e04b	-0.0068626753
57	0x3e0476a4	0.12935883
58	0x3d450c9d	0.048107732
59	0xbe67b12b	-0.22626178
60	0x3df40c03	0.119163536
61	0x3dbceb34	0.09224549
62	0xbdb6c625	-0.08924512
63	0x3d986112	0.0744039

fc3.weight f4 [10, 64]
0	0x3c9b7137	0.018974883
1	0xbe87f984	-0.26557553
2	0xbe78f7a6	-0.2431322
3	0xbe9dcf57	-0.3082225
4	0xbe8885a4	-0.2666446
5	0x3d9705a3	0.07374122
6	0xbeafaf2b	-0.3431333
7	0x3e045553	0.12923174
8	0x3cd09fb2	0.025466774
9	0xbd1a24af	-0.03763264
10	0xbb9b7252	-0.0047438527
11	0xbeeac241	-0.4585133
12	0xbe4ff557	-0.20308433
13	0x3e0dd16f	0.13849424
14	0x3e1676f3	0.14693813
15	0x3e0c6f58	0.1371435
16	0x3d0cf68c	0.034414813
17	0x3e0c3951	0.1369374
18	0x3e124abc	0.14286321
19	0xbe311092	-0.17291477
20	0xbebfb018	-0.37439036
21	0x3e2f9131	0.1714523
22	0xbe9eda24	-0.31025803
23	0x3db3a5da	0.08771868
24	0xbd1e7292	-0.03868348
25	0x3dd4a8c2	0.103837505
26	0xbcceaf81	-0.025230171
27	0x3e69b0fb	0.22821419
28	0x3ef81d63	0.4845992
29	0xbec7353c	-0.38907802
30	0x3e8ab0d8	0.27088046
31	0xbe2a22c1	-0.1661482
32	0xbe8daff2	-0.27673298
33	0xbb919a2e	-0.0044434285
34	0x3e4d81d9	0.20069064
35	0xbeed6d59	-0.46372488
36	0xbe9811ed	-0.29701176
37	0xbdef51e9	-0.11685545
38	0xbc50712f	-0.012722298
39	0x3e485291	0.19562747
40	0xbe7b6b41	-0.24552633
41	0x3e554b0d	0.20829411
42	0x3e2401d9	0.1601633
43	0xbcdd6ec0	-0.027030349
44	0x3e7b89f7	0.24564348
45	0x3dcbb37a	0.09946342
46	0xbe94a08a	-0.29028732
47	0x3e25bb36	0.16184697
48	0x3e39d2bb	0.18146794
49	0x3d720969	0.059091005
50	0x3d0e4770	0.034736097
51	0xbeb47a32	-0.35249478
52	0x3e07c312	0.13258007
53	0xbe737806	-0.23776254
54	0x3dccc0c0	0.09997702
55	0x3dc3e224	0.09564617
56	0xbe379871	-0.17929246
57	0xbe16a8d8	-0.14712846
58	0xbd7e0dab	-0.062024754
59	0x3ecf4187	0.4047968
60	0xbe9a1e67	-0.3010132
61	0x3d218d27	0.039441254
62	0xbe1b1437	-0.1514443
63	0xbdfff506	-0.124979064
64	0xbed36c70	-0.4129367
65	0x3e976b67	0.2957413
66	0x3e7c6205	0.24646766
67	0x3e1e0e47	0.15435134
68	0xbe1f18bb	-0.15536778
69	0x3dac83db	0.08423587
70	0x3e41f3cf	0.18940662
71	0xbecb448d	-0.39700738
72	0xbeac567f	-0.3365974
73	0xbe3aa5bb	-0.18227284
74	0xbe80f468	-0.25186467
75	0x3e3f984b	0.18710439
76	0x3e0c0f11	0.13677622
77	0x3d8b1dba	0.06792779
78	0xbed3b855	-0.41351572
79	0xbe9d6aae	-0.30745453
80	0xbe491b1e	-0.1963925
81	0xbe831beb	-0.25607237
82	0xbeccd701	-0.40007785
83	0x3d6a14de	0.057148807
84	0x3e1d953f	0.15388964
85	0xbe8c6e09	-0.274277
86	0x3e4f7bc3	0.20262055
87	0xbbab47f1	-0.005227082
88	0x3caf1d6f	0.02137634
89	0xbea70205	-0.32618728
90	0x3e619fc9	0.2203361
91	0xbe8b166d	-0.27165547
92	0xbe28fdb6	-0.16503033
93	0x3e9f4a0d	0.31111184
94	0xbe3da46e	-0.18519756
95	0x3e4657dc	0.19369453
96	0xbdf003f0	-0.11719501
97	0xbe689193	-0.22711782
98	0x3ca73be6	0.020414304
99	0x3e81a57c	0.25321567
100	0x3e91af2b	0.28453955
101	0x3d74f1ac	0.05980079
102	0xbecab156	-0.39588422
103	0xbe81404d	-0.2524437
104	0xbdcb8376	-0.099371836
105	0xbec1faa0	-0.37886524
106	0xbed80442	-0.42190748
107	0x3d20b40b	0.039234202
108	0xbe67f1a3	-0.22650771
109	0xbf083540	-0.53206253
110	0x3e03fdc1	0.12889768
111	0xbeeb4997	-0.45954582
112	0xbe76a127	-0.24084912
113	0x3dac4a83	0.084126495
114	0xbf017a5a	-0.5057732
115	0xbe15a6be	-0.14614388
116	0xbeda2772	-0.4260822
117	0x3e620dd1	0.22075583
118	0xbeb7233f	-0.35769078
119	0xbd07f53c	-0.033192858
120	0x3dfedea6	0.124448106
121	0x3e468c44	0.19389445
122	0xbe007af3	-0.12546901
123	0xbdf06c99	-0.11739463
124	0x3e3c217c	0.18372148
125	0xbeae2cb8	-0.34018493
126	0x3dc6eab0	0.09712732
127	0x3e8bc2b0	0.27296972
128	0xbcfe74d1	-0.031061562
129	0x3dc4150e	0.09574328
130	0x3df6e14a	0.12054689
131	0x3e6d843e	0.23194978
132	0xbe5732ca	-0.21015468
133	0x3e166e67	0.14690553
134	0xbe08d497	-0.13362347
135	0xbe84de18	-0.25950694
136	0xbe6df526	-0.23238048
137	0xbe0c27f0	-0.1368711
138	0xbeb2f0df	-0.34949395
139	0xbefaa43e	-0.48953432
140	0x3da02222	0.0781901
141	0x3d972d50	0.073816895
142	0x3def408c	0.11682233
143	0x3e8db916	0.27680272
144	0x3e63e4eb	0.22255294
145	0xbe5e0c1a	-0.21684304
146	0xbe166c1b	-0.14689676
147	0xbe50873c	-0.20364088
148	0xbc595dbb	-0.013266976
149	0x3e81f6d0	0.25383615
150	0x3d850493	0.06495013
151	0xbe8332e9	-0.2562478
152	0xbe332951	-0.1749623
153	0x3d50c2e5	0.050967116
154	0xbe3826bc	-0.17983526
155	0xbe513436	-0.20430073
156	0xbd139163	-0.036027323
157	0xbe7b926e	-0.24567577
158	0x3d81508d	0.06314192
159	0xbe0a40e2	-0.13501313
160	0x3e7b44a1	0.24537899
161	0xbd8a7867	-0.06761246
162	0xbeb594e6	-0.35465163
163	0xbe22d169	-0.15900196
164	0xbde569fc	-0.112018555
165	0xbe616f5d	-0.22015138
166	0xbe988715	-0.2979056
167	0xbded32a4	-0.115819246
168	0xbe9efdde	-0.3105306
169	0x3e24a5f0	0.16078925
170	0x3df98db3	0.1218523
171	0x3e042806	0.12905893
172	0xbf0653b6	-0.5247148
173	0xbce67556	-0.028132122
174	0x3e1da837	0.153962
175	0x3dd98bff	0.10622405
176	0xbe1a0eb5	-0.15044673
177	0x3d34fed5	0.04418834
178	0xbdc337e0	-0.09532142
179	0xbe4ca7b0	-0.19985843
180	0x3e72342f	0.23652719
181	0xbe6db9c7	-0.232154
182	0x3e8adaa5	0.27119938
183	0x3e70b599	0.23506774
184	0x3e178fa7	0.14800893
185	0xbe02f467	-0.12788545
186	0xbe94c26f	-0.2905459
187	0xbccc5d05	-0.024946699
188	0x3e403533	0.18770294
189	0x3de0ee54	0.109829575
190	0x3e6523ed	0.22376986
191	0xbe7a254e	-0.24428293
192	0x3e132ba2	0.14372113
193	0xbece22fa	-0.4026106
194	0xbe2bd53c	-0.16780561
195	0x3d7925b9	0.06082699
196	0xbe9cb75d	-0.30608645
197	0x3e413e9b	0.18871538
198	0xbe9b9111	-0.30384114
199	0xbec1ccfe	-0.3785171
200	0xbd2b8667	-0.041876223
201	0x3e4c7ec6	0.19970235
202	0x3e5e12f0	0.21686912
203	0x3ea96654	0.33085883
204	0xbecac51a	-0.39603502
205	0x3e6bad85	0.23015411
206	0xbe374eb9	-0.17901124
207	0x3e1da852	0.1539624
208	0xbdd2f140	-0.10299921
209	0xbde44637	-0.11146205
210	0x3dc5d792	0.096602574
211	0x3e9c9e85	0.3058969
212	0xbe475f46	-0.19469938
213	0xbe5650fe	-0.20929334
214	0xbd8f14e1	-0.06986404
215	0x3dcd70fb	0.10031315
216	0x3cda3f85	0.026641617
217	0xbe5f82ea	-0.21827284
218	0x3e814b95	0.25252977
219	0xbd0abfc9	-0.033874307
220	0xbe86b24f	-0.26307914
221	0x3d92be9d	0.07165263
222	0xbdb40170	-0.08789337
223	0xbe5650a2	-0.20929196
224	0xbd24f04b	-0.040268224
225	0x3ca0f694	0.019648828
226	0xbda8fd68	-0.082514584
227	0xbdff7b6a	-0.12474711
228	0xbe8abf55	-0.270991
229	0x3d05fcb0	0.032711685
230	0xbe627bd6	-0.22117552
231	0x3e749b9b	0.23887484
232	0xbe08e2c3	-0.13367753
233	0xbe5dd8fa	-0.21664801
234	0xbeb473ae	-0.35244507
235	0xbe954264	-0.29152215
236	0xbe9ba481	-0.30398944
237	0x3e255270	0.16144729
238	0x3e4ca248	0.1998378
239	0x3cb68777	0.022281392
240	0xbe17df05	-0.14831169
241	0xbd84d490	-0.064858556
242	0xbc2c055a	-0.010499323
243	0xbe36848c	-0.17824
244	0xbe8752d0	-0.26430368
245	0xbc873ebb	-0.016509404
246	0x3e4fd13b	0.20294659
247	0x3e1a928a	0.15094963
248	0x3e23d63c	0.15999693
249	0x3e2d7c0a	0.16941848
250	0xbd3debc5	-0.046367425
251	0xbda6a32f	-0.081365936
252	0x3de8b6eb	0.11363014
253	0xbd640b3a	-0.05567477
254	0xbe1b36c4	-0.1515761
255	0xbe602300	-0.21888351

fc3.bias f4 [10]
0	0xbe302ba8	-0.17204154
1	0x3e9713f9	0.29507425
2	0xbe7087ed	-0.23489352
3	0xbdac3f70	-0.08410537
4	0x3d18641f	0.037204858
5	0x3bc6de96	0.006069015
6	0xbe62a69e	-0.22133872
7	0x3e6fed6f	0.23430417
8	0x3df0018b	0.11719044
9	0x3dbdee8b	0.09274014
