s2_Organization_and_version_control/M6 - Code Structure/models/training_model.pt (torch, 439383 bytes, 6 tensors)

fc1.weight f4 [128, 784]
000000 40 ea 2c bc fe 30 d1 bc 3a 6a e5 bc 93 c3 84 bc
       -0.010553896 -0.025536057 -0.028004754 -0.016206538
000010 00 af 4a 3c f8 f2 e1 bc d2 80 d3 3c 4e 79 a7 3c
       0.012370825 -0.027581677 0.025818262 0.020443585
000020 b6 d0 f1 3c 22 fe 80 bd 87 09 7b 3c f7 a6 ba bd
       0.029518466 -0.06298472 0.015322096 -0.09113877
000030 d0 ba 7d bc 3d 2b ce bd 82 2e 00 be 64 1f 27 3c
       -0.015486434 -0.10066841 -0.12517741 0.010200355
000040 f5 27 4a bb b6 c3 ca bc 4d 45 13 bd bb fe 2a 3b
       -0.003084657 -0.024751525 -0.035954762 0.0026091773
000050 78 68 36 3c 3e 44 81 bc e7 0b 6f 3d de 02 94 bc
       0.011133306 -0.01577961 0.05836096 -0.018067773
000060 00 3e 4e ba 34 55 75 bc f8 b0 e6 bb e0 ef 00 bc
       -0.0007867515 -0.014973927 -0.0070401393 -0.007869691
000070 49 6a 0d 3d 15 0e 00 3d f8 cc 0a bc 15 b1 d5 bc
       0.03452519 0.03126343 -0.00847172 -0.026085416
000080 1f 13 0b bb ae ef 65 bc 77 3d 90 bc 15 50 ec bc
       -0.0021221114 -0.014034195 -0.017607434 -0.02884678
000090 0f 77 09 bd 1b 15 0d bd eb 30 06 be 37 31 11 3d
       -0.03356081 -0.034443956 -0.13104598 0.035447326
0000a0 55 39 84 3d 35 14 0a 3e 72 01 5b 3e 80 92 cf 3c
       0.06456248 0.13484271 0.2138727 0.025338411
0000b0 05 e1 45 be 96 3b 1a be fa 60 c7 bd a8 32 30 be
       -0.1932412 -0.15061793 -0.09735294 -0.17206824
0000c0 11 6f 1e be ed 9c 2f be 25 86 29 bd 8e 3a 94 bc
       -0.15472056 -0.17149706 -0.041387696 -0.018094327
0000d0 1c 97 1d 3c ce 10 ab bc ae bb ca bc 10 f6 62 bb
       0.009618547 -0.020882037 -0.024747696 -0.0034631528
0000e0 28 b0 de 3b a0 2d 6a 3b 46 8a ab 3c 04 75 5d 3c
       0.006795902 0.003573276 0.020939957 0.013516668
0000f0 b7 7c 07 3d 65 98 d6 bc b5 f7 00 be ac f5 e0 bc
       0.03307792 -0.026195714 -0.12594493 -0.027460895
000100 34 18 ac bd 99 92 68 bc b1 80 6f 3d 78 c3 66 3e
       -0.08403054 -0.014195108 0.05847234 0.22535503
000110 e2 72 51 3e a8 32 a4 3d ac 70 f7 3d c8 6a 78 3e
       0.2045398 0.080174744 0.12082037 0.24259484
000120 dc 25 fb 3d 92 96 1c be ec 0a 9a bc 50 89 10 bc
       0.122630805 -0.15291813 -0.018804036 -0.0088218
000130 97 89 fa bd fb 01 83 be 53 41 1a be c3 0f b1 bd
       -0.122332744 -0.25587448 -0.15063982 -0.086455844
000140 7e 0b 8b bd d0 57 f0 3b a0 ba d0 3b b8 d1 c7 3b
       -0.06789301 0.007334687 0.0063699037 0.0060979985
000150 aa 0f cb bc 63 b2 bd bc 80 6f d1 b9 17 e7 0b 3d
       -0.024787743 -0.02315635 -0.0003994666 0.03415593
000160 d6 6a db bc 0a 55 e4 bd 5b 2c 2c be 13 a5 a1 3c
       -0.026784342 -0.111490324 -0.16813795 0.019732034
000170 8a e6 5e 3d 27 c1 88 3d bd 0f 70 3e ae b7 8a 3e
       0.054419078 0.06677466 0.23443504 0.2709326
000180 a4 18 4b 3e 8a b6 fa 3d fb 88 2e 3e df 1a 86 3e
       0.19833618 0.12241848 0.17044441 0.26192376
000190 17 55 78 3e f0 59 25 3e da 30 0d 3e 05 56 c0 3d
       0.24251209 0.1614759 0.13788167 0.09391407
0001a0 10 bf 2d be 55 d2 9e bd db 0f 92 bd 4e d8 bb bd
       -0.16967416 -0.077549614 -0.071319304 -0.09172116
0001b0 8d 0d 30 bb 60 ff 79 3b da b5 cf bc 40 7e 27 3a
       -0.0026863546 0.00381466 -0.025355268 0.0006389357
0001c0 ba 1a ad bc 48 bc d7 bb 24 e6 00 3d 4a 35 2b be
       -0.021130908 -0.006583724 0.03146948 -0.16719547
0001d0 06 14 ee bd 0d cb 6d bd 94 c7 58 bd 04 0a ed 3b
       -0.11624913 -0.058054972 -0.052924708 0.00723386
0001e0 90 2c b6 3d b2 4a 42 3e d1 b0 ee 3d 8f b3 84 3e
       0.08895218 0.18973807 0.11654819 0.25918242
0001f0 e6 ab 7c 3e 7d 34 44 3e 2d 7a e5 3d 4c 60 1e 3e
       0.24674949 0.19160648 0.11204944 0.15466422
000200 7b ac 13 3e 84 55 6c 3d 91 f8 31 3e e4 84 13 3e
       0.14421265 0.05769874 0.17379977 0.14406163
000210 b0 0a 9d bc 9d cd a5 bd b2 a8 b1 bd 89 e9 19 be
       -0.019170135 -0.08095858 -0.08674754 -0.15030493
000220 c0 b0 e9 bd 66 df 1c bd 1e 58 da bc 40 84 0b 3c
       -0.114106655 -0.038298987 -0.026653346 0.008515418
000230 a0 3e 7f bc 31 b1 08 3d 21 5c 59 bd 21 b9 e6 3c
       -0.015578896 0.033372108 -0.053066377 0.028164448
000240 7a 60 04 bd 01 61 a7 bd dc ab 51 bd 17 8b ab 3d
       -0.03231857 -0.08172799 -0.05118929 0.08376139
000250 d3 73 c5 3d dc e5 71 3d 2e 42 48 3d 75 75 86 3d
       0.09641232 0.0590571 0.04889124 0.06565372
000260 80 7d 6b 3d c7 b4 3d 3e 9d 20 62 3e 74 8a 47 3e
       0.057492733 0.18525992 0.22082753 0.1948641
000270 db 7a 0b 3e b2 f0 fe 3d f8 98 0f 3e 5a b4 27 3e
       0.13621084 0.12448253 0.14023197 0.16377392
000280 90 20 df bc 28 61 bb bd a9 54 ca bd 47 c5 1a be
       -0.027237207 -0.091493905 -0.09879429 -0.15114318
000290 60 9a 8f bd 42 24 6a 3d a9 c9 19 3c 48 47 da bc
       -0.070118666 0.057163484 0.009386458 -0.026645318
0002a0 f8 2c f8 bc 6a 63 69 bc 74 47 07 bd 85 ee 68 bd
       -0.03029488 -0.014244894 -0.033027127 -0.056868095
0002b0 28 51 15 bd f8 a1 d7 bc 35 04 e1 bc 9a fa 10 3e
       -0.03645435 -0.02632235 -0.027467826 0.14158097
0002c0 3a f7 03 3e 98 ff 17 3d 89 c1 ff 3c c7 06 8b 3d
       0.12887278 0.037108988 0.031220214 0.06788402
0002d0 a1 93 75 bc 49 e7 4c 3d 5b 0a b7 3d d8 25 35 3e
       -0.014988811 0.05002526 0.08937522 0.17690217
0002e0 a9 35 0c 3e 3c 5b 0f 3e 1c 32 3c bc d3 1f 8c 3c
       0.13692345 0.13999647 -0.011486556 0.017105019
0002f0 4c e4 2c 3e 21 d4 39 3d e1 f1 8e 3c f2 22 81 bd
       0.16883963 0.045368318 0.017449321 -0.063054934
000300 d0 42 81 bd f5 b3 e1 bd 85 3f 08 3e d3 ac bf 3d
       -0.063115716 -0.11020652 0.13305481 0.093591355
000310 50 9a 4f 3b 63 1d 4a 3d 52 a3 1e 3c 79 61 04 be
       0.003167767 0.04934443 0.009682493 -0.12927808
000320 f7 d0 4a bd 11 fb 03 be 91 1d 7c bd e7 2d 0e be
       -0.04951569 -0.12888743 -0.061551634 -0.13884698
000330 63 1c a1 bd 94 c8 98 bd 0c 08 94 bd d7 30 35 bd
       -0.078667425 -0.07460132 -0.07228097 -0.04423603
000340 c2 08 6e bd 9e 48 d4 3c fd 80 3b 3e 4f 55 25 3e
       -0.05811382 0.025913533 0.18310924 0.16145824
000350 57 b6 3c 3d b7 5c c3 3d d4 7c e6 bb 78 89 2a 3d
       0.04607233 0.09539168 -0.0070339236 0.041635007
000360 f1 f0 89 3d 30 d0 a2 3d fd 24 b4 bc 2b a5 ee 3b
       0.06735409 0.07949865 -0.021990294 0.007282873
000370 ab d3 28 bd 8b e7 9a bd 99 ac e3 3c bd fd e3 3d
       -0.041217487 -0.075636946 0.027792262 0.11132381
000380 fc 44 55 3c d7 b8 9a 3c 13 0f fe bc 97 ab 0f be
       0.013016935 0.018886967 -0.031013047 -0.140303
000390 d9 bd 5d bd 5a f2 7a be 37 c0 11 be 66 9b 86 be
       -0.05413613 -0.24506512 -0.1423348 -0.26290435
0003a0 53 e8 d8 bd cf 23 a6 bd 6c 97 d6 bd e4 05 a7 bd
       -0.10591187 -0.08112299 -0.104781 -0.081554204
0003b0 4c 57 99 bd 3a fa 14 3d 97 8c d0 3c cc 42 51 3c
       -0.07487354 0.036371447 0.025457663 0.012772273
0003c0 c7 40 ab 3d 8d 23 ac 3d 61 33 fd 3c 1e 6d a1 3b
       0.08361965 0.08405218 0.030908288 0.004926338
0003d0 4a 09 53 3d da cd 06 bc bf 3e fb bd f5 c2 f4 bc
       0.05152253 -0.00822779 -0.12267827 -0.029878119
0003e0 2b 7d c1 bd 41 c7 23 be 84 a8 32 be df 46 ad bc
       -0.09447702 -0.15993978 -0.17447096 -0.021151958
0003f0 0c e9 03 bd a1 81 49 3d b9 92 4e 3c e2 d1 8a bc
       -0.032204673 0.04919589 0.012608224 -0.016945783

fc1.bias f4 [128]
000000 44 0d f0 bd 37 bd 34 3d b6 59 39 bc 3d f8 83 3e
       -0.1172128 0.04412576 -0.011312893 0.25775328
000010 44 c6 cf 3c 65 91 55 3d ec ec e8 3d 49 66 74 bc
       0.025363095 0.052140612 0.11373314 -0.014916965
000020 2c 8f 3b 3e 3e a0 55 bd 45 95 61 bd 68 0f b9 bd
       0.18316334 -0.052154772 -0.055073995 -0.09036142
000030 23 d0 da bc 10 bc 58 bd ac a6 88 bb 11 78 06 3e
       -0.026710575 -0.052913725 -0.0041702595 0.13131739
000040 18 50 1d bd 58 21 26 bd d6 c2 8b 3c 6b 19 0d be
       -0.03840646 -0.040559143 0.017060678 -0.13779227
000050 91 41 51 3d e0 2b 6f 3d b8 65 0c bd 05 92 fd 3d
       0.05108792 0.05839145 -0.034276694 0.12381367
000060 2d 59 6e bd e5 90 0b 3e 49 21 3a bd 0d 93 f0 bd
       -0.058190513 0.13629492 -0.0454419 -0.11746798
000070 1a a9 e4 bd 78 2e 83 3d bf 30 5b 3e af f7 dc bd
       -0.11165066 0.064053476 0.21405314 -0.107894294
000080 cf 66 e3 3c 5b 82 80 bd 1c d1 bc bd c4 c1 28 3d
       0.027758984 -0.06274863 -0.09219572 0.041200414
000090 37 39 dd bd e1 55 33 bc d2 e6 18 bd cc ba a2 3d
       -0.108019285 -0.010945768 -0.037329502 0.07945785
0000a0 fe 37 f1 3d 4c e1 01 bd ae f7 d3 3d 70 db 87 bc
       0.11778258 -0.031709 0.103499755 -0.016584128
0000b0 dc c3 16 bd a4 ce 07 be a0 99 a7 bd 4d bd 95 bb
       -0.03680788 -0.13262421 -0.081835985 -0.0045696856
0000c0 94 90 08 bd 10 2f 8b 3b b1 60 94 bc a6 d5 3c 3b
       -0.033341005 0.0042475536 -0.018112512 0.0028813868
0000d0 11 95 d8 3d 28 f9 0a 3e 6d 01 1e bc 59 b9 3a bd
       0.10575307 0.13571608 -0.009643895 -0.045586918
0000e0 8c 5c d9 bd d1 40 3d bd 78 b4 9a bd 73 5b 3c 3e
       -0.10613355 -0.046204392 -0.07553953 0.1839426
0000f0 ce c3 19 be 0a 66 f9 3d a4 e1 80 bd 88 51 22 3e
       -0.150161 0.121776655 -0.062930375 0.15851414
000100 6a 43 23 3c 2f dd 35 3e da 3c 51 be ce 9b 51 bd
       0.009964803 0.17760156 -0.2043337 -0.051173978
000110 22 89 e9 3d 76 ef 35 be 2b 59 bf bd 4a e5 2f be
       0.11403109 -0.17767128 -0.09343179 -0.1717731
000120 fa 8a 5e 3d 09 1e 2b bd fa d7 82 3d db e8 09 be
       0.054331757 -0.04177669 0.063888505 -0.13467734
000130 5b 68 88 3e ff 22 66 3d 48 13 a9 bd 64 3a 95 be
       0.26642117 0.05618572 -0.08255631 -0.2914611
000140 16 ed c4 bc bd 78 d9 bc 75 33 35 3e ae 1e 75 bd
       -0.024038833 -0.02654683 0.1769541 -0.05984371
000150 4c 82 15 be 71 fb ef 3c a2 06 67 be f5 74 ab bc
       -0.14600486 0.029294701 -0.22561124 -0.020929793
000160 7a 8b 35 3c ee d2 0b 3c b9 fe 4d bd 72 8c ca bc
       0.011080617 0.008534176 -0.05029175 -0.024725173
000170 ff 48 a7 bc 33 95 df 3b 9d d5 45 3e 02 41 22 be
       -0.02042055 0.006823206 0.19319768 -0.15845111
000180 d4 de 64 bc 8e 78 ac bd 2a 24 06 be 60 82 f5 bd
       -0.013969142 -0.084214315 -0.13099733 -0.11987758
000190 5f da 32 3e ba ef 31 3d 52 50 61 3d ad 96 f0 bc
       0.17466114 0.04344151 0.05500824 -0.029368723
0001a0 7d d5 38 3e 95 1c 00 3d 25 1c 94 3d 65 c3 ce 3d
       0.1805019 0.031277258 0.07231931 0.10095862
0001b0 7a 66 31 be c5 c8 3d bc b5 1f e7 3b b5 c0 53 bd
       -0.17324248 -0.011583512 0.0070533403 -0.05169745
0001c0 d4 83 05 bd c7 ba 4a bb 43 56 69 be a9 69 03 be
       -0.032596424 -0.0030934082 -0.22786812 -0.12833275
0001d0 b7 71 13 3d fa ae 5a 3d cc b1 31 bd 5c 4a f3 bd
       0.03599712 0.053389527 -0.04338245 -0.11879417
0001e0 e1 37 4c 3d 3b 1a 07 bc 19 8e d9 bc d7 f5 68 3d
       0.049857978 -0.008246 -0.026557015 0.056875076
0001f0 34 03 6a 3d 41 47 10 3d 54 e6 df b9 32 f2 0e 3e
       0.05713196 0.035224203 -0.00042705482 0.13959578

fc2.weight f4 [64, 128]
000000 0c 83 94 bd 13 69 ea 3d c1 ce 09 bc 5d 92 b2 3d
       -0.07251558 0.114458226 -0.00841111 0.08719323
000010 96 2b ea bd f9 7b 00 bd 14 9f 32 3e 42 1c ac bd
       -0.114340946 -0.03136823 0.17443496 -0.08403827
000020 55 67 32 bd e0 4d 53 be 7c b6 36 3e 14 d6 a3 3c
       -0.043555576 -0.20635176 0.1784305 0.019999541
000030 9a ef 69 be e6 cb f4 be 75 d9 76 3d 5f 3a d3 3e
       -0.22845307 -0.47811812 0.060265977 0.4125547
000040 d5 b2 89 3d 64 2b 63 bd 9b f4 85 3d c4 0b 8b be
       0.06723563 -0.055461302 0.065407954 -0.27157414
000050 46 d8 0f 3c c0 56 25 bd 2c 56 cb bc a8 3d d5 3e
       0.008779591 -0.040365934 -0.024821363 0.41648602
000060 1a 0a 69 be f8 6a ac be 44 2d 92 bd 5b f9 03 be
       -0.2275776 -0.3367536 -0.0713754 -0.1288809
000070 ab 3e 67 be eb 6c 47 bd ce 2b 86 3d 3c 41 98 bd
       -0.225825 -0.048687857 0.06551324 -0.074343175
000080 f9 57 49 be 3c 5b 42 3c 77 99 6c bc c7 63 8c be
       -0.19662465 0.011862572 -0.014440886 -0.27419874
000090 6b 03 08 be f9 d1 a7 3c 69 09 59 be c8 12 44 be
       -0.13282554 0.020485865 -0.21194996 -0.1914779
0000a0 70 70 a0 3e 07 53 96 bd 7e 8a 92 3e dc 67 3e 3a
       0.31335783 -0.07340055 0.28621286 0.0007263401
0000b0 98 f6 92 bd 6d 80 e0 bc 9e fd ae 3c cc 6e 9f bc
       -0.0717594 -0.027404988 0.021361168 -0.019462012
0000c0 3d 6f 48 be 36 c6 27 3e 90 2b 86 3d d7 f3 f4 3d
       -0.19573684 0.16384205 0.06551278 0.11960571
0000d0 b5 2a d0 3b 5e fd 78 3e 4f bc af bd 76 5d c0 3d
       0.0063527473 0.24315402 -0.08580839 0.09392826
0000e0 b9 fd c4 bd 9f 7e e0 bd 3d 0e 84 3e 33 d3 59 3e
       -0.09618706 -0.10961651 0.25792113 0.21271972
0000f0 d3 fe c6 3c 9a de a1 3d 2a c2 0e be f3 c9 c8 3d
       0.024291432 0.07903786 -0.13941255 0.09804144
000100 19 d7 12 3e 6e f8 0b 3f ef bb ff bd 33 87 61 bd
       0.14339866 0.5467595 -0.12487017 -0.055060577
000110 20 92 c3 bd 91 5c 88 be 03 e9 61 be 7f c4 55 be
       -0.095493555 -0.26633123 -0.22061543 -0.20875739
000120 7f 33 4e 3d b7 70 f7 bd ee c8 2c bd 80 df df 3c
       0.05034208 -0.120820455 -0.04218381 0.027328253
000130 09 eb 79 3e 7d 27 41 be 57 8c 08 be 91 8f 15 be
       0.24406065 -0.1886272 -0.13334785 -0.14605547
000140 9b 85 86 bd 49 02 11 3d 80 65 90 3e 41 f4 17 3d
       -0.06568452 0.03540257 0.28202438 0.037098173
000150 ef 62 f3 bd e1 d5 23 be 96 d2 aa bb c1 b4 11 3d
       -0.118841045 -0.15999557 -0.005213092 0.03557277
000160 ec 96 9b 3c d7 e0 50 bd ed 60 e5 3d bc 56 8c bd
       0.018992864 -0.050995674 0.11200128 -0.06852481
000170 68 86 19 3d 03 f3 c1 3d 01 2d bf bd 5a f6 94 bd
       0.037481695 0.09470179 -0.09334756 -0.0727355
000180 bd 14 c6 bd 88 89 0c be a8 c5 51 be c8 fe 4c 3d
       -0.09671924 -0.13724339 -0.20485556 0.050047666
000190 6a 20 dd 3e 13 f5 f8 3d 4d 57 a6 be 30 c0 5d 3d
       0.43188792 0.12156119 -0.3248848 0.054138362
0001a0 8f 2f 29 3e 48 7f 45 be 31 2e fe 3e f7 1e d8 bd
       0.16522048 -0.19286835 0.49644616 -0.10552781
0001b0 28 c7 1a 3b dc ee 20 3e 72 5f 49 bd 17 a6 48 bd
       0.0023617242 0.15716118 -0.04916329 -0.04898652
0001c0 67 7a 1d 3d a7 97 83 3d 5a b4 02 3d b4 88 d8 3d
       0.03844681 0.0642541 0.031910278 0.10572949
0001d0 8f 4d 37 3e 4c 0b bf 3d 8a db 4e 3c 9a e6 c7 be
       0.1790068 0.093283266 0.012625584 -0.39043123
0001e0 dc 7f f0 3d ca e8 fd ba 1c 49 18 be 90 31 b6 3e
       0.11743137 -0.0019371745 -0.14871639 0.35584688
0001f0 25 23 33 3e 5a ad ab be c9 f5 7f 3e 84 dc 02 3f
       0.17493875 -0.33530694 0.24996103 0.5111773
000200 06 b5 22 bb 5b b0 ba 3d 19 7a 97 3d a1 16 7f bd
       -0.0024827137 0.091156684 0.07396335 -0.06227744
000210 e1 22 11 be b2 9c a2 be aa 19 55 3e 35 1f 23 be
       -0.14173461 -0.31760174 0.20810571 -0.15929873
000220 c4 8a 96 be 91 e8 e1 3d 19 8b 3a 3e 6d fb d2 3d
       -0.29402745 0.11030687 0.18217124 0.10301862
000230 8b cd f2 bd bf 38 c4 3d eb 6a e6 3d be 4f e2 3d
       -0.118556105 0.09581136 0.11250862 0.11050366
000240 c4 30 b4 bd 88 c9 c2 bb 11 3a 2e 3e e6 52 4e bd
       -0.08798364 -0.0059444346 0.17014338 -0.050372027
000250 7e 5e 45 3c 02 ee eb bd a4 4d 80 3d 36 8d 90 3e
       0.0120464545 -0.11520006 0.06264809 0.28232735
000260 7f 2d 95 3d 3e 0a 20 be 52 7f 40 3e aa 2e 25 3e
       0.07284068 -0.15628907 0.18798569 0.16131082
000270 2e 94 6b 3e f4 8d a9 3d 27 bd 3e be d3 56 9d 3d
       0.23005745 0.082790285 -0.18626843 0.07682576
000280 59 76 b5 3d f8 82 84 3e a6 16 0c 3e a6 ef 2a be
       0.08860464 0.2588117 0.13680515 -0.16692981
000290 0e cc 83 3d 12 39 5e 3d 72 15 82 be 50 2d 38 be
       0.06435405 0.054253645 -0.25406986 -0.17986035
0002a0 d3 26 07 bb dd d0 b7 3d 3c 35 a8 bc 37 d2 30 3d
       -0.0020622506 0.089753844 -0.020533197 0.043169226
0002b0 b5 2a d5 bd f2 58 fe 3d b4 58 cb 3d 5b c9 66 3a
       -0.10408536 0.12419309 0.09929028 0.0008803808
0002c0 d9 92 8e 3e 47 0d e1 3d e3 12 63 3d 53 f6 83 3e
       0.2784641 0.109888606 0.055437934 0.25773868
0002d0 91 ea cc be 28 a4 d7 3e a2 b9 5a 3d ac 21 62 3e
       -0.4002271 0.4211743 0.05339969 0.22083157
0002e0 8d ef 26 3e 3e b9 de 3c 3d e3 5d 3e 73 fa 24 3d
       0.16302319 0.02718794 0.21668716 0.04027791
0002f0 11 df 22 3e 66 1d 41 3d 7b 2e 93 bd 09 53 db bd
       0.15905406 0.047147177 -0.071866 -0.10709197
000300 01 8f 1a 3e 94 f1 b7 be 9f ec 82 3e 4f 99 7a bd
       0.15093614 -0.35926497 0.25571153 -0.061181363
000310 53 39 d4 be dc 99 4e 3e 1a dd 9d bd a3 85 7a bd
       -0.41449985 0.2017588 -0.077081874 -0.061162602
000320 43 72 49 be 17 c2 2b 3d 78 0e a6 bd f5 f3 27 3e
       -0.19672494 0.041933145 -0.081082284 0.16401656
000330 82 66 45 3e 5a 60 1d 3d f5 06 e1 3d 79 63 37 3d
       0.19277385 0.038421966 0.10987655 0.0447726
000340 23 8c 52 bd 61 70 78 3c 0c 1f 98 be b2 94 13 3c
       -0.051403176 0.015163512 -0.29711187 0.00900762
000350 22 53 95 3c c9 6d 0b bd 58 f0 f1 3c 03 48 38 bb
       0.018228117 -0.034040246 0.02953355 -0.0028119094
000360 87 e4 5d 3d 7f 34 a5 bd 0d 6b df bd c4 69 b4 bd
       0.05417302 -0.080666535 -0.1090909 -0.08809236
000370 f6 56 a6 3d c4 14 fc 3d 2a 5f d9 be e8 fb 7e 3e
       0.08122055 0.12308648 -0.42455417 0.24900782
000380 e1 03 8a bd a4 08 67 3d 5f a8 1e bd d8 03 88 bc
       -0.06739021 0.056404725 -0.03873479 -0.016603395
000390 d0 87 56 3e 6b 1f 7b be bc cc 39 be 3a 7b 95 bd
       0.20950246 -0.24523704 -0.18144506 -0.07298894
0003a0 56 a4 f6 bc 28 cb d2 be 54 f6 60 be a8 f1 1a bd
       -0.030107658 -0.4117062 -0.21968967 -0.037828118
0003b0 1f dd d6 3d ec 54 59 3c 7b b2 69 3e e8 39 dd bc
       0.10491394 0.013264876 0.22821991 -0.02700515
0003c0 d0 ec 88 3c 4a 32 78 3d e5 ef c6 3d c6 d7 ff 3c
       0.016714483 0.060594834 0.09713725 0.031230818
0003d0 c6 9a 39 3b 95 c2 9d bd 6f 26 55 3e 19 17 1f bd
       0.0028321012 -0.07703129 0.20815443 -0.038840387
0003e0 9c 30 7f bb 56 73 ad bc 22 17 0e be c0 06 94 bc
       -0.0038938886 -0.02117316 -0.13876012 -0.018069625
0003f0 57 25 c0 bd aa 70 8a be 29 d5 51 bc e2 1b 8c 3e
       -0.09382122 -0.2703908 -0.012807169 0.27365023

fc2.bias f4 [64]
000000 03 d3 1a 3e ea e5 9c bd d9 2a b1 3e b4 1c dc 3c
       0.15119557 -0.0766104 0.34603003 0.026869155
000010 e6 30 c3 3d e4 50 fa bc cf 73 38 bd 7c dd bf 3d
       0.09530811 -0.03055615 -0.04503232 0.09368417
000020 ed b3 26 3e a9 ec 2c be 1e 10 b7 3d 47 99 43 3e
       0.16279574 -0.16887154 0.08938621 0.1910144
000030 ad dd 5e 3e a0 30 4c 3e 9f 61 d3 bd f8 ea 54 be
       0.2176425 0.19940424 -0.10321354 -0.20792758
000040 57 7a 17 be 12 bd 50 3e e8 02 4d 3c 46 48 0b 3e
       -0.14792763 0.20384625 0.0125129 0.13601789
000050 c2 fe bb 3d 0c 4f e4 bd bd 16 04 bd d4 86 35 3e
       0.091794506 -0.111478895 -0.032248247 0.17727214
000060 52 1f 4a 3e 2e 92 b0 3d a2 94 64 3c b8 00 df 3d
       0.1973851 0.086216316 0.013951452 0.10888809
000070 82 46 32 3e 25 02 5f 3e f0 92 9d 3e 4f 0c c9 bd
       0.17409709 0.21778162 0.30776167 -0.09816801
000080 d8 7e dd bc c5 ef 98 3c 3c 9e 0d 3e c9 13 5f be
       -0.027038023 0.018669019 0.13829893 -0.21784891
000090 89 a1 e0 3d 11 7c 27 3d 56 a2 e3 bc 5d 98 67 3e
       0.109683104 0.040889803 -0.027787369 0.22616716
0000a0 7d ac 9d bc 37 7e 3e bd 44 2d e4 3d a7 5e 42 3d
       -0.019247288 -0.046507087 0.11141446 0.04745355
0000b0 83 af 30 3b 40 af 44 3e 59 dd 05 3e 36 ff 5e 3c
       0.0026960082 0.19207478 0.13072719 0.013610652
0000c0 63 91 61 3e de da c6 3c ce c6 0d 3e 11 bc 93 bd
       0.22028117 0.024274286 0.13845369 -0.07213605
0000d0 a5 98 84 bd d4 de 2f be 99 2b 87 3d d0 50 44 be
       -0.06474427 -0.17174846 0.066001125 -0.19171453
0000e0 1b 54 e4 bd c2 ef bb 3d 3e bb 42 3d 93 71 cb 3c
       -0.11148854 0.091765895 0.04754185 0.02483443
0000f0 ea 44 1d be a1 3e e7 3c f6 ee 86 bd e5 24 7a 3d
       -0.1535832 0.028228106 -0.06588547 0.06107034

fc3.weight f4 [10, 64]
000000 ad 10 88 be 3c fc b9 3c 86 85 03 bf 82 44 cd be
       -0.26575223 0.022703283 -0.51375616 -0.4009133
000010 75 4d c7 be 02 91 d4 3d 95 e8 d4 be ea b0 ac be
       -0.38926283 0.103792205 -0.41583696 -0.33728725
000020 93 e6 a7 be e2 fb 81 3e f6 9f 99 3d 5f 88 44 3e
       -0.32793102 0.25387484 0.07501213 0.19192646
000030 2b ec 40 3e 29 a6 41 3e 2b 71 cf 3d 45 49 15 3e
       0.18840091 0.18911041 0.10129007 0.14578731
000040 db fb 3b be df e9 91 3d b1 7e 82 3e aa 56 96 bd
       -0.18357794 0.071246855 0.25487283 -0.073407486
000050 24 4d ae bd 7d 4d 8b be c2 3d 5b bd d6 d7 87 bd
       -0.08510807 -0.27207556 -0.053525694 -0.06632964
000060 11 ff 3e 3e 6d ec 2f 3e a0 0b 2e be ab 02 1d 3e
       0.18651988 0.17180033 -0.16996622 0.15333049
000070 53 b6 9c 3e e8 07 00 bf 71 32 12 be 13 21 90 be
       0.30607852 -0.50012064 -0.14277054 -0.28150234
000080 4f 4e 8a 3e 6f 23 00 3e b5 c8 73 be cd d8 f7 3b
       0.2701287 0.12513517 -0.23807032 0.0075636865
000090 19 22 45 3e 2c 67 63 3e db 08 a4 3d 79 20 4c 3e
       0.19251288 0.22207326 0.080095015 0.19934262
0000a0 d4 d9 e6 be 8a 20 ec be c1 4d f8 3d b4 fb 3a 3e
       -0.45088065 -0.46118575 0.121242054 0.1826008
0000b0 f1 53 22 be 19 e1 5e be df a2 a3 be da 77 6c bd
       -0.15852334 -0.21765555 -0.31960198 -0.057731487
0000c0 8e 88 50 3d 8b 12 f4 bd 8e 83 e0 be a4 8c b7 be
       0.05091148 -0.11917599 -0.43850368 -0.35849488
0000d0 21 1f 14 be 68 4e d1 3c 63 f8 eb be 57 5e ef 3d
       -0.14465 0.025550082 -0.46087942 0.11687916
0000e0 23 19 d8 bd 3d ec 71 3e 9b 69 1c be 4a e4 47 be
       -0.105516694 0.23625274 -0.1527466 -0.19520679
0000f0 4b 44 f7 3d b8 c4 c1 bd 64 be 0b bd aa 1a 26 3e
       0.12073573 -0.09461349 -0.034117118 0.16221109
000100 0f b1 a8 be 18 e3 8f be 75 38 c6 3d c6 98 1f 3e
       -0.32947585 -0.28102946 0.09678737 0.15585622
000110 f8 aa 07 3e 69 10 b3 be c5 6c a3 3e d5 5c 3f 3e
       0.13248813 -0.34973457 0.31918922 0.18687756
000120 0d f9 09 be 5e e3 50 bd c3 33 5f 3e f4 66 e0 3d
       -0.13473912 -0.050998084 0.2179709 0.10957137
000130 c4 e3 f1 be 9b 9d b7 be 3c 65 a7 be b7 87 39 be
       -0.47244084 -0.3586243 -0.32694423 -0.18118177
000140 c9 60 51 bb 7b e0 f7 be 48 e1 11 be 63 e6 18 be
       -0.0031948558 -0.48413453 -0.14246094 -0.14931636
000150 33 3f 26 3e 98 24 15 3d 56 1e c8 be b1 a9 d1 be
       0.16235046 0.03641185 -0.39085644 -0.40949777
000160 24 91 c7 be 65 04 74 3e 77 ed f9 3d f8 be 41 be
       -0.3897792 0.23829801 0.12203496 -0.18920505
000170 0e b5 62 3c 18 05 15 3e 18 7a 04 3e aa 28 6c bd
       0.013837112 0.14552724 0.129372 -0.057655968
000180 40 42 15 be 6c 5b 25 be 04 6e f2 3d 57 c5 97 be
       -0.14576054 -0.16148156 0.1183739 -0.29642746
000190 90 09 a3 be 02 dd 01 bf 6a 81 b3 be a5 e5 f4 3d
       -0.31843233 -0.50727856 -0.35059673 0.11957864
0001a0 c5 18 34 3e e3 99 d9 3d 88 3a b1 be c4 15 a9 be
       0.17587574 0.10625055 -0.34614968 -0.33024418
0001b0 ee 58 06 3e 06 21 12 3e cc d2 6f 3e fb 5a 9b be
       0.13119861 0.1427041 0.23420256 -0.3034285
0001c0 38 67 a1 be ec 07 57 3e 9c de 93 3d 7c e5 42 be
       -0.31524062 0.20999116 0.07220194 -0.19032854
0001d0 bc 52 32 bd 45 34 ff bc 44 ac 86 3d 2f ca 19 be
       -0.043535933 -0.031152854 0.06575826 -0.15018533
0001e0 55 a1 2b 3e 36 cf 42 be d8 b5 6d be 8b 4d c0 3e
       0.16760762 -0.19024357 -0.23213899 0.3755916
0001f0 7f d1 71 be f7 27 b8 3e a9 7e 15 be 28 1c 88 be
       -0.23615073 0.3596799 -0.14599098 -0.26583982
000200 fd a2 78 3c b1 56 41 3e 13 3e f3 be b8 4f 02 3e
       0.015175578 0.18880726 -0.47508296 0.12725723
000210 62 1b c0 be 04 0c d9 3d 10 a9 62 be 14 a1 ff 3d
       -0.3752089 0.10597995 -0.22134805 0.12481895
000220 40 91 d4 be 58 c6 22 3e 0d 7a 3e 3c 0c 46 33 be
       -0.41517067 0.15895975 0.011625779 -0.1750719
000230 1f a0 c8 bd 69 41 b9 be 6f e1 e8 3d ce ae 81 3e
       -0.09796166 -0.36182716 0.11371123 0.25328678
000240 ec 2c 16 3e 14 6d b7 bd 41 e0 d3 3d 80 49 3a 3e
       0.14665574 -0.08956352 0.103455074 0.181921
000250 39 de af 3d 31 2f 58 3e 19 a0 58 3e af ed 09 be
       0.085873075 0.21111752 0.21154822 -0.13469575
000260 8d d2 5d be 43 48 dd 3c 1d a8 c5 3d b1 59 9d be
       -0.2166235 0.027011996 0.09651206 -0.30732492
000270 40 70 70 be c1 5b 2d be 4b eb d1 be 27 56 25 3e
       -0.2348032 -0.16929533 -0.40999827 0.16146146
000280 89 44 5e 3e 76 4c 84 3d 2c a0 00 3e 04 c0 85 3e
       0.21705832 0.06459896 0.125611 0.2612306
000290 8f 51 ba 3c 11 b9 c2 3d 5d 67 46 3e e8 89 8b be
       0.022743968 0.09507955 0.19375367 -0.27253652
0002a0 b6 a7 05 3e 08 91 5a 3e 03 49 82 3d a5 da 53 3e
       0.13052258 0.21344388 0.06361582 0.20688875
0002b0 24 8b 7f 3e 48 55 8c bd e4 b6 97 3d 87 dd da bc
       0.24955422 -0.068522036 0.074079305 -0.02671696
0002c0 24 b9 64 be 27 63 59 3e e1 3e dc be 36 cd f2 3d
       -0.2233625 0.2122923 -0.43016723 0.11855547
0002d0 1d dc fb 3d 7c ef 9a bd 8f 62 d5 be c9 8d 86 3e
       0.12297843 -0.07565209 -0.41676757 0.26280048
0002e0 68 d6 86 3c 67 54 68 be 32 5f bc bd c3 0a 8e bd
       0.016459659 -0.22688447 -0.091978446 -0.069356464
0002f0 db df e1 3d 8f e6 00 be 81 e7 38 bc 66 63 dd bc
       0.11029025 -0.12587951 -0.011285664 -0.027024936
000300 8c a7 04 3e fc bc a4 3d 20 7d ea 3d 0c 13 59 be
       0.12954539 0.080438584 0.11449647 -0.21198672
000310 d7 f3 e7 bd 15 6f 45 3d a8 24 8b 3e 2d 84 ee be
       -0.11325806 0.04820164 0.27176404 -0.46585217
000320 68 f6 11 3e 52 7e 5b 3d 4c b9 b9 be ad 76 af 3d
       0.14254153 0.053587265 -0.36274183 0.085675575
000330 b1 fd bb be b3 11 97 be 07 a4 55 bd b9 c7 8b be
       -0.3671699 -0.2950569 -0.05215838 -0.27300814
000340 f3 4c 28 3e 7f a8 e9 3d 30 c8 51 3e 22 53 c2 be
       0.16435604 0.11409091 0.20486522 -0.3795405
000350 ba 18 ca be 8b b8 80 3e 68 6c 71 bd 89 3d c8 bc
       -0.3947199 0.25140795 -0.058941275 -0.024443405
000360 c2 93 eb be af b6 d7 be c7 fd d0 3d 13 2d 6e 3d
       -0.46011168 -0.42131564 0.10204654 0.058148455
000370 f9 6d 89 be a7 0c 0e 3e 18 82 4e be 7a 43 21 3e
       -0.26841715 0.13872014 -0.20166814 0.15748397
000380 c6 cb a8 be be a9 8c 3d 55 f9 56 bc c4 1b 11 bd
       -0.32967967 0.06868313 -0.013120969 -0.03542687
000390 a1 a9 29 3e 3d 75 8d 3b cb 4b 56 be 7d 2c 27 3e
       0.16568615 0.0043169544 -0.2092735 0.16325565
0003a0 7e 5e 9b 3d 05 84 04 3d 48 23 4a ba 6a 3b 1a bd
       0.07586382 0.032352466 -0.0007710946 -0.037654318
0003b0 ae 56 a6 3d be 88 ee be 49 d0 e8 3d 88 57 a3 bd
       0.081220016 -0.465887 0.11367852 -0.0797568
0003c0 d5 61 88 be 47 f0 5a 3e d9 12 40 bd a5 7b 2b be
       -0.2663714 0.21380721 -0.046892975 -0.16746385
0003d0 fc 8a 41 3e b5 e0 9a 3d 28 91 22 3e 48 8d 9f be
       0.18900675 0.07562391 0.15875685 -0.31162477
0003e0 12 79 17 be f7 32 8c 3e 96 af ad be dc 9d c0 bd
       -0.14792278 0.27382633 -0.33923024 -0.09405109
0003f0 88 10 17 3e f6 ea 97 be ed 61 ee 3c 2a f6 38 3e
       0.147524 -0.29671448 0.029099429 0.18062654

fc3.bias f4 [10]
000000 e4 ce 01 bd 6a 4f 67 bd a3 28 0f be 09 53 a6 3d
       -0.031691447 -0.05647222 -0.13980345 0.081213064
000010 35 59 09 3d 09 b9 98 3d 8e e4 35 bd a4 75 10 3e
       0.03353234 0.07457168 -0.04440742 0.14107376
000020 88 9b 3d 3e 55 b8 ac 3d
       0.18516362 0.08433596
